weight/epoch_7_base_model.model.vit.encoder.layer.10.attention.attention.query.lora_B.default.weight.npy (npy, 24704 bytes, 1 tensors)

array f4 [768, 8]
000000 b8 ae 38 3b b2 ab c7 3a 21 f6 74 b8 1f e8 23 bb
       0.0028180312 0.0015233664 -5.840336e-05 -0.002501018
000010 86 b7 38 3b b2 0f 6b ba 91 52 25 37 4f 25 c2 3a
       0.002818556 -0.00089668774 9.85399e-06 0.0014812144
000020 11 62 97 3a 81 f6 52 ba bd 81 56 b9 4e 6e cc b9
       0.0011549612 -0.0008047596 -0.00020456962 -0.00038992096
000030 95 84 29 ba 87 a8 03 39 e3 9e 44 ba f0 70 8c ba
       -0.00064665946 0.00012555915 -0.00075004826 -0.001071481
000040 bb 14 46 3a e4 03 2a b9 95 d1 ed 3a e3 bd 8d bb
       0.00075561897 -0.00016213913 0.0018144125 -0.004325615
000050 68 d5 52 3b e4 68 28 bb 47 a7 d0 3a cd 74 38 ba
       0.0032170657 -0.0025697285 0.0015918993 -0.00070364476
000060 e3 a8 7c bb 3e 23 77 3a 22 7f e6 ba f7 c9 86 3b
       -0.0038552813 0.0009427554 -0.0017585496 0.0041134316
000070 6b 2f 96 bb 90 78 1a 3b 2c af 05 bb 71 98 a1 39
       -0.0045832894 0.0023570396 -0.00203986 0.0003082189
000080 01 8b 25 bb 1e d6 1c 39 29 7c 43 bb ec 1f 13 3c
       -0.0025259855 0.00014957084 -0.0029828644 0.008979779
000090 85 38 c6 bb d0 a4 62 3b 80 91 24 ba de 6d df ba
       -0.006049218 0.00345831 -0.00062777847 -0.0017046293
0000a0 29 84 f1 3a ed d6 2d b9 49 26 b5 b8 91 50 cb bb
       0.0018426228 -0.00016578632 -8.637884e-05 -0.0062046726
0000b0 69 5a a7 3b 85 a6 2a bb 41 07 89 ba d9 2e 28 3b
       0.0051072133 -0.0026039195 -0.0010454432 0.002566269
0000c0 e3 12 f4 bb 2e fc 25 3b d1 52 c0 bb 9c 29 85 3c
       -0.0074485405 0.0025327313 -0.0058692475 0.016255192
0000d0 af 10 37 bc a0 74 09 3c ea c9 9b ba 58 cd 23 bb
       -0.011173411 0.008389622 -0.0011885737 -0.002499422
0000e0 16 98 0a ba 08 c5 7d ba dd 39 7f 39 3a c5 e1 b9
       -0.0005286945 -0.0009680544 0.00024340251 -0.0004306229
0000f0 ae fa c2 b9 d7 0b 0f ba d3 24 38 3a d8 b2 a0 b9
       -0.00037189334 -0.00054567814 0.000702453 -0.00030650827
000100 54 93 17 bc 9c c1 48 ba 85 cc 8e bb 9a ef 96 3c
       -0.009251434 -0.00076582446 -0.0043578767 0.018424798
000110 d2 c0 50 bc 06 42 31 3c 53 59 13 bb 2f a2 80 bb
       -0.012741284 0.010818964 -0.0022483661 -0.003925584
000120 f7 2f 49 ba 9d fb d5 3a 8e f7 07 bb 93 9b da 3b
       -0.0007674689 0.0016325597 -0.002074692 0.006671378
000130 fc 69 0e bb 80 c9 17 3b fc 97 67 38 ce d8 83 bb
       -0.0021730652 0.0023160875 5.521624e-05 -0.004023648
000140 1c 7f 42 bb 60 6c 3d bb 85 a6 56 3a 4b c4 8f 3b
       -0.0029677814 -0.0028903708 0.00081882655 0.0043874136
000150 02 d0 9e bb 51 e5 27 3b 58 72 dd ba 55 1b 7c b9
       -0.004846574 0.002561886 -0.0016895039 -0.00024042775
000160 dc ab 4a bb c0 f3 bc 39 f3 bc f7 ba 83 cb 37 3b
       -0.003092519 0.00036039762 -0.0018900916 0.0028044886
000170 3b 45 62 bb fb 65 89 3a 89 b0 8c ba 6d 97 dc 39
       -0.0034526128 0.0010482663 -0.0010733764 0.0004207449
000180 2d 54 db bb cb 9e 2e 3b 2c b8 fa bb 20 4e 93 3c
       -0.006693384 0.002664494 -0.0076513495 0.017981589
000190 7e f1 30 bc bf 1c 1c 3c 38 45 91 ba 81 7c b6 bb
       -0.010799764 0.009528338 -0.0011083251 -0.0055690412
0001a0 1f bf 60 bc cb 07 bb 3c 41 f7 b8 bc e2 a1 57 3d
       -0.013717442 0.022830864 -0.022578837 0.052644618
0001b0 3d 36 d9 bc ae 18 c9 3c f4 eb 00 3c ec af 82 bc
       -0.02651512 0.024547901 0.007868756 -0.015953027
0001c0 5d 86 07 3c ca b3 b2 b9 2a 78 9c 3b d8 ae 90 bc
       0.008271781 -0.0003408476 0.004775067 -0.017661497
0001d0 71 02 4f 3c 45 4e 1e bc d4 23 27 3b a7 4b 6b 3b
       0.012634859 -0.009662216 0.0025503533 0.0035903247
0001e0 02 64 3f 3b 93 95 32 bb e3 de f3 3a e9 11 5b bb
       0.0029203896 -0.0027249798 0.0018605854 -0.0033427423
0001f0 03 fd 01 3b a0 aa 1e 3a 96 32 01 3a 79 a6 05 39
       0.0019834645 0.0006052647 0.00049284974 0.00012745884
000200 37 27 44 b9 42 06 66 ba 67 21 68 b8 07 f4 4f 3a
       -0.00018706625 -0.0008774736 -5.534422e-05 0.0007932786
000210 8a 6e 22 ba c0 3e a1 3a 98 3a 28 ba 4b d1 85 39
       -0.0006196281 0.0012302026 -0.00064174226 0.00025523672
000220 da b0 b7 3b f6 79 71 39 68 01 83 3b ff e3 2a bc
       0.005605799 0.00023028985 0.0039979704 -0.010430335
000230 e8 fe c9 3b 46 91 b9 bb eb 0b e5 3a 9a 83 aa 3a
       0.0061644204 -0.00566307 0.0017474865 0.0013009191
000240 93 86 c2 3b 51 5b ab ba ff 11 47 3b 34 a0 3a bc
       0.0059364527 -0.0013073479 0.0030375717 -0.011390734
000250 57 e1 17 3c d2 0c b2 bb c0 30 c7 3a 31 fb 2b 3b
       0.009270034 -0.005433657 0.0015197024 0.002624225
000260 f3 52 99 bb 6c 61 6f 3a 32 72 dd bb b2 d8 8c 3c
       -0.004679078 0.00091316435 -0.006757998 0.017193172
000270 69 ee 0d bc 4e 1e 08 3c ec 46 7c ba ef 06 77 bb
       -0.008662798 0.008308006 -0.00096236053 -0.0037693342
000280 fa c6 18 39 3f 15 4b 3b 22 42 4b b9 8f e1 a6 ba
       0.00014569974 0.0030988005 -0.00019384225 -0.0012732017
000290 16 0b ce 3a 83 71 fc ba 8d 77 e6 3a c9 e6 29 3a
       0.0015719857 -0.0019259903 0.0017583236 0.0006481228
0002a0 44 de b2 ba 9a cb cf 3a 18 d1 8e 38 e5 65 18 bb
       -0.0013646563 0.0015853525 6.8100344e-05 -0.0023254093
0002b0 7b 49 85 3a 31 d1 0c bb 30 5c ae ba 0a fe fc 3a
       0.0010168994 -0.0021486992 -0.001330262 0.0019301784
0002c0 72 98 bd ba 92 6d 36 b9 e0 8e 17 3a 8c 04 10 3b
       -0.0014464988 -0.0001739769 0.0005781483 0.0021975366
0002d0 a9 b6 ff ba 57 a1 22 3b b0 3a a4 b9 91 29 6a ba
       -0.0019509393 0.0024815404 -0.00031324243 -0.00089325855
0002e0 76 20 02 bc e8 b5 39 3b c1 e7 f5 bb b4 ab 9b 3c
       -0.00794231 0.0028337184 -0.007504434 0.019002773
0002f0 45 46 42 bc a8 75 25 3c ee 1a 53 ba ca 7c 83 bb
       -0.011857574 0.010098852 -0.0008053024 -0.0040126787
000300 ac 9a 2f bc 15 01 32 3b d4 95 ad bb 0e 87 a0 3c
       -0.010718029 0.002716129 -0.005297402 0.01959565
000310 99 60 72 bc f9 38 38 3c 5b 51 fd ba 3f d4 9e bb
       -0.0147935385 0.011244052 -0.0019326614 -0.004847079
000320 66 56 59 bb 86 90 fd 3a a4 7b 7a bb 6f ab 14 3c
       -0.003316307 0.001934544 -0.0038220668 0.009074076
000330 1b 8e 8c bb 52 0a 94 3b ff 7c c8 b8 3d 01 d6 ba
       -0.004289401 0.004517832 -9.5600255e-05 -0.0016327273
000340 77 1c 84 3b e0 71 10 bb cb 79 e8 3a 7b 4a 09 bc
       0.0040317136 -0.002204053 0.0017736492 -0.008379574
000350 3d b9 cd 3b d7 c8 a2 bb 59 18 84 3a 93 d2 17 3b
       0.0062781856 -0.0049677896 0.0010078057 0.0023166283
000360 e3 4f b1 3b 57 51 41 b9 72 c1 63 3b d3 10 11 bc
       0.0054111346 -0.00018436216 0.0034752754 -0.008854109
000370 a0 c0 e8 3b ae 35 8c bb c1 88 90 3a e7 4d 22 3b
       0.007103041 -0.00427886 0.0011027084 0.0024765672
000380 e1 fd 28 3b 39 de 0a ba c8 6d 3d 3b 43 6c 01 bc
       0.002578609 -0.0005297396 0.0028904546 -0.007899347
000390 46 94 6e 3b 0d 5d 7a bb ca a9 19 3a aa 9e 8a 3b
       0.0036404296 -0.0038202435 0.00058617874 0.00423034
0003a0 da b0 25 bb a4 32 48 ba cb 22 3a b8 83 7a 62 3a
       -0.0025282414 -0.00076369406 -4.437826e-05 0.00086394715
0003b0 6f ca 50 ba 96 38 5d 3a 94 cd 85 ba 7c c5 2e ba
       -0.0007964735 0.0008438913 -0.0010208362 -0.00066670007
0003c0 24 4d 58 3a ce 81 83 3a fc 69 31 39 ef eb 43 b9
       0.0008251241 0.0010033192 0.00016919518 -0.00018684541
0003d0 ae 33 04 3a 88 aa fd b9 a1 fc 96 3a 1a be e4 b9
       0.0005043101 -0.00048382976 0.0011519381 -0.00043629186
0003e0 6c 01 4c 3b df c7 85 ba 37 78 81 39 85 a4 1a bc
       0.0031128777 -0.0010206661 0.00024694364 -0.009438639
0003f0 e4 4a cb 3b 86 62 82 bb 5f 25 0a 3b 5d 18 15 3b
       0.006203996 -0.00397903 0.0021079404 0.0022750117
