weight/epoch_8_base_model.model.vit.encoder.layer.10.attention.attention.query.lora_A.default.weight.npy (npy, 24704 bytes, 1 tensors)

array f4 [8, 768]
0	0x3cf875cf	0.030329613
1	0x3d0df0cb	0.034653466
2	0x3bd42733	0.0064743995
3	0x3b05cfb8	0.0020418
4	0xbd014bfd	-0.03156661
5	0x3d2eecbe	0.042706244
6	0x3b4e3bbf	0.0031468717
7	0xbb6a3682	-0.0035738056
8	0x3cd093c9	0.025461094
9	0x3b837397	0.004011582
10	0xbd0b1fb1	-0.03396577
11	0x3aa7b282	0.0012794288
12	0x3c49723c	0.012295302
13	0xbc021d74	-0.0079415925
14	0xbb34341b	-0.0027496878
15	0x3d1bef13	0.038069796
16	0x3cb53011	0.022117646
17	0x3b9ba3c5	0.0047497475
18	0xbbd354c4	-0.006449314
19	0x3c168c18	0.009188674
20	0xbc8d4a86	-0.01724745
21	0xbc6bf974	-0.014402736
22	0xbca6ba05	-0.020352373
23	0xbd17296f	-0.03690475
24	0x3cd7167e	0.026255842
25	0xbce7c078	-0.028290018
26	0x3ca02de8	0.01955314
27	0x3c895c64	0.016767688
28	0x3d32fe25	0.043699402
29	0xbbf8630e	-0.0075801676
30	0xbcb3359c	-0.021876149
31	0x3982ee3f	0.0002497304
32	0x3c5566e5	0.01302502
33	0xbc1ba96d	-0.0095008435
34	0xbcba2801	-0.022724153
35	0xbcb41120	-0.021980822
36	0x3c815354	0.015786804
37	0xbc3f8e86	-0.011691695
38	0xbbbfae9d	-0.005849673
39	0xbce97d7f	-0.028502224
40	0xbc814bdb	-0.015783241
41	0x3cb32f95	0.021873275
42	0xbc6856e3	-0.014180872
43	0x3cbc8a07	0.023015035
44	0xbc5fecf7	-0.013667337
45	0x3ced18f8	0.02894257
46	0x3ca5bed7	0.020232601
47	0x3c840525	0.016115734
48	0xbd114609	-0.03546718
49	0x3cf2d74c	0.029643677
50	0xbce9c6d2	-0.028537188
51	0x3c311f9d	0.01081076
52	0xbca50d43	-0.020147925
53	0xbcc58d00	-0.024115086
54	0x3cf26fdc	0.029594354
55	0xbcc1fd33	-0.023680305
56	0x3cbcef6d	0.023063386
57	0xbc2da3c6	-0.010598129
58	0x3c149917	0.009069703
59	0x3b30a1d8	0.0026951935
60	0x3be0d4cb	0.0068613044
61	0x3bf0dabd	0.0073502944
62	0xbcf63392	-0.030053888
63	0xbcf59d25	-0.029982159
64	0xbcca5af2	-0.02470157
65	0xb9a57c19	-0.00031563712
66	0x3c8ce4e4	0.017198987
67	0x3b56705a	0.0032720775
68	0x3be9b05d	0.00713162
69	0x3c72f81c	0.014829662
70	0x3d02e0b3	0.03195257
71	0xbc5eb0b7	-0.013591937
72	0x3cc4a85c	0.024006061
73	0xbc8cdccd	-0.01719513
74	0xbd1c33bf	-0.038135286
75	0xbceba86e	-0.028766837
76	0xbcc81f9d	-0.024429137
77	0x3ca971ba	0.020684112
78	0x3ce1c727	0.027560784
79	0xbcea8cca	-0.028631587
80	0xbc02aacd	-0.007975292
81	0x3a48b388	0.0007656147
82	0x39ffde25	0.000488029
83	0x3cdb4c15	0.026769677
84	0xbc707837	-0.014677099
85	0x3d0690ba	0.032852866
86	0x3d78fcdb	0.060788017
87	0xbc827d9a	-0.015929032
88	0xbc3208d5	-0.0108663635
89	0xbca03899	-0.019558238
90	0xbd011720	-0.031516194
91	0x3bd97554	0.006636301
92	0xba337303	-0.0006845446
93	0x3ca5a99e	0.020222481
94	0xba85cda2	-0.0010208378
95	0x3ab15596	0.0013529535
96	0x3c841d92	0.016127381
97	0xbd10334d	-0.035205174
98	0xbc8e342a	-0.017358858
99	0xbd02959a	-0.031880952
100	0xbb71aa9a	-0.0036875368
101	0xbd03876a	-0.032111563
102	0xbd2a0237	-0.04150602
103	0xbce87cfd	-0.028379912
104	0x3c27596d	0.010214192
105	0x3d06b318	0.03288564
106	0xbc0eed62	-0.008723589
107	0xbc936121	-0.01799065
108	0xbc32ae32	-0.010905789
109	0x3cb9cebc	0.022681586
110	0x3b19095f	0.0023351533
111	0xbab69393	-0.0013929479
112	0x3bad26d7	0.005284171
113	0xbcf5346e	-0.029932227
114	0xbcdb9dae	-0.026808586
115	0xbd02f04c	-0.031967446
116	0xbcadf72a	-0.021236021
117	0xbc584af2	-0.013201462
118	0xbc77f175	-0.015133251
119	0xbca90c8b	-0.020635864
120	0x3cac354f	0.021021513
121	0x3c14666e	0.009057624
122	0xbc784c1d	-0.015154866
123	0x3c6f9743	0.014623466
124	0x3c1a8347	0.009430713
125	0xbcec9675	-0.028880337
126	0x3d573d91	0.05254895
127	0xbc1b09b5	-0.009462764
128	0xbb3cb869	-0.002879644
129	0x3c5c1389	0.013432392
130	0xbd178ed5	-0.03700145
131	0x3ccfa2e5	0.025346229
132	0xbcf2096d	-0.02954551
133	0xbd16090f	-0.036629733
134	0x3c896c8a	0.016775388
135	0xbce768cb	-0.028248211
136	0x3c7e0c6a	0.015505889
137	0xb9d16019	-0.00039935185
138	0x3cbd79a2	0.023129288
139	0x3cd97af2	0.026547883
140	0xbc687cd8	-0.014189921
141	0xbcd0e74f	-0.025500922
142	0xbc54c61e	-0.012986688
143	0xbb4adfa2	-0.003095605
144	0x3cf42ab3	0.029805517
145	0x3c8810f0	0.016609639
146	0x3c92660c	0.017870925
147	0x3c61e9f3	0.013788688
148	0x3cfb8da5	0.03070719
149	0x3cb0a143	0.02156127
150	0x3c9efe44	0.019408353
151	0x3c16cc42	0.009203972
152	0xbacfc982	-0.0015852901
153	0x3ca42e5d	0.020041639
154	0x3d11caee	0.03559392
155	0xbce17ea9	-0.027526217
156	0xbcc1dbc8	-0.02366437
157	0x3d07868a	0.03308729
158	0xbc8912cd	-0.016732598
159	0xbcab735f	-0.020929037
160	0x3d0700b8	0.03295967
161	0xbcdb0beb	-0.026739081
162	0x3b53182f	0.003221046
163	0x3c852ef0	0.016257733
164	0x3b73fcaa	0.0037229457
165	0xbc4bde3b	-0.012443121
166	0xbc1c5dd7	-0.009543858
167	0xba3dfe09	-0.0007247632
168	0x3ca24368	0.019807532
169	0xbcda0ad0	-0.026616484
170	0xbca18ccc	-0.019720457
171	0x3d0751d8	0.033037037
172	0xbc2026b8	-0.009774856
173	0x3cf6caa8	0.03012593
174	0x3b9639cb	0.004584526
175	0x3d15f8a4	0.036614075
176	0xbc81461b	-0.0157805
177	0xbc06f707	-0.008237607
178	0x3cc390d8	0.023872778
179	0xbce7b3eb	-0.028284034
180	0xbc98e93a	-0.018665899
181	0x3a176638	0.00057754247
182	0x3d0ed6fc	0.034872994
183	0xbb2b392c	-0.0026126606
184	0x3b3fd541	0.0029271396
185	0x39872640	0.00025777705
186	0xbd034ff1	-0.03205866
187	0xbcf0c551	-0.029390963
188	0x3a1011ab	0.0005495797
189	0xbd10a050	-0.035309136
190	0x3c28ee38	0.010310702
191	0xbc1f244c	-0.009713244
192	0x3c51751b	0.012784268
193	0xbd27409c	-0.0408331
194	0xbcc9a045	-0.024612555
195	0xbd40a128	-0.04702869
196	0xbcaae2f0	-0.020860165
197	0x3bc5e0e7	0.0060387733
198	0xbc245a5c	-0.010031309
199	0xbcb1a158	-0.02168338
200	0x3ca00913	0.019535577
201	0x3c8662a3	0.016404456
202	0xbd173c8e	-0.036922984
203	0x3ca745bb	0.020418992
204	0x3d2064ac	0.03915851
205	0xbd096b9d	-0.033549894
206	0x3c4540a7	0.01203934
207	0x3b5e32aa	0.003390471
208	0xbd012d3f	-0.03153729
209	0x3a9b79ac	0.0011861823
210	0x3ce1a937	0.027546508
211	0x3c5ada27	0.013357676
212	0xbd288636	-0.04114362
213	0x3c0a673d	0.0084474655
214	0xbc9e5af8	-0.019330487
215	0xbc95527e	-0.018227812
216	0x3ccccc3e	0.024999734
217	0x3c815924	0.015789576
218	0x3b5c6bd4	0.0033633607
219	0xbcde14ee	-0.02710959
220	0x3b171012	0.002305035
221	0x3cbaf217	0.022820516
222	0x3b3ba969	0.0028634912
223	0xbc7eaa62	-0.015543552
224	0xbc10130e	-0.0087936055
225	0xbc9e84db	-0.01935046
226	0xbce935a7	-0.028467966
227	0x3d03ae5f	0.032148715
228	0x3cb9b4d0	0.022669226
229	0xbce58a0e	-0.028019931
230	0xbcca478d	-0.024692321
231	0x3c2bd95d	0.010488835
232	0xbc647010	-0.013942733
233	0x3ceed0fe	0.02915239
234	0xbb11cbe4	-0.0022246772
235	0xbb969853	-0.004595795
236	0x3bba1ecc	0.005679941
237	0xb99068d1	-0.00027543915
238	0x3c8cd756	0.017192524
239	0x3d1245bf	0.035711046
240	0xbc2d73e8	-0.010586716
241	0xb9ab08b1	-0.00032622137
242	0xbcbec621	-0.023287835
243	0xbc967502	-0.01836634
244	0x3cc8733d	0.024469012
245	0xbc406392	-0.011742489
246	0x3cdef1e8	0.02721496
247	0x3b945ec1	0.004527897
248	0xbc758e2d	-0.014987511
249	0x3c87b6ff	0.016566752
250	0xbac841f0	-0.001527844
251	0x3c6614b0	0.014043018
252	0xbc0113a5	-0.007878219
253	0x3ccfbe63	0.025359338
254	0xbc0b9665	-0.008519744
255	0xbd2ae8af	-0.04172581
