weight/epoch_6_base_model.model.vit.encoder.layer.8.attention.attention.value.lora_B.default.weight.npy (npy, 24704 bytes, 1 tensors)

array f4 [768, 8]
00000000: 901b 163c 1f5f cd3b 09dc dfbb f283 4ebb
00000010: 55e5 053b 306b 6b3a c78e d7bb d2cb d53b
00000020: 1ef9 51bb b85d 41bb 1e49 fd39 4b87 53bc
00000030: cb3e 9f3c 54c3 373c 37b8 34bb d787 c4bb
00000040: a354 a6ba 9a4a 89bb 9e24 373b 23c4 f43b
00000050: 53c4 07bc 2cef e3ba 1f5b 86b9 63c9 0fba
00000060: 1580 8cbb 6304 433a 5d5f b13b 7697 243c
00000070: ab60 09bc b4d4 81bc 2021 c2b9 cfef 8d3b
00000080: bbd6 e238 50d0 1f3b 75db 25bc 4361 783b
00000090: 4849 d13b 1317 a43b cc7d 03bc 02e0 483b
000000a0: 6eab a3bb 948e 6cbb a2b2 043c 43a2 90bb
000000b0: 4990 de38 285c a1ba 02b8 dd39 112a 13bb
000000c0: 0332 08bc b902 503a 1ad6 563c 2d08 a43c
000000d0: a4b4 59bc 5047 8bbc 1fce 003b 5f63 76bb
000000e0: 0bc9 923b 5c01 c3b8 9380 af38 cd05 62bc
000000f0: 0efc b43c 82b8 d53c dda1 11bc a3af 8fbb
00000100: 8fe8 b2bb a83b 40bb 4e86 093c fb7c 8e3c
00000110: 36ea 3cbc 0cf5 40bb 89ba e13b d97d 80bb
00000120: c72c b8ba 2003 96bb 8ca8 53b9 8950 2ebc
00000130: 259e ec3b 9a12 1e3c 286d 623b 23fc 4bbb
00000140: 0258 d63c ef8f cd3b e1a4 34bd 52b8 3cbd
00000150: 8171 3b3d 52bf b73c 4726 bdbc a03f b23c
00000160: 6dae a4bb c6fd 82bb 4512 223c 1659 4e3c
00000170: 3739 85bc 19e8 80bc 858d b13b 80fb e5ba
00000180: 7709 14bb 4619 5ab9 1eb5 4f3c 2cea 6f3c
00000190: 2756 a3bc 6281 95bc 9681 f33b b575 9cbb
000001a0: 1d48 acbc 985c 1ebc a844 b73c 3238 b73c
000001b0: 6257 d4bc e402 92bc 0bec 7f3c 08d4 46bc
000001c0: 3132 663b e828 433b eda2 03bc 97a4 a7bb
000001d0: f2c5 923b 2e96 5c3a e53b 10bc d8f7 843b
000001e0: caf0 463c f177 0f3a 196c 54bc e61d 60bc
000001f0: ba0f 513c c26a 373c a440 20bb 0841 d33b
00000200: 9896 273c 7ce7 af3b c950 93bc 3a65 a3bc
00000210: 66ba 943c cc01 a43b 585a 21bc 2022 043c
00000220: 5da1 1437 9836 b1ba 24d0 193c d3a4 663c
00000230: e7a9 71bc b45d 38bc b8c0 ff3b 76dd e2ba
00000240: 7f83 b03b 2807 9e3b 433b 69bc 5d27 92bc
00000250: d671 703c 63cd 703b 20fb e7bb 5056 2b3c
00000260: 1ca0 afba 378f 193a f0be 96bb 8cad 83b9
00000270: 5592 e63b 7cd3 a83b 7042 6cbb 1c3d 443b
00000280: 7f82 4a3c aa42 ab3a 195c 90bc c0c9 8fbc
00000290: a3d8 b03c 6631 593c 858c 71bb 7a70 fc3b
000002a0: a416 5bbc 9775 16bc 070a a43c 7b88 743c
000002b0: 053e 9dbc fe8c 03bb c835 003c e6a9 0ebc
000002c0: 34d9 9f3b bfd7 d6b9 cb2f 39bc a718 9cbc
000002d0: 2ae1 943c 3dbe 5b3c 4679 05bc 50f2 473a
000002e0: f6e5 9a3b d821 aa3a 1861 1cbc 6185 aeba
000002f0: 6dce b9ba bc7e 17bb 3833 5dbb aa99 163b
00000300: 88b1 a13b 294e 57bb 48e2 09bc a534 f3bc
00000310: 51ce 123d 22e9 ba3c 8da4 30bc 14c8 61bb
00000320: 3a05 f73a 9d7f 263a 7486 93bb 6828 87bc
00000330: 4574 593c 68a7 503c 9d7a 72ba c046 87bb
00000340: 7752 b0ba ce82 03bb 139e 41bb f45c 28bc
00000350: a05b 1a3c 866a 283b 9f75 81b9 d7b7 0a3b
00000360: baca 27bb 9797 7cba 2766 4dba 91b6 383b
00000370: 0645 52bb 1da6 353b 9d5a 32bb 13f6 89ba
00000380: 6f16 e13a 3452 d438 9bdf 563a f293 19bc
00000390: ee35 963b 47cf b0ba 6d11 caba 1c15 763b
000003a0: c171 663c 0c3d c93a 4e4f 16bd 7b2a 26bd
000003b0: c3d0 333d 4505 0c3d 01b0 a5bc 7c6b 423c
000003c0: 5ab4 a3ba 6cea 83ba 08a3 14bb 39c7 8a3b
000003d0: 2c9b 2bbb a42e 1abb c0e2 03b9 9ff6 3c3b
000003e0: 3cfe 023c d2b3 a43a 0dd8 b4bb 4892 a9bc
000003f0: fc93 7b3c 6627 c03b 53ef 04bc a4d2 b13b
0.009161845 0.006267443 -0.00683165 -0.003151175 0.0020430882 0.0008980511 -0.0065782997 0.0065245414
-0.0032039355 -0.0029505324 0.00048310397 -0.012910674 0.019439122 0.011216003 -0.002757562 -0.0059976387
-0.0012690019 -0.0041898014 0.002794541 0.0074696704 -0.008286553 -0.0017390004 -0.00025626362 -0.0005485026
-0.0042877295 0.00074393133 0.0054129795 0.010045877 -0.008384864 -0.015848495 -0.00037027244 0.004331566
0.000108165164 0.0024385639 -0.010123123 0.003789977 0.0063869096 0.0050076335 -0.008025598 0.0030651097
-0.0049948012 -0.0036095725 0.00809923 -0.0044138744 0.0001061266 -0.001231079 0.000422895 -0.0022455493
-0.008312705 0.0007934976 0.013112569 0.02002343 -0.013287697 -0.017001778 0.0019654108 -0.003759585
0.0044795326 -9.298578e-05 8.368599e-05 -0.013795328 0.022092845 0.026088957 -0.008888689 -0.004384951
-0.005459852 -0.0029332433 0.008393837 0.01739358 -0.01153045 -0.0029442934 0.006888692 -0.003921252
-0.0014051431 -0.0045780092 -0.00020185317 -0.010639318 0.0072210007 0.00964799 0.0034549925 -0.0031125627
0.026165012 0.0062732617 -0.044102553 -0.04607422 0.045762543 0.022430096 -0.023089541 0.021758854
-0.005025676 -0.0039975373 0.009892051 0.012594482 -0.016262634 -0.015735673 0.005418482 -0.0017546266
-0.002258865 -0.00020799515 0.012677459 0.014643233 -0.019938542 -0.018250171 0.0074312193 -0.004774774
-0.02103048 -0.009665631 0.022371605 0.022365663 -0.025920574 -0.017823644 0.015620242 -0.012135513
0.0035125131 0.002977902 -0.00803445 -0.005116056 0.0044791633 0.00084147125 -0.0088033425 0.0040578656
0.0121423695 0.000547289 -0.012965226 -0.013679003 0.012760097 0.011194887 -0.0024452591 0.0064469613
0.010228775 0.0053681713 -0.017982857 -0.01994573 0.018155288 0.005005097 -0.0098482 0.008064777
8.859058e-06 -0.0013520299 0.0093880035 0.014077383 -0.0147499805 -0.011252809 0.0078049563 -0.0017308432
0.0053867693 0.0048226304 -0.0142353205 -0.017841036 0.014675578 0.0036743514 -0.007079497 0.01045759
-0.0013399157 0.00058578275 -0.0046003982 -0.0002511557 0.007036487 0.005152164 -0.0036050342 0.002994365
0.012360214 0.0013066132 -0.01762204 -0.017552257 0.021587675 0.013256406 -0.0036857438 0.007703838
-0.013372097 -0.009183309 0.020024313 0.014925118 -0.019194612 -0.0020073052 0.007825322 -0.008707499
0.0048781876 -0.00040978004 -0.011302899 -0.019054724 0.018173773 0.013412056 -0.00814659 0.0007627355
0.0047271205 0.0012980057 -0.009544633 -0.0013314896 -0.00141759 -0.002311631 -0.0033752453 0.0022979775
0.0049344935 -0.0032852984 -0.008415766 -0.029688189 0.03584129 0.022816245 -0.010781419 -0.0034451531
0.0018846162 0.00063514133 -0.004502112 -0.01649876 0.01327235 0.012735225 -0.0009249838 -0.004128307
-0.0013452311 -0.002006698 -0.0029543682 -0.010276068 0.009421259 0.0025698259 -0.00024692432 0.0021166706
-0.0025603012 -0.0009635626 -0.0007835351 0.002818499 -0.0032084598 0.002771742 -0.0027214654 -0.0010525606
0.0017172823 0.00010124259 0.0008196772 -0.009373652 0.0045840656 -0.0013489508 -0.001541657 0.0037549203
0.014065207 0.0015353276 -0.036696725 -0.040567856 0.043900263 0.034184713 -0.020225527 0.011866447
-0.0012489662 -0.001006437 -0.0022680182 0.004235175 -0.002618502 -0.0023526335 -0.00012577605 0.002883352
0.0079951845 0.0012565798 -0.0055189193 -0.020699635 0.015355106 0.0058640717 -0.0081137 0.0054267216
