weight/epoch_2_base_model.model.vit.encoder.layer.5.attention.attention.value.lora_A.default.weight.npy (npy, 24704 bytes, 1 tensors)

array f4 [8, 768]
00000000: 748b 233d 14f5 a53c d29c 06bd 9c36 19bd
00000010: 5d72 ebbc 02d0 8abc 7efa 12bd 3fe3 0ebc
00000020: f633 dbbc aeb8 89bb 0aa0 103d e426 b5bc
00000030: f00c 8f3c af49 ab3c ab6b 37bc bfbb b1bc
00000040: e7a6 c7bc 1b50 a33c a2ab c0bc b4ed 96bc
00000050: dd0a cb3c 0e1c 1a3c 1ff2 8c3c a7a8 033d
00000060: 8039 0b3d 3358 07bb c776 1a3d f144 33ba
00000070: c0c2 c3bc 97fd ce3b 6a36 16bc 4301 cb3c
00000080: c197 79bc 1832 183c cef7 a93b e0e4 a7bc
00000090: 52a7 d93c a980 2bbd 4b3e b0bc bb35 a1bb
000000a0: 284b da3c da6d a13c a2af 9f3c fd2f 5dbb
000000b0: cb48 5d3c bce9 ce3c 7bde 98bc d5ce 21bd
000000c0: e84c 8e3c b47d d43c e3a7 00bd 15cc 36bc
000000d0: d2f5 1cbd 261e e8bc bf24 bbba 40d2 853c
000000e0: d7b1 823b f40c a8bc c77a a83c 7452 b63b
000000f0: 2e87 6e3c 95f0 ab3c f5d0 91bb 5cff acba
00000100: 6a17 503a 8300 673c 4eb6 e4bb 155e 1abd
00000110: 88dc f23c a2bf 933c 2791 b8bc 573f 52bc
00000120: fc75 a5bc 237e aebc f3f0 18bd 7982 6dbc
00000130: a005 16bd 6e22 1fbc af62 1abc 7841 9d3c
00000140: 2eb7 243c 6a63 6abb 0aad 1ebd 77ae dabc
00000150: 8d3e d53c 0bd8 60bc d339 8a3c 22c0 4dbc
00000160: 82ad 6fbc 85db 023c ccfb 883c 4c2e efbc
00000170: 7bbb bdbb c383 ad3c 8adb dc3c ebe5 e2bc
00000180: b553 e1bb 7a4c 0dbc 7d8d 02bb 5cef 4bbc
00000190: 6d11 f9bb 637c dbbb cb36 f6b9 cafc f23b
000001a0: c6c3 25bd 27d4 dc3c e35a 1bbd 2965 cf3c
000001b0: 45fd 8cbc 0c6c 5c3b d302 8c3b 908f 603b
000001c0: af94 99bc ab29 8c3c 0fbc bf3b 4665 adbc
000001d0: 9a76 4dbc b931 1d3c 1942 94ba 93a1 ab3c
000001e0: 3162 ea3b 090c 063d abef c93c 8b87 fd3c
000001f0: 8682 2e3d 6e7e 283d 860c 943c 65c3 f33c
00000200: e6cc 1bbc d2ee bb3a e5a4 ddbc 1ec4 d0bc
00000210: d171 573c 5c0b 8e3c 6f90 9cbc a917 dcb8
00000220: dd8a d738 61f5 283c 9780 1cbc dc8d 533c
00000230: f769 eabc 2860 cdbb bab5 c6bc b05f 833c
00000240: b27c 81bc 606f 14bc c26b bf3c 46ba 883b
00000250: 5438 293c 257c 833c d56b 003c 027a 293d
00000260: aaaf 15bd a4e2 82bc 88d9 f53c 696c c13c
00000270: bfff f93c 0470 25bb 6406 97bc ab43 5ebc
00000280: 94bb 963c ac8c f9bc 28e3 18bc 1e9c 063c
00000290: 958e f33c 567c 053d 18f2 0abd 9e3f 623c
000002a0: ea8a fa3b 4a17 96bc 2936 04bc 206f e9bb
000002b0: 6053 3d3c 3acc a9bc a633 96bc 353c 2fbd
000002c0: 6c4f 99bc 084a 0ebd 14c2 783c 5f8f c5bc
000002d0: 5ecf b13c 577f 073c 0fe3 e63b 4da4 5f3a
000002e0: 07f1 49ba a726 2bbc 7aeb 62bc dcd1 c4bd
000002f0: 2db0 dfbc 5f76 d5bc a950 04bc 7150 77bc
00000300: b118 ba3c 7c77 d0ba 9a50 1bbd e0de c5bc
00000310: 6dfc c23c c39f adbc a2ea 3fbc 026c fbbc
00000320: 3bd6 683c 851a 063a 8c8b b03c 27be febb
00000330: 0e5e da3c f382 393c 0535 75bc 2728 c0bc
00000340: 65dd f63a bee2 bfbb d035 123c b5d9 453d
00000350: 35f9 08bd 673a b13c b2d4 f6bb 18c3 73bc
00000360: f272 963b ab7a 853c b6b3 563c 07f9 483a
00000370: d4bb b43c 0c26 4bbd a501 00bd 5d55 913c
00000380: 977f ad3b 65dc 60bc e1cd 003d 61ee ad3a
00000390: 5e25 0dbc 657e 22bc ed49 0fbd 9081 9e3c
000003a0: bdf6 69bc 46e5 e4bc d571 f13b 810d 18bd
000003b0: c743 8abc b297 b9bc 7c04 02bd 61fd b13b
000003c0: bcec a93c 75d9 e93c c8f3 20bc a1b4 4c3c
000003d0: 406a 06bd a36a dabc 3699 c83c 03fa 363d
000003e0: 062d c03c 4271 1cbc 5a08 4c3c 8067 0b3c
000003f0: ef49 0bbd 502f 403c 912a c53c cd79 ca3c
0.039927915 0.020258464 -0.0328644 -0.037405595 -0.028741056 -0.016944889 -0.03588342 -0.008721172
-0.026758175 -0.0042029237 0.035308875 -0.022113271 0.017462224 0.020909159 -0.011195104 -0.02169597
-0.024371577 0.019935658 -0.02351934 -0.018423893 0.024785453 0.009406103 0.017205296 0.03214326
0.033990383 -0.0020651936 0.03771093 -0.0006838581 -0.023896575 0.0063168514 -0.009168247 0.024780875
-0.015233935 0.009289287 0.0051870113 -0.020494878 0.026569042 -0.041870747 -0.021514079 -0.0049197352
0.026647165 0.019705702 0.019492928 -0.0033750527 0.013506125 0.025257938 -0.018660774 -0.03950389
0.017370656 0.025938846 -0.03141011 -0.011157055 -0.03832037 -0.028334688 -0.0014277919 0.016335607
0.0039884853 -0.020513989 0.020566357 0.0055640284 0.014558597 0.020988742 -0.0044499584 -0.0013198662
0.0007938059 0.014099243 -0.00697974 -0.03768738 0.029646173 0.018035714 -0.022530152 -0.012832484
-0.02019786 -0.021300381 -0.037339162 -0.014496439 -0.03662646 -0.0097127985 -0.009422942 0.019196257
0.010053439 -0.0035764822 -0.03873924 -0.02669452 0.026030803 -0.013723384 0.016873276 -0.012558015
-0.01462877 0.007986908 0.016721629 -0.02919688 -0.0057901717 0.021180993 0.026960153 -0.027697524
-0.0068764337 -0.00862419 -0.001992076 -0.012447204 -0.0076009543 -0.0066981777 -0.000469616 0.0074153887
-0.040469907 0.02695663 -0.037928473 0.025316792 -0.017210612 0.0033633737 0.0042727976 0.0034265257
-0.018747656 0.017109713 0.0058512758 -0.021166455 -0.012540484 0.009594374 -0.0011311203 0.020951068
0.0071528186 0.03272632 0.024650415 0.030948421 0.042604946 0.041136198 0.018072378 0.029756257
-0.009509301 0.0014338142 -0.027056167 -0.025484141 0.013149695 0.017339401 -0.01911184 -0.000104948245
0.00010277864 0.010312409 -0.009552143 0.01291224 -0.028614981 -0.0062675662 -0.024256576 0.016036838
-0.01580653 -0.009059757 0.023366813 0.004172596 0.010328371 0.016050408 0.007838209 0.04137612
-0.03654448 -0.015977211 0.030010954 0.023611264 0.030517457 -0.0025243768 -0.018435664 -0.013565938
0.018399991 -0.030462585 -0.009331502 0.008215932 0.029731074 0.03258928 -0.033922285 0.013809113
0.0076459544 -0.018321652 -0.008069553 -0.007123843 0.011555523 -0.020727266 -0.018335175 -0.042782027
-0.01871463 -0.03473857 0.015182991 -0.024116216 0.021705326 0.008270106 0.0070461105 0.00085312576
-0.00077034574 -0.010446227 -0.013850087 -0.0961034 -0.027305687 -0.02605742 -0.0080758715 -0.015094862
0.022716852 -0.001590475 -0.037918665 -0.024154127 0.023802007 -0.021194344 -0.011713656 -0.03069115
0.014211233 0.0005115646 0.021550916 -0.007774133 0.026656177 0.011322725 -0.014966254 -0.023456646
0.0018834291 -0.005855887 0.008923963 0.048303325 -0.033440787 0.021634294 -0.0075326795 -0.014878057
0.0045913393 0.016293844 0.01310437 0.00076665025 0.02206222 -0.04959683 -0.03125157 0.0177409
0.005294751 -0.013724421 0.03144634 0.0013269895 -0.008614866 -0.00991783 -0.03498261 0.01934889
-0.014280018 -0.027941357 0.007368306 -0.037122253 -0.016878022 -0.022655342 -0.031742558 0.0054318164
0.020742767 0.028546074 -0.009823747 0.012494237 -0.03281617 -0.026662176 0.02448712 0.044672024
0.023458969 -0.009548487 0.012453163 0.008508563 -0.034006055 0.01173003 0.024068149 0.024716282
