weight/epoch_8_base_model.model.vit.encoder.layer.1.attention.attention.value.lora_A.default.weight.npy (npy, 24704 bytes, 1 tensors)

array f4 [8, 768]
0	0xbc8c42cf	-0.0171217
1	0xbd3fe76d	-0.046851564
2	0x3cb2dccf	0.021833805
3	0xbb77b143	-0.0037794865
4	0xbc78e085	-0.015190248
5	0x3d09520e	0.03352552
6	0xbc9a290a	-0.018818397
7	0xbc2913af	-0.010319634
8	0xbb2a2c78	-0.0025966447
9	0x3c8d5ec8	0.01725711
10	0xbc91f42e	-0.01781663
11	0x3c2bd125	0.010486876
12	0xbc1a55f9	-0.009419912
13	0x3abbd331	0.0014329908
14	0xbcf4a210	-0.029862434
15	0x3cdd6584	0.027025945
16	0x3c3c6524	0.011498723
17	0x3d09756d	0.03355925
18	0x3d08af05	0.033370037
19	0xbbba4e8a	-0.005685632
20	0xbc8f1873	-0.017467713
21	0x3d25de77	0.040495362
22	0xbd1d67e9	-0.038429175
23	0x3bfb376f	0.0076665203
24	0x3ccf47bb	0.025302758
25	0x3c103827	0.00880245
26	0xbc098eb9	-0.008395844
27	0xbc632fc5	-0.01386637
28	0xbcd09d7e	-0.025465723
29	0x3cf69c9c	0.030103974
30	0x3c6f8b2e	0.014620585
31	0xbcaa2c4a	-0.020773072
32	0xbd5e948d	-0.054340888
33	0x3b77b508	0.0037797112
34	0xbd018a38	-0.031625956
35	0x3d5037e9	0.05083457
36	0xba161377	-0.00057249464
37	0xbc43297e	-0.011911748
38	0xbced1c54	-0.028944172
39	0x3b50506e	0.003178622
40	0xbd3883e1	-0.045047645
41	0x3d5ca366	0.053866766
42	0xba64b9ce	-0.0008725197
43	0x3b9c8a4d	0.004777229
44	0x3d1c762a	0.038198628
45	0xbcb67654	-0.02227322
46	0xbc348755	-0.011018594
47	0x3c1448e1	0.009050579
48	0xbcb57ba6	-0.022153687
49	0xbc200dae	-0.0097688865
50	0x3c397f2c	0.011321824
51	0x3d4eb369	0.050464068
52	0x3cbd04ca	0.023073573
53	0xbc4d07f4	-0.012514103
54	0x3c7c1b4e	0.015387369
55	0xbbd447f0	-0.006478302
56	0xbcb78281	-0.022401096
57	0xbbcbef77	-0.006223615
58	0x3acd1ef6	0.0015649486
59	0x3d29fb89	0.04149965
60	0x3c136b2e	0.008997722
61	0x3c5c1525	0.013432776
62	0xbcfed97c	-0.031109564
63	0x3c8a5a37	0.01688872
64	0xbb37974e	-0.0028013769
65	0x3a5ec317	0.00084976986
66	0xbbb31262	-0.005464838
67	0xbd48bf9a	-0.04901085
68	0x3cadfaae	0.021237697
69	0xbcb4326f	-0.021996705
70	0xbb19c221	-0.0023461657
71	0x3c535f91	0.012901203
72	0xbd25b333	-0.0404541
73	0xb9cbcc3f	-0.00038871352
74	0x3cf4708f	0.029838828
75	0xbc7972b7	-0.015225104
76	0x3cd4383d	0.025905723
77	0xbc0491e9	-0.008091428
78	0x3d1512a8	0.036394745
79	0x3ceb1f91	0.028701575
80	0xbc5f9ae4	-0.013647769
81	0x3cf9eb96	0.030507844
82	0x3c29198c	0.010321032
83	0xbd134895	-0.03595789
84	0xbcbbbb2f	-0.022916405
85	0x3d0bec43	0.034160864
86	0xbcf5f2a3	-0.030022925
87	0xbcb1b338	-0.021691903
88	0x3bc7561e	0.006083264
89	0xbccb3406	-0.02480508
90	0xbc3a7786	-0.011381036
91	0xbbd06029	-0.0063591194
92	0x3d0fa6a8	0.035071045
93	0x3c993223	0.018700665
94	0xbcaec8f6	-0.02133606
95	0x3cb7de38	0.02244483
96	0xbc238071	-0.009979353
97	0xbcc73b3d	-0.02432024
98	0xbd194f46	-0.037429117
99	0x3c93e5f5	0.018053988
100	0xbc150bb8	-0.009097032
101	0x3d2e9bd6	0.042629085
102	0xbccf42f6	-0.025300484
103	0x3cd68eb5	0.026191095
104	0xbc9f61b6	-0.019455772
105	0xbd290e26	-0.04127326
106	0xbce179ba	-0.027523864
107	0x3c5f29dd	0.013620821
108	0x3d14ec80	0.036358356
109	0xbc86f8ff	-0.016476152
110	0xbbce5bfa	-0.0062975856
111	0xbc3efc1e	-0.011656789
112	0xba91c1b2	-0.0011120348
113	0xbd1640ef	-0.03668302
114	0x3d100d16	0.03516873
115	0x3ca8b709	0.02059509
116	0xbc3596b6	-0.011083296
117	0x3b0fce3d	0.0021942996
118	0xbc1bf07c	-0.009517785
119	0x3ca02844	0.01955045
120	0xbb86b3db	-0.004110796
121	0xbc827572	-0.015925143
122	0xbcdae0f9	-0.026718603
123	0x3d159873	0.03652234
124	0x3c50acf9	0.012736552
125	0x3a611279	0.00085858215
126	0x3c9ad831	0.018901916
127	0x3a3d9450	0.0007231878
128	0xbc97fb80	-0.018552542
129	0x3c02437c	0.00795066
130	0x3c669637	0.0140739
131	0x3bba99ad	0.005694589
132	0xbc5ea747	-0.013589687
133	0x3a9fb750	0.0012185369
134	0x3d1f9e12	0.038969107
135	0x3cd148c1	0.025547387
136	0x3cf0ddc6	0.029402625
137	0x3c6004db	0.013673033
138	0xbc7319d4	-0.014837701
139	0xbba91df5	-0.005161042
140	0xbcd14285	-0.025544414
141	0xbbf372a0	-0.007429436
142	0xbcfee280	-0.031113863
143	0xbd21b554	-0.03947957
144	0x3b78b04a	0.0037946873
145	0x3c91cc6c	0.017797671
146	0xbce8a7fc	-0.028400414
147	0xbcc29a2f	-0.023755161
148	0xbcc0e266	-0.023545455
149	0xbcb5dd49	-0.022200244
150	0xbb2486c6	-0.0025104745
151	0x3cd58fd4	0.02606956
152	0xbbd7c741	-0.006585032
153	0x3be8b5e7	0.0071017626
154	0x3c120d68	0.008914329
155	0xbcfa95e1	-0.030589046
156	0xbc5be5c8	-0.013421483
157	0x3c104145	0.008804624
158	0xbbcaf549	-0.006193791
159	0xbc6dc131	-0.014511392
160	0x3c344c56	0.011004528
161	0xbc6c25eb	-0.014413337
162	0xbacb8ca5	-0.0015529586
163	0xbc80ffba	-0.01574694
164	0x3bcec051	0.006309547
165	0x3c7153d6	0.014729461
166	0x3c1bc30c	0.009506952
167	0xbcf72e35	-0.0301734
168	0x3bb713c2	0.005587072
169	0x3ce1c6ef	0.02756068
170	0xbce1a79a	-0.027545739
171	0x3d0322e8	0.03201571
172	0x3d028848	0.03186825
173	0x3ceb4331	0.028718563
174	0xbc88bb00	-0.016690731
175	0x3b00ccad	0.0019653246
176	0x3bbd6a1b	0.005780471
177	0xbcdcfe53	-0.02697674
178	0xbcf269eb	-0.029591521
179	0xbc35e2ed	-0.011101467
180	0xbcef9827	-0.029247357
181	0x3c4decbf	0.012568652
182	0x3c9b58d4	0.018963255
183	0x3c48247b	0.012215729
184	0x3d5f1237	0.05446073
185	0x3c6d2f9b	0.014476682
186	0x3d1e0ca1	0.038586263
187	0x3c325bcb	0.010886143
188	0xbc70b36a	-0.014691213
189	0x3ab53150	0.00138239
190	0xbd143367	-0.036181834
191	0xbd0232bd	-0.03178667
192	0xbd1b5227	-0.037920143
193	0xbcc971d9	-0.02459042
194	0x3be9343b	0.007116822
195	0x3d39b58d	0.045339156
196	0x3d22b3f8	0.039722413
197	0xba01fa0d	-0.000495822
198	0x3d051ab7	0.03249618
199	0xbc6ffbdf	-0.014647453
200	0xbc8452cf	-0.016152767
201	0x3bf60275	0.007507617
202	0x3abd97cf	0.0014464798
203	0xbd1a688a	-0.037697352
204	0x3ae8eb60	0.0017770343
205	0xbcd5c131	-0.026093097
206	0x3ce49c7d	0.02790665
207	0x3cc4665a	0.023974586
208	0xbcf8c386	-0.03036667
209	0xbce4a7cc	-0.027912043
210	0xbc966737	-0.018359764
211	0xbbf19611	-0.0073726256
212	0x3cb9042a	0.022584993
213	0x3c4fabc3	0.0126752285
214	0xbc648531	-0.013947771
215	0x3ba808a7	0.0051279846
216	0xbca9c0ee	-0.020721879
217	0xbcea8ea8	-0.028632477
218	0xba9932ac	-0.0011688075
219	0xbc5a35ba	-0.0133184735
220	0x3cd897d8	0.026439592
221	0xbc1269a6	-0.008936321
222	0xbd05a3bd	-0.032626856
223	0xbc2cf3a7	-0.010556138
224	0x3cdce816	0.026966136
225	0x3bfae5bf	0.0076567824
226	0x3d47ee1a	0.048811056
227	0x3c80f245	0.015740523
228	0xbc43b3db	-0.011944736
229	0xbc2cbfbe	-0.010543762
230	0x3c33cff1	0.01097487
231	0x3bd4158a	0.006472294
232	0x3bb50d70	0.0055252835
233	0xbd1d24dd	-0.038365234
234	0x3b15997c	0.002282708
235	0xbc8f2af0	-0.017476529
236	0xbd02e70f	-0.031958636
237	0x3cf4b056	0.02986924
238	0xbc208357	-0.009796939
239	0x3c96a653	0.018389856
240	0xbd15e68a	-0.036596812
241	0x3d050ef4	0.032484964
242	0xbcf67db4	-0.030089237
243	0xbbe2d8f7	-0.006922837
244	0xbc9f0bc1	-0.019414784
245	0xbca66db6	-0.020315986
246	0xbbc883d2	-0.00611923
247	0x3d399e6a	0.04531709
248	0xbbd4d4f9	-0.006495115
249	0x3c4077fc	0.0117473565
250	0x3d3fb5f5	0.046804387
251	0xbca9d42a	-0.02073105
252	0x3cdbf7b3	0.02685151
253	0xbbd896c8	-0.0066097714
254	0xbbfa8bfa	-0.007646081
255	0x3c95eecb	0.018302342
