weight/epoch_12_base_model.model.vit.encoder.layer.5.attention.attention.value.lora_A.default.weight.npy (npy, 24704 bytes, 1 tensors)

array f4 [8, 768]
00000000: c88a 1c3d b3c8 d13c 6bc6 09bd 1956 15bd
00000010: aa51 e2bc c19a 77bc 700a 1ebd 69f1 f2bb
00000020: 3358 f3bc f3ec d5bb c0a3 133d 1a4d babc
00000030: 696c 783c 144c 9e3c 57da 39bc 4fc8 7dbc
00000040: dc97 f0bc 23e6 c03c ceb9 ddbc 94b2 72bc
00000050: 4fb4 e03c 5b46 4a3c 43f6 803c 0bbf 043d
00000060: 9e6e e23c 949d b23a f204 1e3d 59bd 39bb
00000070: 7ca5 c7bc 797f 0a3c 9a99 2cbc 6979 bd3c
00000080: 6ba1 7fbc 120b 233c d47d be3b db06 aebc
00000090: a8ad bf3c 909b 2cbd c2ed 9abc b60c 1d3a
000000a0: 2d15 013d 33b8 663c e7e9 b23c 0a34 6fbb
000000b0: 6e30 173c 8eca ff3c ae7e 95bc 6eb5 19bd
000000c0: 1ee0 8e3c 649d d23c abbb f4bc f572 1bbc
000000d0: 8e8e 1abd 459c f0bc 501f 29bb ece7 8b3c
000000e0: 4f9c 933b ebdb a5bc e184 a93c 9dc0 1c3b
000000f0: 220d 993c 5979 a03c 05ea e4bb 9904 d6bb
00000100: 6b4b f23a cfa4 503c df40 ffb9 7b76 1abd
00000110: a3a0 043d c5ee 6c3c a773 aebc ca8b 76bc
00000120: d651 bdbc 6d9c 8fbc 421c 16bd 2eb8 30bc
00000130: ed01 22bd 3b82 7fbc 343b 27bc a395 843c
00000140: 2fea 063c 47b2 adba 6d6e 1abd af97 c6bc
00000150: 5582 d43c 5237 35bc 8507 ac3c c558 0cbc
00000160: 471e b3bc 4149 373c 42d7 7a3c acd4 e6bc
00000170: 5555 64bb 58c1 a33c 0156 e63c c4f0 f6bc
00000180: d0d4 26bb 7133 a7bb df79 8e3a 7522 45bc
00000190: 25a9 f1bb 5906 21bb 8120 623a c069 c33b
000001a0: cdba 2fbd 77b9 033d 2b0e 1bbd 72fe c03c
000001b0: 3467 a5bc 69c3 9f3b 46b3 0f3b 9e87 3b3a
000001c0: ee35 a7bc f287 933c cce7 033c cd01 7fbc
000001d0: b3de 01bc 396c 683c 8ae3 acbb f4a1 b13c
000001e0: 8f46 893b f787 fa3c 9b70 d43c bc9b 113d
000001f0: 7a94 313d b60b 1e3d b7bc 5d3c ed71 033d
00000200: b0c5 d3bb 4cdc 3e3b c24c dabc 578d dfbc
00000210: d476 7d3c 2dd2 903c 3b50 9dbc b989 52bb
00000220: adfe 113b 5daa e63b 38f0 3bbc 628c 413c
00000230: 9671 01bd 73bb f0bb 40d0 e8bc 8e46 3f3c
00000240: 8db1 80bc 9f34 5dbb e125 053d 9c2c 0e3c
00000250: 9fe2 7e3c 605f 873c 357b 393c 7535 223d
00000260: cf2c 35bd 0634 97bc 26a1 0f3d eb8e bf3c
00000270: 541c e03c 1133 07bc 6200 8bbc 70c9 5dbc
00000280: 8d91 8c3c fa30 e5bc 25cf 49bc b124 673b
00000290: 7098 f33c e65a 0e3d 720b 15bd 7e36 613c
000002a0: 5c87 403b b0c7 94bc 4c05 09bc aa33 23bc
000002b0: ba6f b33b 652f ccbc 7be9 74bc 843d 35bd
000002c0: 195d 9cbc cab8 17bd 636d 113c 129d babc
000002d0: 61fe a73c 0a37 1c3c f73f a7b9 b1d2 a3bb
000002e0: 15ed 34bb 4de4 58bc 9c86 67bc acc4 d7bd
000002f0: 0e27 d4bc 3c95 febc 1051 95bb 8657 48bc
00000300: 7c81 bd3c 548e 2cbb 4b87 22bd 465c 03bd
00000310: 09d8 bd3c c35f 84bc 32ca 3fbc a105 14bd
00000320: 9257 7c3c 9fd5 893b e1cd 743c b9cc 2fbc
00000330: b19e f13c 4c9e 4c3c 974e 15bb 734b c5bc
00000340: 58db 023c 67e4 b7bb b045 fc3b a549 5f3d
00000350: fd04 07bd c33c 903c 1da0 efbb f27e aebc
00000360: 332d 2d3c 49c4 ad3c 39d4 523c a164 823a
00000370: 5e4e c53c 2996 44bd 1721 08bd 521a 8c3c
00000380: 8651 ab3b a0df 84bc b3c2 f53c ffa7 753a
00000390: 1bbd 15bc c4b8 01bc 08d6 12bd 0c2d 9a3c
000003a0: 844e 8fbc efa6 f6bc f200 0d3c ecda 05bd
000003b0: 2812 8bbc 6e37 a6bc dc5c e0bc 571b a93a
000003c0: 0867 ad3c 21d7 013d 90b1 8bbc 501e e23b
000003d0: ae5a 0cbd 8fa5 f3bc f25f d83c e3a4 473d
000003e0: 1ddb 9d3c 231a 59bc bc95 7f3c 69bc 6d3b
000003f0: 91b0 12bd 74b9 043c 000c 9f3c 8e38 ad3c
0.03821829 0.025608396 -0.03363649 -0.036459062 -0.027626831 -0.01511258 -0.038584173 -0.0074140322
-0.029705143 -0.0065284907 0.036044836 -0.022741843 0.015162566 0.019323386 -0.01134356 -0.015489652
-0.029369287 0.023547238 -0.027066138 -0.014813084 0.027429728 0.012345876 0.015742427 0.032408755
0.027640637 0.0013627284 0.038578935 -0.002834162 -0.024370901 0.008453243 -0.010534668 0.023129182
-0.01560245 0.00995137 0.0058133397 -0.021243503 0.023398235 -0.042140543 -0.0189122 0.0005990969
0.031514335 0.014082002 0.021840049 -0.0036499524 0.009227855 0.031224515 -0.018248882 -0.03752654
0.017440852 0.025709815 -0.029874643 -0.009487857 -0.037733607 -0.02937139 -0.0025806017 0.017078362
0.0045047174 -0.020246467 0.020693244 0.0023918517 0.01868302 0.019589113 -0.006985905 -0.00653131
0.0018485611 0.012734606 -0.00048685723 -0.037710648 0.032379758 0.014461224 -0.021295382 -0.015047977
-0.023110311 -0.017530644 -0.036648043 -0.010786099 -0.039552618 -0.015595014 -0.010206986 0.016184634
0.008234545 -0.0013251983 -0.037702966 -0.02424225 0.025941053 -0.011060553 0.02099968 -0.008566086
-0.021865023 0.011186899 0.0153101105 -0.028177582 -0.00348409 0.019989654 0.028117182 -0.030144103
-0.0025456436 -0.005102568 0.0010870061 -0.012032141 -0.0073749 -0.0024570434 0.0008626059 0.005963534
-0.042902756 0.032159295 -0.03785531 0.023558829 -0.020190813 0.0048755896 0.0021926924 0.00071536924
-0.020411458 0.01800916 0.00805087 -0.015564394 -0.007926631 0.014185959 -0.005276148 0.02168367
0.0041893194 0.030582411 0.0259326 0.03554891 0.04335449 0.038585387 0.013533763 0.03209107
-0.006462775 0.0029123006 -0.02664793 -0.027289076 0.015470225 0.017678345 -0.019203296 -0.0032125546
0.0022277043 0.007039352 -0.011470847 0.011813255 -0.031602465 -0.0073465644 -0.028419614 0.011674536
-0.015709663 -0.0033753288 0.032506827 0.008677628 0.01555696 0.01652497 0.011320879 0.03960176
-0.044232186 -0.018457424 0.035065793 0.023383578 0.027357258 -0.008251921 -0.016967956 -0.013536796
0.017159248 -0.027977455 -0.0123174535 0.0035269673 0.029735774 0.034754656 -0.03638787 0.013745902
0.0029377555 -0.018161625 -0.008363079 -0.009961048 0.0054759653 -0.024924943 -0.014948244 -0.04424812
-0.019087361 -0.037041463 0.0088761775 -0.022779975 0.02050704 0.009534607 -0.0003190038 -0.0049994816
-0.0027607132 -0.013238025 -0.0141312145 -0.10535559 -0.025897529 -0.03107702 -0.0045567825 -0.012227898
0.023133032 -0.0026329951 -0.039679807 -0.03207042 0.023174303 -0.016158944 -0.011705922 -0.03613818
0.015401738 0.004206374 0.0149416635 -0.010729962 0.029494615 0.012488913 -0.002278244 -0.024083829
0.007986866 -0.0056119445 0.007698737 0.054513592 -0.03296374 0.017607098 -0.007312788 -0.021300767
0.010569858 0.02121176 0.012867981 0.0009948203 0.02408522 -0.047994766 -0.033234682 0.017102394
0.005228224 -0.016219914 0.030000066 0.00093710417 -0.009139325 -0.007917587 -0.035848647 0.018820308
-0.017493494 -0.030108897 0.008606182 -0.032679483 -0.016976431 -0.020290103 -0.027388029 0.0012901825
0.021167293 0.031699304 -0.017052442 0.006900586 -0.034266166 -0.02974203 0.026412938 0.048741233
0.01926952 -0.01325086 0.015599664 0.0036275631 -0.035812918 0.008100856 0.019414902 0.021145131
