weight/epoch_0_base_model.model.vit.encoder.layer.8.attention.attention.query.lora_B.default.weight.npy (npy, 24704 bytes, 1 tensors)

array f4 [768, 8]
0	0xb81a1876	-3.6739242e-05
1	0x38194af6	3.6547855e-05
2	0x38135e2c	3.5135236e-05
3	0x374d48bd	1.2235888e-05
4	0xb7c6740e	-2.3657482e-05
5	0xb7497f23	-1.2010135e-05
6	0xb7992d5a	-1.826014e-05
7	0xb7ed3faf	-2.8282257e-05
8	0xb74fb99c	-1.2381377e-05
9	0x385e2cf0	5.2970776e-05
10	0x3809ea88	3.288177e-05
11	0x37eded98	2.836324e-05
12	0xb800cc1d	-3.0707673e-05
13	0xb7d49add	-2.5344483e-05
14	0xb827a9ba	-3.9973973e-05
15	0xb7846ce6	-1.5786336e-05
16	0x36a70b10	4.9782757e-06
17	0x36a3f919	4.8867773e-06
18	0x3743f43c	1.1679771e-05
19	0xb751960a	-1.2492304e-05
20	0x3589b296	1.0259271e-06
21	0xb6c9ae36	-6.0105476e-06
22	0x372af051	1.0188743e-05
23	0xb742dc4a	-1.1614591e-05
24	0xb7a6454b	-1.982101e-05
25	0x389202eb	6.962366e-05
26	0xb7327789	-1.0637458e-05
27	0x37e9cfe1	2.7872566e-05
28	0xb7abca29	-2.0478927e-05
29	0xb82ac883	-4.07179e-05
30	0xb7bad557	-2.2272272e-05
31	0xb824f248	-3.932629e-05
32	0xb84a1135	-4.817658e-05
33	0x37b383cd	2.1399837e-05
34	0x386cbc6d	5.644227e-05
35	0x3830745f	4.207005e-05
36	0xb82cf243	-4.123362e-05
37	0xb81ff667	-3.8138034e-05
38	0xb8a3c54a	-7.8091936e-05
39	0xb811c0f3	-3.4750392e-05
40	0xb870fd91	-5.745661e-05
41	0x38151403	3.5543006e-05
42	0x379c946e	1.8665767e-05
43	0xb72d41df	-1.032694e-05
44	0xb87cf5a5	-6.0310256e-05
45	0x37448eb1	1.1715733e-05
46	0xb7e9cd2d	-2.7871307e-05
47	0x36c9b597	6.0114066e-06
48	0xb8c85ca6	-9.554e-05
49	0x3889110a	6.535843e-05
50	0x37a37b4a	1.9488525e-05
51	0x37b637a5	2.1722002e-05
52	0xb8488eba	-4.781664e-05
53	0xb7ca13d3	-2.4089508e-05
54	0xb86f64ce	-5.7075922e-05
55	0xb85d18c1	-5.271356e-05
56	0xb82d4e47	-4.1319316e-05
57	0xb74fcf09	-1.2386366e-05
58	0x37b4f4c5	2.1571652e-05
59	0x37d8c75b	2.5842039e-05
60	0xb81f0763	-3.7915433e-05
61	0x36863476	3.9996185e-06
62	0xb7acc57c	-2.0595959e-05
63	0xb7a2ea0c	-1.9420891e-05
64	0xb7f97267	-2.9736386e-05
65	0x376bd9c3	1.4057793e-05
66	0x3719cf73	9.167811e-06
67	0x368bfe3a	4.1721187e-06
68	0xb868a37b	-5.5465363e-05
69	0xb7ef2ee8	-2.8512863e-05
70	0xb7e064fb	-2.6749904e-05
71	0xb6fb80de	-7.495385e-06
72	0xb6f0c44b	-7.175409e-06
73	0xb81780ba	-3.612109e-05
74	0x36bd09bf	5.6337735e-06
75	0x3708e1ad	8.158776e-06
76	0xb7b2658b	-2.1266538e-05
77	0x36b3870f	5.3503386e-06
78	0xb753006c	-1.2576678e-05
79	0x371f6c01	9.502285e-06
80	0x380267bc	3.1091025e-05
81	0x37f12d03	2.8750399e-05
82	0xb78f9ef4	-1.7120947e-05
83	0xb80cf0cb	-3.3602857e-05
84	0x38079720	3.2327254e-05
85	0x37b84bdf	2.196984e-05
86	0x35b7d03f	1.369517e-06
87	0x381c613b	3.728385e-05
88	0x3889ac60	6.5647764e-05
89	0xb7425db3	-1.1585117e-05
90	0xb7a6b331	-1.9872185e-05
91	0xb75bd8d1	-1.3103899e-05
92	0x37c89083	2.3909151e-05
93	0xb6c26fc9	-5.794664e-06
94	0xb7995bc0	-1.8281746e-05
95	0x38918387	6.938638e-05
96	0x3877b449	5.9057293e-05
97	0xb94449a1	-0.00018719446
98	0x36d23123	6.264208e-06
99	0x3808e5a9	3.2638814e-05
100	0x37d676ef	2.556617e-05
101	0x378944c4	1.6363694e-05
102	0x38839be9	6.275607e-05
103	0xb76cbcfa	-1.4110696e-05
104	0x37a208c2	1.9315983e-05
105	0xb86551c3	-5.4674e-05
106	0xb80b0098	-3.3140735e-05
107	0xb81b6fa5	-3.7058857e-05
108	0x37d1e0fb	2.5019506e-05
109	0x3809a943	3.2820983e-05
110	0x37a6b3a4	1.9872394e-05
111	0x3797045e	1.8002636e-05
112	0x37b304c1	2.1340677e-05
113	0xb6b13eb3	-5.28231e-06
114	0x372e641a	1.0394515e-05
115	0xb8061965	-3.197174e-05
116	0x37e4b428	2.726361e-05
117	0x3772e4ee	1.4477626e-05
118	0x3816a34d	3.5914873e-05
119	0x37d60ed9	2.5517702e-05
120	0x37c01d03	2.2901693e-05
121	0xb7aaebfc	-2.0375468e-05
122	0x37555815	1.27162975e-05
123	0xb70fb326	-8.565175e-06
124	0xb7c73e76	-2.3751734e-05
125	0xb7359e8f	-1.0825358e-05
126	0x3831e067	4.240908e-05
127	0x36f38786	7.2577413e-06
128	0xb8156716	-3.5620375e-05
129	0xb6d53f0f	-6.3552357e-06
130	0x3807ffe7	3.2424836e-05
131	0x36fd511d	7.5494304e-06
132	0x35d98cc2	1.6208726e-06
133	0xb829fa4d	-4.052585e-05
134	0xb79f0d16	-1.896037e-05
135	0xb7e378b2	-2.7116712e-05
136	0xb69dc022	-4.701332e-06
137	0x36a26bb0	4.8405127e-06
138	0xb791b059	-1.7367465e-05
139	0x3795a988	1.7841128e-05
140	0xb7611779	-1.341651e-05
141	0xb7a4d13d	-1.9647758e-05
142	0x346994ea	2.175399e-07
143	0x37644e4e	1.3608091e-05
144	0xb76aafe4	-1.398844e-05
145	0xb7b6fa9d	-2.1812792e-05
146	0xb72d8a3b	-1.0343788e-05
147	0xb7487df0	-1.1950251e-05
148	0xb6770f30	-3.6814708e-06
149	0x3745cca5	1.17897625e-05
150	0x380bfc78	3.3375312e-05
151	0xb6849223	-3.950919e-06
152	0xb749f7e1	-1.2038247e-05
153	0x382a21a0	4.0562474e-05
154	0xb7794898	-1.4858459e-05
155	0xb82b42fe	-4.083197e-05
156	0x37a416a5	1.9560868e-05
157	0x38134a30	3.5116624e-05
158	0x38427f75	4.6371908e-05
159	0xb71d03fb	-9.358856e-06
160	0xb7fa4232	-2.9833147e-05
161	0x380df7fb	3.384797e-05
162	0xb68d31dd	-4.2079323e-06
163	0xb7e5ccb1	-2.7394244e-05
164	0x385be278	5.2424584e-05
165	0xb79b975f	-1.8547928e-05
166	0x385668ae	5.1119066e-05
167	0x379ab5ef	1.844295e-05
168	0x37448ca5	1.1715257e-05
169	0x37207e88	9.5662035e-06
170	0xb5e275d2	-1.6872602e-06
171	0xb7bb78c3	-2.2348371e-05
172	0x37e988f5	2.783954e-05
173	0xb5554179	-7.944396e-07
174	0x37d9faa0	2.5985122e-05
175	0x37835f37	1.5660755e-05
176	0x38222505	3.8658287e-05
177	0x38bace23	8.907567e-05
178	0x3862f8ae	5.41142e-05
179	0xb851bb69	-5.0004022e-05
180	0x3882bdb6	6.2342195e-05
181	0xb7131927	-8.767739e-06
182	0x36d253d8	6.2682484e-06
183	0xb6ce9213	-6.1562837e-06
184	0x386fb46e	5.715008e-05
185	0xb896981f	-7.180892e-05
186	0x348ce389	2.6242586e-07
187	0xb7bbb9e3	-2.2378697e-05
188	0x37c86901	2.3890754e-05
189	0x37d73d66	2.5658588e-05
190	0x382a7d3d	4.0647796e-05
191	0xb6b02a0e	-5.2501046e-06
192	0x380b5a6a	3.3224387e-05
193	0xb895994a	-7.133426e-05
194	0xb629c4fb	-2.529762e-06
195	0xb7681e1e	-1.383529e-05
196	0x385eaae8	5.3088093e-05
197	0x37c13b78	2.3035085e-05
198	0x38951faa	7.1107715e-05
199	0x3720e9cb	9.591177e-06
200	0x36f09dcc	7.1709273e-06
201	0xb89dd3e7	-7.525813e-05
202	0x374eaba1	1.2318517e-05
203	0x37acc8ea	2.0597556e-05
204	0x38150a88	3.5534176e-05
205	0x37ca8d86	2.4146178e-05
206	0x384c1b47	4.8662794e-05
207	0xb7395ecd	-1.1048932e-05
208	0xb4415e37	-1.8008801e-07
209	0xb7e776c6	-2.7592654e-05
210	0xb7c3d8c5	-2.3346753e-05
211	0xb758f292	-1.2931081e-05
212	0xb85a0dd6	-5.1988136e-05
213	0x3738d974	1.1017884e-05
214	0xb6a9e080	-5.0627277e-06
215	0xb68736b4	-4.029682e-06
216	0xb6ec5d1a	-7.0441865e-06
217	0x37bae197	2.2277976e-05
218	0x3835ba40	4.332722e-05
219	0x37fffb9f	3.0515539e-05
220	0xb7f3fe80	-2.9086368e-05
221	0xb8083d8f	-3.2482258e-05
222	0xb682d700	-3.899331e-06
223	0xb85d9b7a	-5.2835305e-05
224	0x363db95a	2.8271083e-06
225	0x38603e1c	5.3463606e-05
226	0x3695158c	4.4430544e-06
227	0xb68c5b5c	-4.1829608e-06
228	0x380c82a1	3.350026e-05
229	0x36c7afc6	5.951125e-06
230	0xb70303f6	-7.809131e-06
231	0x379cba88	1.868351e-05
232	0x38c46f31	9.366719e-05
233	0xb905e64a	-0.00012769658
234	0xb7016ee6	-7.71482e-06
235	0xb7b1bc8d	-2.1187845e-05
236	0x388044c1	6.116322e-05
237	0x37ccb040	2.4400768e-05
238	0x38757431	5.8520764e-05
239	0x38a3af86	7.8051395e-05
240	0xb7ccf71c	-2.4433764e-05
241	0xb8ad24dd	-8.256149e-05
242	0xb7727cb4	-1.4453359e-05
243	0x378877c0	1.6268226e-05
244	0xb720d5db	-9.586535e-06
245	0x373903b1	1.1027719e-05
246	0x37b4ad06	2.1538242e-05
247	0xb69b05fd	-4.620057e-06
248	0x36ae4621	5.193768e-06
249	0x375e15bd	1.32372925e-05
250	0x38241e5e	3.912893e-05
251	0x37d2065a	2.5036908e-05
252	0xb87ef574	-6.0786915e-05
253	0x364e75c6	3.0764945e-06
254	0xb783f58e	-1.5730762e-05
255	0xb8803590	-6.1134924e-05
