weight/epoch_10_base_model.model.vit.encoder.layer.7.attention.attention.query.lora_A.default.weight.npy (npy, 24704 bytes, 1 tensors)

array f4 [8, 768]
00000000: 6dbb 873c 0215 97bc 6ae4 bc3c 30a5 003d
00000010: 23e3 83bc 8575 813c f40d 0b3c 7b2c 72ba
00000020: a1bd 65bc e238 113d 2f6f d8bc 3da7 ffbc
00000030: 7e13 a93c 1f95 a3bb 2266 78bc c065 5b3c
00000040: 6e5a cf3c e6d3 cf3c d5ca cd3c 08bc c0bc
00000050: c7cf 78bc 8668 b43c 250a c83c 09e9 91bc
00000060: 5058 693c 3644 91bc 6eb2 0f3d 4bc3 483c
00000070: 5270 d13c 1ec7 bc3c 6066 80bc 9bad 84b8
00000080: 91f6 6c3c d4f2 c73c d01a f33b 8760 713b
00000090: 6de3 483c 6cc5 0cbc cd72 c0bc 6b1a 1dbc
000000a0: c8ed ee3c a868 ba3c 0d51 c4bb 121a b93c
000000b0: 5ba0 f3bc 5dcc f43c 8086 0c3c c7fe 8abc
000000c0: 730e 0f3c ab7b f93c c95d 013d 20d3 0f3d
000000d0: 9523 bdbb 4320 efb7 b076 f03c 96f5 95bc
000000e0: b776 c23c 6b75 dc3c ac60 0abd 03f6 edbc
000000f0: 0708 ddbb db00 123d 5cb4 d03c 08f4 7f3c
00000100: 86eb 0abd 712e 863a 6b89 0a3d ddb6 6bbc
00000110: f8e8 b2bc 2394 b7bc 5286 f9bc 770c 5a3c
00000120: 8c8f fa3b 022a 36bc a71c ba3b cba5 923b
00000130: fd93 f2bb 0ebe 92bb 692d b9bc 0cf3 b6b9
00000140: 0fb0 013d 687f 133d 3d76 f33c 279e 183b
00000150: dd2e b03a 7ecd 6abc 0ab6 3abb 547b c7bb
00000160: af33 fb3c 77a0 c73c e863 1cbb a64e 10bb
00000170: 03d8 a4bb c3a1 8f3c af02 6cbc 4ab0 02bd
00000180: 10cf 303c 9472 f23b 6248 fdbb 5625 163c
00000190: 2797 0e3c 04ee ba3c e987 ccbc dab8 a6bc
000001a0: ad64 b1bc f324 94bb b71a e53c 99bb e33c
000001b0: 28ee a03c 521a 293c 2d0c 943c a0f3 813c
000001c0: 48dc d53c 9845 91bc a489 ffbc cf6a 92bc
000001d0: d2d7 68bc cea9 f73c e482 053c 7de9 aa3c
000001e0: 0dbc 08bc 35a9 28bc 7e56 0b3c 021f dfbc
000001f0: 0cd0 33bc 8b24 ffbc 4032 e9bc b914 453c
00000200: e3e2 c6ba 7728 70bc dc1b 4bbc 5180 453c
00000210: 03b6 03bd f592 a6bc 56e3 be3c 26d2 08bd
00000220: f47f abbc ca5c f93a 67b1 14bc 5e51 993c
00000230: bacb 08bd 9b8e 9a3c 07fa 11bd 1723 89bc
00000240: 6c0e 12bd 842f 3abc ef05 9c3c ab15 d4bb
00000250: d417 adbc a642 94bc 3cee 8cbc 8b53 0ebc
00000260: d718 0e3d 5dc2 813b 4e95 563c 32ac fbbc
00000270: 90eb 0abc e9b2 073d cc9b 173b a29a 61bc
00000280: 5f2c e4bb 2644 6cbc 87c9 0cbd 0ba2 c2bc
00000290: 3087 d63c 6084 7cbb 226d 05bc 2bbd babc
000002a0: 2607 85bb 0af3 0ebd 522f e13b 8709 d7bb
000002b0: 2455 e4bb 4e5a 23bc dbef 1fbc cd96 d03b
000002c0: 8ee9 00bd dd40 3e3c 3d4f acbc 6b1a 073d
000002d0: e4b6 fdbc d532 10bd 98a5 8abc b28a 74bc
000002e0: 5f0e 753c 86a8 103b 0f4b 0b3d 37e1 99bc
000002f0: b2c3 1dbc 8541 ae3c ae3a 08bd 9b34 f33c
00000300: 4c1c 5c3b 713c bb3c f2b4 31b9 c93a 9cba
00000310: 821a b53b 4e18 aebb 8024 04bd 8095 f9bc
00000320: 4567 933c d7bd c3bb 8706 ac3c a779 5d3c
00000330: 103a 8cbc 75d6 ce3c 82c4 0abd dc15 5fbc
00000340: 9d4b 08bd 2510 4e3c efcf abbc 3325 cfbc
00000350: 7e24 0abc ad08 f5bc b81b a53c 9e3d 2dbb
00000360: 9264 84bc f070 3b3c d929 caba f0b9 1abc
00000370: 224a 86bc e674 7f3b 4060 dd3c 3c05 febc
00000380: efcc 7bbb d120 c43c 9868 b73a 3eb5 e339
00000390: 442d 5f3c e36e 82bc 69f5 a03c 1eda cd3c
000003a0: a05a 0e3d 74d6 f93c d6cf 8e3c 5940 e0bc
000003b0: 4ceb 223c b43a 2bbc cff0 f33b 0587 b3bc
000003c0: c3d0 01bc 5277 ebbc 0217 473b 363f fa3c
000003d0: 07c9 a0bb 63fc b7bc 06d9 ddbc fb62 f53c
000003e0: 4cfc 8c3c 100c d53c bc39 edbc e19c 163c
000003f0: b1b1 873a d353 2e3c 65a5 7cbc 5239 a63c
0.016568864 -0.018442634 0.023058135 0.031407535 -0.016099518 0.015803108 0.008487213 -0.00092381955
-0.014022262 0.03545464 -0.026420204 -0.031207675 0.020639177 -0.004992142 -0.015161069 0.013390958
0.025311675 0.025369596 0.025121132 -0.02352716 -0.015186257 0.022022497 0.0244189 -0.017811315
0.014242247 -0.01773272 0.035082273 0.012253593 0.025566254 0.023044165 -0.015673816 -6.326587e-05
0.014463083 0.024407782 0.007418968 0.0036831216 0.012261254 -0.008591991 -0.023492241 -0.009588818
0.029166117 0.022754982 -0.0059911073 0.02259544 -0.02973955 0.029882604 0.008576989 -0.01696719
0.008731472 0.030454477 0.03158358 0.035113454 -0.005772064 -2.8506043e-05 0.02935347 -0.018305581
0.023738248 0.026911458 -0.0337836 -0.029047972 -0.0067453417 0.035645347 0.025476627 0.015622146
-0.03391602 0.0010237229 0.03382246 -0.01438686 -0.021839604 -0.022409504 -0.030459557 0.013308636
0.0076465067 -0.011118414 0.005679685 0.0044753305 -0.0074028955 -0.0044782227 -0.022604661 -0.0003489483
0.031662043 0.036010176 0.029719466 0.0023287626 0.0013441701 -0.01433122 -0.0028489851 -0.0060877
0.030664293 0.024368508 -0.002386326 -0.0022019534 -0.0050306334 0.017533189 -0.014404937 -0.031906404
0.010791555 0.0073989127 -0.007729576 0.009164175 0.00870303 0.022818573 -0.02496715 -0.020351816
-0.021654451 -0.0045210063 0.02796684 0.027799414 0.019644812 0.010321217 0.018072212 0.01586324
0.026106015 -0.01773338 -0.031193562 -0.017873196 -0.014211612 0.030232336 0.008148883 0.020863289
-0.008345616 -0.010294248 0.008504508 -0.027236465 -0.010974895 -0.031145355 -0.028466344 0.012028866
-0.0015173819 -0.014658085 -0.012396779 0.012054519 -0.032156 -0.020333746 0.023301762 -0.03340354
-0.020935036 0.0019024846 -0.009075499 0.018715557 -0.033397414 0.018866828 -0.035638835 -0.016740365
-0.035658285 -0.011363868 0.019045798 -0.0064723096 -0.021129526 -0.018098187 -0.017203443 -0.00868691
0.034691658 0.0039599375 0.01309712 -0.030721758 -0.008479014 0.033129606 0.0023133634 -0.0137697775
-0.0069632973 -0.014420545 -0.03437188 -0.023758909 0.02618751 -0.003853105 -0.008143695 -0.02279528
-0.00405969 -0.03489975 0.006872096 -0.006562415 -0.0069681574 -0.009970261 -0.009761776 0.006365633
-0.031472735 0.011612144 -0.021033878 0.03298418 -0.030970998 -0.035204727 -0.016924664 -0.014925646
0.01495704 0.0022073104 0.03400713 -0.018784149 -0.009629177 0.021271477 -0.033259086 0.02968817
0.0033586202 0.02285597 -0.00016947443 -0.0011919375 0.0055268416 -0.005312956 -0.03226137 -0.030466795
0.017993579 -0.0059735584 0.020999206 0.013517774 -0.01711753 0.025248745 -0.03387881 -0.0136160515
-0.033275235 0.012577091 -0.020973174 -0.025286293 -0.008431552 -0.029911363 0.020154819 -0.0026434432
-0.016161237 0.011440501 -0.0015423849 -0.009443745 -0.016392771 0.003897959 0.027023435 -0.031008355
-0.003842171 0.02394143 0.0013992963 0.0004343185 0.013621632 -0.015922016 0.01964827 0.02512842
0.034754395 0.030497767 0.017433088 -0.027374433 0.009943794 -0.010451008 0.007444478 -0.021914968
-0.007923308 -0.02874342 0.0030378704 0.03054772 -0.004906777 -0.022459215 -0.027081024 0.029954424
0.017210148 0.026006728 -0.028958194 0.009192676 0.0010352639 0.010640102 -0.0154202925 0.020291004
