weight/epoch_2_base_model.model.vit.encoder.layer.3.attention.attention.value.lora_B.default.weight.npy (npy, 24704 bytes, 1 tensors)

array f4 [768, 8]
0.00036613527 -0.019166816 -0.00026956847 -0.0048010456 -0.017221237 0.05611866 -0.027991211 -0.033650003
0.0025982312 -0.0014519468 0.002016842 -0.0055354624 0.0031872508 0.0037776225 -0.00025095776 -0.007586619
-0.0002698622 0.008973128 0.0027153548 0.006920331 0.005251135 -0.025756095 0.016446011 0.016587885
0.0035598364 0.0037807573 0.0013614737 0.00091702235 0.0043070493 -0.010732613 0.004888755 0.0047001974
-0.0014648145 0.008438907 -0.00072641444 0.0051929276 0.0045459345 -0.022634432 0.015117579 0.01778886
0.0021780226 0.0008159198 0.0015882526 -0.0014351141 0.0018017355 -0.0032063813 0.007898006 0.0049224054
-0.001015465 0.020839123 0.00010458068 0.008452322 0.014853654 -0.06035423 0.031845957 0.03912291
-0.0017679612 0.0058186813 0.003405613 0.0049160128 0.0022614242 -0.0205426 0.013653063 0.011927658
-0.0023931486 0.0038554324 0.0026743456 0.0024021934 0.0051824786 -0.017543629 0.009577698 0.0071280734
-0.0008353956 0.0007687321 0.0013343301 0.0022461906 -0.0053182645 0.0013033963 -0.0006362145 -0.0016173008
0.0006695823 -0.0027521027 -8.3349505e-06 -0.0026931353 -0.004314922 0.019184241 -0.014634673 -0.013686747
0.0022829983 0.0035808496 -0.003572984 0.0005458093 0.00854349 -0.03446744 0.015665619 0.013638116
-0.0020470135 0.005950646 0.004439417 0.0016441635 -0.0045659505 -0.001726606 -0.00035374137 0.004223279
0.0012003694 0.0026369763 -0.00017514246 -0.0011011923 0.0033871364 -0.014977472 0.010482134 0.0053409855
0.0012514107 0.0018807366 -0.00085912755 -0.0035319203 0.0017312029 0.0030997903 -0.0071682176 -0.002801106
-0.00065374875 -0.0027843572 -0.0017080329 -0.002748416 -0.0024897845 0.012708847 -0.0105657345 -0.011257226
0.00475269 -0.0046209693 0.0025190937 -0.0021867547 -0.006193908 0.006362673 -0.00034100172 -0.008016552
0.0016845219 -0.009673975 -0.0010795692 -0.008816285 -0.0035847353 0.03790208 -0.021082805 -0.02022677
0.000330915 -0.013222203 0.002841279 -0.0019232911 -0.0126767075 0.036228467 -0.017732406 -0.024640452
0.0017699472 0.015905814 0.0014340789 0.00865559 0.014780258 -0.042025916 0.024581732 0.029281305
-0.0017625422 -0.009759528 0.002722761 -0.0042029545 -0.015387495 0.035751503 -0.017904079 -0.022881871
0.001246184 0.013436653 -0.0015890201 0.0035903426 0.014232693 -0.045823332 0.025740653 0.029131273
-0.005001966 0.0058287797 0.00056227157 -0.0016071901 -0.0007833597 -0.0049447124 0.002064279 0.005606522
-0.0038691908 -0.00061302143 -0.0031073308 -0.0042037633 -0.0041002324 0.008510547 -0.008134857 -0.004729105
0.0015012256 -0.020343103 0.003710868 -0.007539425 -0.020082684 0.07199375 -0.04019246 -0.045979116
0.0012641094 0.0006899965 -0.0020077322 -0.004174991 0.004388747 -0.009254955 0.0046793786 0.0022799103
-0.00035200204 -0.0060850917 0.0013670393 -0.00054191734 -0.004924151 0.011645873 -0.007208212 -0.013463936
-0.00069024134 0.0016661823 0.00028299092 0.0036156215 0.001181889 -0.011277394 0.004126566 0.0049580084
-0.0024747832 -0.005239193 -0.0020411888 -0.0061647156 -0.0059644743 0.024804411 -0.0155689195 -0.014704316
-1.0801838e-05 -0.003841825 -9.8805904e-05 0.0003437183 -0.0009182625 0.0104963025 -0.001207605 -8.986743e-05
0.00019469764 0.0064045507 0.00018699643 0.0032429674 0.004525786 -0.02717954 0.013859758 0.01734153
-0.0022189089 -0.0010284483 -0.000874987 0.0024769055 -0.002807608 0.007162368 -0.0036052486 -0.004063859
00000000: d8f5 bf39 ba03 9dbc de54 8db9 1752 9dbb
00000010: 8d13 8dbc aedc 653d d34d e5bc 96d4 09bd
00000020: 1647 2a3b 404f beba fe2c 043b d362 b5bb
00000030: 32e1 503b fd91 773b fb92 83b9 2c99 f8bb
00000040: 4b7c 8db9 0704 133c 18f4 313b f2c3 e23b
00000050: b711 ac3b 72fe d2bc c9b9 863c 51e3 873c
00000060: 254c 693b 95c6 773b 7a73 b23a 5464 703a
00000070: 2622 8d3b d7d7 2fbc d931 a03b 1d04 9a3b
00000080: 05ff bfba 5743 0a3c d96c 3eba 6f29 aa3b
00000090: 10f6 943b d86b b9bc b9af 773c f1b9 913c
000000a0: 28bd 0e3b 73e3 553a ea2c d03a 701a bcba
000000b0: 3628 ec3a 2722 52bb a366 013c 214c a13b
000000c0: 5a19 85ba cfb6 aa3c 5352 db38 9c7b 0a3c
000000d0: be5c 733c ff35 77bd e870 023d 583f 203d
000000e0: efba e7ba a3aa be3b b430 5f3b 8116 a13b
000000f0: 6734 143b f448 a8bc 19b1 5f3c 396c 433c
00000100: 5fd6 1cbb 6cab 7c3b 1344 2f3b 1e6e 1d3b
00000110: c8d1 a93b a8b7 8fbc c7eb 1c3c 9d92 e93b
00000120: 73fe 5aba bd84 493a b0e4 ae3a d334 133b
00000130: d644 aebb b9d6 aa3a a2c7 26ba 9cfb d3ba
00000140: e886 2f3a 9f5c 34bb 57d6 0bb7 507f 30bb
00000150: 3064 8dbb 4528 9d3c 44c6 6fbc 613e 60bc
00000160: 5b9e 153b b0ac 6a3b b928 6abb a414 0f3a
00000170: fff9 0b3c bb2d 0dbd 2f55 803c 6872 5f3c
00000180: 3027 06bb a3fd c23b 8778 913b f980 d73a
00000190: f89d 95bb 494f e2ba 5d76 b9b9 6f63 8a3b
000001a0: b755 9d3a 1fd1 2c3b 72a6 37b9 e255 90ba
000001b0: b8fa 5d3b 1264 75bc 42bd 2b3c 6f03 af3b
000001c0: 6006 a43a 0c83 f63a 1337 61ba ca77 67bb
000001d0: 88e9 e23a da25 4b3b 5ee3 eabb c392 37bb
000001e0: 5660 2bba c379 36bb 13e0 dfba c51e 34bb
000001f0: a72b 23bb c538 503c e71b 2dbc 3a70 38bc
00000200: 74bc 9b3b 806b 97bb 6117 253b a84f 0fbb
00000210: 44f6 cabb f87d d03b 7ac8 b2b9 db57 03bc
00000220: 2dcb dc3a 987f 1ebc 5580 8dba 2e72 10bc
00000230: e1ed 6abb 363f 1b3d d9b5 acbc 9cb2 a5bc
00000240: a97e ad39 f0a1 58bc c034 3a3b f116 fcba
00000250: f7b1 4fbc 4d64 143d 8d43 91bc c6da c9bc
00000260: 93fd e73a e94c 823c b4f7 bb3a 2dd0 0d3c
00000270: e528 723c 5e23 2cbd a15f c93c 59df ef3c
00000280: 1a05 e7ba 6de6 1fbc 5970 323b f0b8 89bb
00000290: d51b 7cbc 2b70 123d 93ab 92bc c372 bbbc
000002a0: ff56 a33a 6825 5c3c ab46 d0ba f44b 6b3b
000002b0: 3e30 693c 3fb1 3bbd 10de d23c b5a4 ee3c
000002c0: 88e7 a3bb 59ff be3b 6865 133a 5aa8 d2ba
000002d0: 615a 4dba 4107 a2bb db48 073b eab6 b73b
000002e0: 4092 7dbb 2cb3 20ba 5ca4 4bbb b9bf 89bb
000002f0: 3e5b 86bb d26f 0b3c 1048 05bc 9cf6 9abb
00000300: c6c4 c43a 94a6 a6bc 0932 733b 480d f7bb
00000310: 7184 a4bc 7671 933d d9a0 24bd 9954 3cbd
00000320: 79b0 a53a e2e0 343a 2894 03bb 5dce 88bb
00000330: 7acf 8f3b 18a2 17bc 7955 993b 8c6a 153b
00000340: ea8c b8b9 7365 c7bb 3a2e b33a 750f 0eba
00000350: c65a a1bb 55ce 3e3c dd32 ecbb d797 5cbc
00000360: 50f1 34ba cd63 da3a 665e 9439 10f4 6c3b
00000370: 9de9 9a3a d2c4 38bc 2538 873b ca76 a23b
00000380: f92f 22bb 89ad abbb 77c5 05bb 6201 cabb
00000390: a371 c3bb 9f32 cb3c c814 7fbc 5fea 70bc
000003a0: 8a39 35b7 21c7 7bbb 0436 cfb8 1735 b439
000003b0: 8eb7 70ba aff8 2b3c 8048 9eba 3677 bcb8
000003c0: c027 4c39 44dd d13b 7914 4439 f787 543b
000003d0: 0b4d 943b a0a7 debc 0a14 633c d30f 8e3c
000003e0: 1d6b 11bb 00cd 86ba 625f 65ba 9453 223b
000003f0: d9ff 37bb 4cb2 ea3b 0946 6cbb 1f2a 85bb
