weight/epoch_4_base_model.model.vit.encoder.layer.9.attention.attention.value.lora_A.default.weight.npy (npy, 24704 bytes, 1 tensors)

array f4 [8, 768]
0	0xbbde7493	-0.006788799
1	0x3d912787	0.07087617
2	0x3c346f6c	0.011012893
3	0xbd0563bf	-0.03256583
4	0xbb5ae379	-0.0033399744
5	0x3c2eab9c	0.010661032
6	0xbb9c0755	-0.0047616162
7	0xbccb528a	-0.024819631
8	0x3c6f3fdc	0.014602628
9	0xbba516e0	-0.0050381273
10	0xbc1f2c9a	-0.009715224
11	0xbcc89ad4	-0.02448789
12	0x3b5a2c7e	0.003329068
13	0x3d069961	0.032861117
14	0x3c7dd7de	0.015493361
15	0x3bf2bf3e	0.0074080518
16	0x3ca6819e	0.020325478
17	0x3c036dc0	0.008021772
18	0xbd2d2a14	-0.042276457
19	0xbd16d22f	-0.03682154
20	0xbd2810c0	-0.0410316
21	0x3c93a1be	0.01802146
22	0x3b8ffb5b	0.0043939776
23	0x3d066aab	0.03281657
24	0x3d83b4c6	0.06430964
25	0xbce6c497	-0.028169913
26	0xbd3b67ea	-0.045753397
27	0xbc1e72cf	-0.009670927
28	0x3b24c9cc	0.0025144694
29	0xba00d3f3	-0.00049143954
30	0xbca0692c	-0.0195814
31	0xbb6f8879	-0.003654985
32	0x3bdd7a50	0.0067589656
33	0xbc8c69b6	-0.01714025
34	0xbc21885c	-0.009859171
35	0xbc6796a5	-0.014135038
36	0x3cee3d69	0.029082017
37	0xbd94fdf0	-0.07274997
38	0x3d3501e0	0.04419124
39	0xba27ac2a	-0.0006396199
40	0xbd26ce28	-0.04072395
41	0x3cd9d813	0.02659229
42	0x3cd0d4f0	0.025492162
43	0xbb594993	-0.0033155426
44	0x3c67dbcc	0.014151525
45	0x3c35a637	0.011086992
46	0x3d42e68b	0.047583144
47	0xbd07f1d7	-0.03318962
48	0xbaa33030	-0.0012450274
49	0x3c8ce605	0.017199526
50	0xbbbc4408	-0.0057454146
51	0xbc141f00	-0.009040594
52	0xb96c90ca	-0.00022560652
53	0xbca92002	-0.020645145
54	0xbc08ffc3	-0.00836176
55	0xbb462f13	-0.003024046
56	0x3ab65eaf	0.0013913716
57	0xbc53f269	-0.012936213
58	0x3ccbd5b4	0.024882175
59	0x3d01e420	0.031711698
60	0xbc95109d	-0.018196398
61	0x3d042cc1	0.032269243
62	0x3cfed065	0.03110523
63	0xbc1aad41	-0.009440721
64	0xb93ffc4c	-0.00018309167
65	0x3c9ac2cc	0.018891715
66	0xbd285688	-0.041098148
67	0xbd46bd8f	-0.04852062
68	0x3cbe7018	0.02324681
69	0xbcdba44a	-0.026811738
70	0xbac51cb2	-0.0015038459
71	0xbcbf5b2a	-0.0233589
72	0xbc07e74b	-0.008294891
73	0x3cb3a658	0.021929905
74	0xbd5f7f6e	-0.054564886
75	0xbd2973fd	-0.04137038
76	0x3d193cc0	0.03741145
77	0xbd094d91	-0.03352124
78	0xbcfb082d	-0.030643547
79	0xbd81769f	-0.06321453
80	0x3b3a336e	0.0028412002
81	0xbc098f18	-0.008395933
82	0xbb6751a3	-0.0035296462
83	0x3ce06c7a	0.027395476
84	0xbcc71430	-0.024301618
85	0xba9a6e7d	-0.0011782196
86	0x3c89260e	0.016741779
87	0xbcc26da5	-0.023733923
88	0xbbf1fc2e	-0.0073847985
89	0x3cc2398f	0.023709087
90	0xbcaaa187	-0.020828975
91	0xbb12a61d	-0.0022376843
92	0x3cc888b8	0.024479255
93	0x3d009494	0.031391695
94	0xbcb68997	-0.022282405
95	0xbc17829d	-0.009247449
96	0xbd079294	-0.033098772
97	0xbcc75f00	-0.024337292
98	0xbd0a2fde	-0.033737056
99	0x3ca172c2	0.019708041
100	0xbd367f0a	-0.044554748
101	0xbb39f2dc	-0.0028373515
102	0xbcf50172	-0.029907916
103	0x3cae9ce8	0.021315053
104	0xbc99cf25	-0.018775532
105	0x3a8b1920	0.0010612346
106	0x3c19adbc	0.0093798
107	0xbcd8a82e	-0.026447382
108	0xbd58f078	-0.052963704
109	0x3c1ef169	0.009701111
110	0xbc2621f8	-0.010139935
111	0x3d7dd02f	0.061966117
112	0x3cbdfdad	0.023192251
113	0xb98eca03	-0.0002723486
114	0xbd944a10	-0.07240689
115	0xbca1760f	-0.019709615
116	0x3d1c4adc	0.03815733
117	0x3c435e4e	0.011924339
118	0xbcc1a47e	-0.023638006
119	0x3cf0296d	0.029316628
120	0xbbecc727	-0.0072258892
121	0xbcc6e356	-0.024278324
122	0x3ca3f537	0.020014388
123	0x3c48bf73	0.012252676
124	0x3d465c5b	0.04842792
125	0x3d3fff85	0.04687454
126	0x3d84f623	0.06492259
127	0x3cc425cd	0.023943806
128	0x3a82243e	0.0009929014
129	0xbc060ba0	-0.008181483
130	0x3cb3ecc2	0.02196348
131	0x3c843882	0.016140226
132	0x3c64bc2a	0.013960877
133	0x3c148459	0.009064757
134	0xbce2e774	-0.027698256
135	0x3cc8ca7e	0.024510618
136	0xbc4fc6c4	-0.012681667
137	0xbd46f751	-0.048575703
138	0xbc901d48	-0.017592087
139	0x3b638d39	0.0034721626
140	0x3d5423a3	0.0517918
141	0xbd28bd45	-0.041196126
142	0x3cc34b23	0.023839539
143	0xbd24660a	-0.040136375
144	0xbce67e5f	-0.02813643
145	0xbc89fb4f	-0.016843466
146	0xbd0ae7e3	-0.03391255
147	0xbc82c6b4	-0.01596389
148	0x3ca132dc	0.019677572
149	0xbc4afa4d	-0.012388778
150	0xbd138efa	-0.036025025
151	0x3b85f190	0.0040876344
152	0xbd07d6ff	-0.03316402
153	0x3c50a7a6	0.012735283
154	0x3c004b56	0.0078304615
155	0xbd11ad48	-0.035565645
156	0x3ad9f4ce	0.0016628744
157	0xbb1dd547	-0.0024083422
158	0x3c08e5d9	0.008355581
159	0x3c80d345	0.015725741
160	0x3cba5d5b	0.022749593
161	0xbce20387	-0.027589573
162	0xbcf25f6c	-0.029586516
163	0xbc23e9ba	-0.010004455
164	0x3d15d217	0.03657731
165	0xbd00519d	-0.031327832
166	0xbd4b5860	-0.049644828
167	0xbb42c762	-0.0029720892
168	0x3ccf9106	0.025337707
169	0x3c99659a	0.018725205
170	0xbceff01d	-0.0292893
171	0x3b3a1184	0.0028391788
172	0xbc6c549c	-0.014424469
173	0xbcdbf114	-0.026848353
174	0x3bf4903e	0.007463484
175	0x3cdb0c03	0.026739126
176	0x3c2567d9	0.01009556
177	0xbd52a2b2	-0.05142469
178	0x3c0ef264	0.008724783
179	0x3c76d652	0.015065746
180	0x3cbc4146	0.022980344
181	0xbc7bb0d2	-0.0153619815
182	0xbbc4bd00	-0.006003976
183	0x3c32f2f9	0.010922187
184	0x3c4ea2fe	0.012612103
185	0x3cae2ccf	0.0212616
186	0xbd0a798e	-0.03380733
187	0xbf008afe	-0.50212085
188	0xbd2f7a77	-0.0428414
189	0xbc546517	-0.012963555
190	0x3c6403a3	0.013916883
191	0xbb6bb2d0	-0.0035964735
192	0x3c4dd34a	0.012562582
193	0xbcceac30	-0.02522859
194	0xbd3434fc	-0.043995842
195	0xbd86c1ec	-0.065799564
196	0x3c59b70d	0.013288272
197	0x3d27e54b	0.040990155
198	0x3c9392e4	0.018014379
199	0xbd29cbaa	-0.041453995
200	0x3d085a96	0.033289514
201	0xbc8b47cc	-0.017002009
202	0x3c54fc80	0.012999654
203	0x3c0fd1c8	0.008778043
204	0xbcbe46ac	-0.023227058
205	0xbcc53457	-0.02407281
206	0x3d05f307	0.032702472
207	0x3d2199ae	0.0394532
208	0xbbebfb49	-0.0072015864
209	0x3d2d610d	0.042328883
210	0x3cb02485	0.021501789
211	0x3c90e633	0.017687893
212	0xbd12650d	-0.0357409
213	0x3d0ae49d	0.03390943
214	0xbcc75613	-0.024333036
215	0x3d13dbc4	0.036098257
216	0x3cb496c7	0.022044552
217	0xbc7d6caa	-0.015467802
218	0xbc58eb53	-0.013239699
219	0x3d18233d	0.03714298
220	0xbcfe9ab3	-0.031079626
221	0x3c68b1db	0.01420256
222	0x3b35e1aa	0.0027752914
223	0x3ca14ccd	0.019689942
224	0x3be31fcd	0.006931281
225	0x3b489791	0.0030607919
226	0xbc50ac05	-0.012736325
227	0xbca8ac13	-0.020589864
228	0x3c88f7e8	0.016719773
229	0xbc31b74c	-0.010846924
230	0xbd136cb3	-0.035992336
231	0x3d08010e	0.03320413
232	0xbd05f41b	-0.0327035
233	0x3bdfd1d1	0.006830432
234	0xbc1c6663	-0.009545895
235	0xbc3731c2	-0.011181297
236	0x3b59c03b	0.003322615
237	0xbc3a8d2b	-0.011386196
238	0xbd364a85	-0.04450466
239	0xbca2b4c7	-0.019861592
240	0xbc27217d	-0.010200855
241	0xbcd388d1	-0.025822075
242	0x3c9ec81f	0.019382535
243	0x3d0aaaec	0.03385441
244	0xbd426a1d	-0.04746448
245	0x3be9f010	0.0071392134
246	0xbc32ce5f	-0.0109134605
247	0x3c1adc5f	0.009451955
248	0x3c6542ba	0.01399296
249	0x3bfd5201	0.007730723
250	0xbc64aa71	-0.013956652
251	0x3bec831e	0.007217779
252	0x3a69792a	0.00089062995
253	0x3c07ec02	0.008296015
254	0xbd0696c3	-0.03285862
255	0xbc10fba0	-0.008849055
