weight/epoch_10_base_model.model.vit.encoder.layer.2.attention.attention.query.lora_A.default.weight.npy (npy, 24704 bytes, 1 tensors)

array f4 [8, 768]
0	0xbcf473f5	-0.029840449
1	0x3a74eb57	0.00093429297
2	0x3b3e5534	0.0029042484
3	0xb9cbc0c3	-0.00038862796
4	0xbbd10f83	-0.006380023
5	0x3c2bc84c	0.010484766
6	0x3cc16d33	0.02361164
7	0x3ca25f91	0.01982096
8	0xbc54abc0	-0.0129804015
9	0x3cd6596e	0.02616569
10	0xbbff0040	-0.007782012
11	0xbc864991	-0.016392501
12	0x3c96f3fc	0.018426888
13	0xbcc5a1f9	-0.024125086
14	0x3c80219b	0.015641024
15	0xbc30a3b3	-0.010781216
16	0xbcff7394	-0.031183042
17	0xbca80474	-0.020509936
18	0x3cdcda96	0.026959699
19	0x3c7aef37	0.015315822
20	0xbcc76b2c	-0.024343096
21	0xbc4c20fc	-0.012459036
22	0xbd0ac37c	-0.033877835
23	0x3c5f2134	0.013618756
24	0x3c2f16aa	0.010686556
25	0x3c4d88e4	0.012544844
26	0xbcc6671e	-0.024219092
27	0x3d101edc	0.03518568
28	0x3c1cefea	0.009578684
29	0xbabf8cc7	-0.0014614098
30	0xbc0b72ca	-0.008511255
31	0x3d06e9db	0.032937866
32	0x3d0911c2	0.0334642
33	0xbce2b569	-0.027674394
34	0x3c6462d1	0.013939575
35	0xbc9cfead	-0.019164408
36	0xbd0d4838	-0.0344927
37	0x3c9a8960	0.018864334
38	0x3c829e67	0.015944673
39	0xbbf241c6	-0.0073930947
40	0x3cbca609	0.02302839
41	0x3bdaae1a	0.0066735866
42	0x3cec0199	0.028809356
43	0xbcbb1e8b	-0.022841712
44	0x3cfaafdc	0.030601434
45	0xbc3055e3	-0.0107626645
46	0x3c60c574	0.0137189515
47	0x3c40c0b6	0.011764696
48	0xbcc2cc58	-0.02377908
49	0xbcec2224	-0.028824873
50	0xbc5b5554	-0.013387043
51	0xbd01abcb	-0.031657975
52	0x3cd552e2	0.026040498
53	0x3c972e1a	0.0184546
54	0xbc117be6	-0.008879637
55	0xbc0945a9	-0.008378425
56	0xbc9f1339	-0.019418346
57	0x3ce91ab0	0.028455108
58	0xbc965c3e	-0.018354531
59	0xbcb1be74	-0.02169726
60	0xbc901b80	-0.017591238
61	0x3ab39736	0.001370168
62	0xbba060a0	-0.004894331
63	0x3cfbd02d	0.030738914
64	0xbb6969bd	-0.0035616003
65	0x3bfdde31	0.0077474345
66	0xbcb52de2	-0.022116605
67	0xbd0e300e	-0.034713797
68	0x3c06e643	0.00823361
69	0x3c4105e8	0.011781193
70	0xbcd0e861	-0.025501432
71	0xbbe87989	-0.0070945662
72	0xbceb06be	-0.028689738
73	0xbd01ca4c	-0.031687066
74	0x3cfe937c	0.031076185
75	0x3ca69583	0.020334965
76	0x3c1f9277	0.00973951
77	0xbbe7529c	-0.0070594084
78	0x3bd282a8	0.006424267
79	0x3cbff2d9	0.023431228
80	0xbca04925	-0.019566128
81	0xbcb0ec4a	-0.021597046
82	0x3c31a522	0.010842593
83	0x3c2eedb5	0.010676791
84	0x3bebdb48	0.007197771
85	0x3b5d8957	0.0033803785
86	0x3c96ec4f	0.018423228
87	0xbcab0632	-0.020876978
88	0xbce19590	-0.027537137
89	0xbcb45414	-0.022012748
90	0xbcfaace7	-0.030600024
91	0x3d05bd07	0.032650974
92	0xbca0b671	-0.019618245
93	0x3a69ff82	0.0008926318
94	0x3cc30038	0.023803815
95	0xbd043646	-0.03227832
96	0xbc96b950	-0.01839891
97	0x3c8b3514	0.016993083
98	0xbcf97588	-0.030451551
99	0xbcceb818	-0.025234267
100	0xbce7dc49	-0.028303282
101	0xbcdc8d8b	-0.026922962
102	0xbcc90006	-0.024536144
103	0x3cb81650	0.022471577
104	0x3c00e626	0.007867372
105	0xbaecf5a0	-0.0018078573
106	0xbbd90e9b	-0.0066240556
107	0xbc1dccb3	-0.009631324
108	0x3bea1dce	0.0071446663
109	0xbbeeda49	-0.007289205
110	0x3c4cd262	0.012501331
111	0xbb95f07a	-0.004575786
112	0x3ccebf7e	0.025237795
113	0x3d0d9dc5	0.03457429
114	0x3cfce9b3	0.030873155
115	0x3a7cdd7a	0.00096460397
116	0x3cf200f6	0.029541474
117	0x3c9e742f	0.01934251
118	0xbd096b53	-0.033549618
119	0x3c4e809a	0.012603903
120	0xbd029627	-0.031881478
121	0x3d03a17f	0.032136437
122	0x3c91a2f0	0.01777789
123	0xbc0fe6f0	-0.008783087
124	0xbb2a384a	-0.0025973492
125	0xbc8ed6b2	-0.01743636
126	0x3c20791d	0.009794501
127	0xbc97a10e	-0.018509414
128	0xbd084314	-0.033267096
129	0x3caa11f1	0.020760508
130	0xbcd179ad	-0.025570715
131	0x3bc60022	0.0060424963
132	0xbcec9d2e	-0.028883543
133	0x3bbc2fc1	0.0057429974
134	0xbcf24c54	-0.029577412
135	0x3d00534d	0.03132944
136	0x3cb53040	0.022117734
137	0x3cb21d20	0.021742404
138	0xbc7ebc1c	-0.015547778
139	0x3c939061	0.018013181
140	0x3c34db24	0.011038575
141	0xbb6e0cdf	-0.003632359
142	0xbc0b9d5c	-0.008521404
143	0x3b01c114	0.0019798921
144	0x3c7e1069	0.015506842
145	0x3c75a78b	0.014993559
146	0xbcc818d8	-0.024425909
147	0xbc15c99f	-0.0091423085
148	0xbc723bb6	-0.014784744
149	0xbc64af02	-0.013957741
150	0x3c344b41	0.01100427
151	0xbcdaf8f5	-0.02673004
152	0xbcf2aa7b	-0.029622307
153	0xbcf19b70	-0.029493064
154	0x3cc111a7	0.023567988
155	0xbc5d35da	-0.013501609
156	0x3afe1e85	0.0019387758
157	0xbc98c585	-0.018648872
158	0xbcd6894f	-0.02618852
159	0x3cfb6d14	0.030691661
160	0xbcd101aa	-0.025513489
161	0x3b1056a5	0.00220243
162	0x3c8317d1	0.016002567
163	0xbc042531	-0.008065508
164	0x3c997b48	0.018735543
165	0x3a66a7ab	0.0008798788
166	0xbb6c4490	-0.0036051609
167	0xbba3e507	-0.0050016674
168	0x3caa25c5	0.020769963
169	0xbadd60a5	-0.0016889764
170	0xb91eb954	-0.00015137094
171	0x3bb15f45	0.0054129683
172	0xbcaed63b	-0.021342387
173	0x3bd6ae40	0.006551534
174	0x3ca0b815	0.019619027
175	0x3bf6f03b	0.007535962
176	0xbbc49543	-0.0059992387
177	0xbc547741	-0.0129678855
178	0xbc0b2f0e	-0.008495105
179	0xbce942e5	-0.02847428
180	0x3ba01224	0.004884975
181	0x3c6e04b7	0.014527491
182	0x3c1229b0	0.008921072
183	0x3ca210e5	0.019783447
184	0x3d0d58a2	0.034508355
185	0x3c307967	0.010771132
186	0xbc9085cc	-0.017641924
187	0xbc9b27cd	-0.018939877
188	0x3c504711	0.012712256
189	0xbc88b1ae	-0.016686287
190	0xbcd5c0de	-0.026092943
191	0x3bc33a8d	0.0059579075
192	0xbb139c38	-0.0022523534
193	0x3d063ece	0.03277474
194	0x3c970ba2	0.018438164
195	0x3b1c8a3d	0.0023886107
196	0xbb78c9bf	-0.0037962047
197	0xbcaa7077	-0.02080558
198	0x3c3f48db	0.011675085
199	0x3c806aed	0.015675986
200	0xbb10d251	-0.0022098015
201	0xbc06b388	-0.0082215145
202	0x3d103f13	0.035216402
203	0xbcf8cc18	-0.030370757
204	0x3c6b2c6f	0.0143538555
205	0x3bfa499e	0.0076381704
206	0xbcd73ed0	-0.026275069
207	0xbc97b1d7	-0.018517418
208	0xbcd831d2	-0.026390944
209	0x3cbe6298	0.023240373
210	0xbcfcbdff	-0.030852316
211	0x3cf983a5	0.03045828
212	0x3c55f01d	0.013057736
213	0x3c37d70e	0.011220707
214	0xbc873269	-0.01650353
215	0xbc1be18e	-0.009514226
216	0x3cf22a29	0.02956112
217	0xbd050ad7	-0.03248104
218	0xbc9cba43	-0.019131785
219	0x3c0a3b37	0.0084369695
220	0xbbe13bd4	-0.006873587
221	0xbb6b3ea4	-0.003589549
222	0x3b8aeb79	0.0042394963
223	0x3cdd59f0	0.027020425
224	0x3b120342	0.0022279774
225	0x3bf4fdbf	0.007476538
226	0xbcc3d834	-0.023906805
227	0xbd1091fb	-0.035295468
228	0xbc999931	-0.018749805
229	0x3ce91788	0.028453603
230	0xbc24eed9	-0.010066711
231	0x3a892ea5	0.0010466172
232	0x3b0a1071	0.0021066929
233	0xbc5a2626	-0.013314759
234	0xbca3ae49	-0.019980567
235	0x3c46b855	0.012128909
236	0xbcd42936	-0.025898557
237	0x3c76eb59	0.01507076
238	0x3c57830a	0.013153801
239	0x3c88d052	0.016700897
240	0xbd11557f	-0.035481926
241	0xbcf30cb5	-0.029669145
242	0xbc834b0f	-0.016027002
243	0x3cd893e1	0.026437702
244	0x3c8e87ea	0.017398793
245	0x3cbcaabe	0.023030635
246	0xbce61f71	-0.028091164
247	0xbd0d8566	-0.034551047
248	0xbc7579f5	-0.01498269
249	0xbcdf1687	-0.027232422
250	0xbceec954	-0.029148735
251	0x3cd9f3a9	0.026605444
252	0x3c215a6c	0.009848218
253	0xbd0460f6	-0.03231903
254	0x3c138540	0.009003937
255	0x3bac8ffd	0.005266188
