weight/epoch_10_base_model.model.vit.encoder.layer.8.attention.attention.value.lora_A.default.weight.npy (npy, 24704 bytes, 1 tensors)

array f4 [8, 768]
000000 4c 8b 4c 3c a1 24 01 bc 51 8f 80 3c aa 35 1c 3c
       0.012484383 -0.007882268 0.015693339 0.009534279
000010 6e 88 e2 bc 27 5b 6e bb 8a ef 9d 3b 8f f9 38 3c
       -0.027652945 -0.003637025 0.004819815 0.011289968
000020 9b 9d 67 3c 4c dd 89 3c 16 03 4d bb a3 a3 9e bc
       0.014136697 0.016829155 -0.0031282357 -0.019365137
000030 e5 7e bd 3c a6 79 cf 3c 59 63 3e bc b1 8c bd bc
       0.023131797 0.025326561 -0.011620366 -0.023138376
000040 16 f5 9a bb 7e ac 74 bc 4d b9 7c bc 47 f3 ea 3c
       -0.0047289236 -0.0149337035 -0.0154250385 0.028680457
000050 43 5b ab 3b e6 c8 8c 3c 21 87 79 3c df 01 2b 3c
       0.005229385 0.01718564 0.015229971 0.010437458
000060 11 87 01 3d 1e 8e 20 bd 86 84 47 bc 96 a9 89 b9
       0.03162295 -0.039198034 -0.012177592 -0.00026257028
000070 82 6b f9 3c 5a ed 88 bc 4d 41 06 bd cd 48 44 3c
       0.030446772 -0.01671474 -0.03277712 0.011980248
000080 cc 9e e4 bb ca bf f4 3c 1d 04 d1 3b 65 4b bd 3c
       -0.006976938 0.029876608 0.006378664 0.02310724
000090 b0 bc 9d 3c 8a 15 93 bc 00 fb 43 bc cf f8 a3 3b
       0.019255012 -0.017954607 -0.0119616985 0.0050040255
0000a0 8f d4 22 bc 47 27 9d bc b2 53 c5 3c 9a 06 da bc
       -0.009938373 -0.019183768 0.02408776 -0.026614476
0000b0 27 5b bb bb 6b ff e5 bc f3 65 24 bc 7e 84 78 3c
       -0.0057176533 -0.028075894 -0.010034072 0.015168307
0000c0 65 b5 ff bc bb 4b 96 3c 0a 35 46 ba 48 f8 35 3d
       -0.031214425 0.018346658 -0.0007561004 0.044426233
0000d0 b5 9f f1 bc 66 79 f1 39 0e 42 f1 3c 43 e9 6b bc
       -0.0294951 0.0004605755 0.029450443 -0.014398876
0000e0 a3 b8 23 bb 50 21 e9 bb bf ae 94 3b 28 78 5f 3c
       -0.0024981878 -0.007114567 0.004537433 0.013639487
0000f0 e1 1e 32 3c 42 e8 e6 bc b4 e8 dc 3b eb 04 de bc
       0.01087162 -0.028186921 0.0067416076 -0.027101954
000100 6e af 94 bb 49 d0 a2 bc 3f a2 1d bb 51 a9 22 3c
       -0.0045375144 -0.019874709 -0.0024053005 0.0099280635
000110 d2 e7 f0 bc 32 5b a4 3c 4d 36 ef bb 37 6e 57 3c
       -0.029407416 0.020063017 -0.0073001743 0.013148836
000120 14 66 6b bb 0f 88 b1 3b 38 c3 7f bc 01 7b f3 bc
       -0.0035918998 0.005417831 -0.015610509 -0.029721739
000130 d0 92 ef bc 47 ef 12 3c 98 56 80 3c 55 a2 23 bd
       -0.02924481 0.008968181 0.015666291 -0.039949734
000140 e6 e3 92 3c 1d 24 29 bd 68 97 ac 3b 09 68 b2 bc
       0.017930936 -0.041294206 0.0052670725 -0.021778123
000150 31 73 02 bc 05 7d 10 bd 45 bd 1a 3c 7a 43 94 3c
       -0.007962034 -0.035275478 0.009444539 0.018098582
000160 f6 83 03 3d d2 b6 9b bc a1 8d 3d 3c c9 d0 06 3d
       0.03210827 -0.019008074 0.0115694115 0.032913957
000170 92 d4 57 bc bd a7 ae bb 87 4d 11 3d da 71 82 3b
       -0.013173239 -0.0053300546 0.035474326 0.0039808573
000180 1a fa 24 3b be be 96 bc ab 48 f5 bc 70 4f f3 bb
       0.0025173486 -0.0184015 -0.029941877 -0.007425241
000190 fe 5c 06 bd 14 6f ea 3c e1 38 d8 bb 8d 6a 97 3c
       -0.032803528 0.02861742 -0.0065985774 0.018483425
0001a0 47 88 2c 3c 6c 05 6c bb 24 c1 6a 3b 2d 70 f6 bc
       0.010530538 -0.0036013974 0.0035820687 -0.030082786
0001b0 44 73 9e bc f0 7d e3 bc 52 78 0c 3b 12 f2 8f ba
       -0.019342072 -0.027770013 0.0021434021 -0.0010982177
0001c0 34 c1 ef bc de a7 13 bd c9 5f bd bc ff b2 0c bd
       -0.029266931 -0.036048763 -0.023116963 -0.03435039
0001d0 56 15 73 3c 71 b6 df 3c de 0f f9 3b 03 2c f7 bc
       0.01483663 0.027308675 0.0076007685 -0.030172354
0001e0 25 e9 e1 bc de 7f ad bc 55 a9 d5 bc 41 50 53 bc
       -0.027576992 -0.021179136 -0.02608172 -0.012897552
0001f0 ed f7 8e bc 12 bc 0c 3d 43 a5 b7 3c bd 13 e0 bc
       -0.017452205 0.034359045 0.02241767 -0.027353162
000200 7a 0c 59 3c e9 bc 87 3c 1b 9f 73 bc 64 dd 4d 3c
       0.013247604 0.016569572 -0.014869477 0.012564991
000210 87 5f cd bc 66 98 1d bd 64 84 91 3b 6c ac 7b 3c
       -0.025069965 -0.038475417 0.004440831 0.015360933
000220 b0 2e 3f 3c 4c 38 bf 3c c9 f1 50 bc 4c a4 10 3d
       0.011668846 0.023342274 -0.012752959 0.035312936
000230 2c be c8 3c b5 33 0f bd 23 bd 08 bd 13 cf 6d bc
       0.024504744 -0.03496142 -0.0333835 -0.014514702
000240 45 45 fc 3c be 99 c4 bc 27 e3 63 3c d0 6b 03 bd
       0.030794749 -0.023999091 0.013909138 -0.03208524
000250 9a dd a5 bc 82 a0 d6 3c 3f 7f 74 bc fc 9e 48 bc
       -0.02024727 0.026199583 -0.014922916 -0.012244936
000260 43 6a 35 bc 2b 88 55 bc c6 f6 c3 bb 05 2f 8a bc
       -0.011072698 -0.013032953 -0.0059803454 -0.016868124
000270 86 12 02 bd 60 41 69 3c bd b4 3e 3c cd 35 0b 3d
       -0.031755947 0.014236778 0.011639771 0.033986855
000280 01 4e 5e ba c9 61 f4 3c f5 82 ef 3c 90 ae 98 bc
       -0.00084802514 0.029831784 0.02923725 -0.018637925
000290 27 95 99 3b 6c c1 d3 bc ab 9a 8c 3c 63 7f 58 3c
       0.00468697 -0.025849067 0.017163595 0.013213965
0002a0 5e bc a4 bc 3f db 18 3d a3 45 98 bb 60 b5 28 bd
       -0.020109352 0.037318464 -0.004646973 -0.041188598
0002b0 f3 a9 8f bc 7e 79 85 3c b3 5b dc 3b df 90 87 3c
       -0.017537093 0.016293284 0.0067247986 0.016548572
0002c0 c2 43 91 b8 ba 39 80 bc d5 33 a2 bb 10 f6 9c 3c
       -6.92676e-05 -0.015652526 -0.0049500265 0.0191603
0002d0 cd e0 dd ba b3 7f e5 3c bd 98 0b 3d 47 7b 3c 3d
       -0.0016927958 0.028014993 0.03408121 0.046016004
0002e0 c6 29 8b 3c 0d 18 af 3c 2f 23 37 3c 24 ef 53 be
       0.016987693 0.021373773 0.011177822 -0.20696694
0002f0 34 6a b6 bc 77 7b 24 bd 34 3a 90 ba 86 a2 4b bc
       -0.022267438 -0.040156808 -0.0011003674 -0.012428885
000300 b0 ae b2 bc f3 3c 25 3c 9b 06 f6 bc 57 f1 f6 bc
       -0.021811813 0.010085332 -0.030032447 -0.030144377
000310 9e f5 48 3c 87 17 1f 3d d4 8f eb 3c c5 42 22 bd
       0.012265591 0.038840797 0.028755106 -0.039614458
000320 26 23 4e 3c b3 6a d2 bc 5d df ae 3c ee 0e 6b 3c
       0.012581622 -0.025685644 0.021346742 0.014346821
000330 22 25 ee bb 44 cc fe bc f2 d8 08 3d 40 71 f0 3b
       -0.00726761 -0.03110326 0.03341002 0.007337719
000340 d3 4f 25 3c 62 16 1d 3c c7 77 2e 3c fb 6d e6 39
       0.010089832 0.009587856 0.010648674 0.0004395096
000350 76 7f cf 3c 96 00 fe 3c b3 34 a6 ba 80 94 be bb
       0.025329333 0.031006139 -0.00126805 -0.0058160424
000360 e2 02 a4 bb d8 d1 91 ba 49 1b 06 3d cc 66 b8 3c
       -0.0050052265 -0.001112516 0.032740865 0.022509955
000370 9b 90 81 3c 50 56 62 bc 0a 7b b3 bc e6 5c ee 3c
       0.015816024 -0.013814524 -0.021909256 0.029097032
000380 7c 7e 70 bb 3a 20 07 3c c4 97 e0 3c 6c f2 59 3b
       -0.0036696484 0.0082474295 0.027416117 0.0033256067
000390 f7 d8 16 bd f2 eb bf bb fe 81 3c bc 7c 55 54 bb
       -0.036828008 -0.0058569843 -0.011505602 -0.0032399585
0003a0 db 27 5d ba a0 02 7e bc ad c8 10 3d 27 1b a8 bc
       -0.000843642 -0.015503556 0.03534763 -0.02052076
0003b0 d5 41 dd 3c 10 34 45 bc ea 7e 31 3c e3 1f f7 3c
       0.02700893 -0.012036338 0.010833481 0.030166572
0003c0 57 8d 8f bc 9e 97 1f 3d 8c 29 03 bd 27 6e 22 3d
       -0.01752345 0.038962953 -0.032022044 0.03965583
0003d0 8d 6e ce bb f5 cb 67 3c df b2 91 3c 50 59 a1 bc
       -0.0062998 0.014147748 0.017785488 -0.019695908
0003e0 c6 30 4b bc 9e 73 24 3b 07 7a 2e 3b 0a c2 05 3d
       -0.012401765 0.0025093327 0.0026623027 0.032655753
0003f0 5d 77 f9 bc 39 e1 85 3c 41 d1 8c bb 0f 46 d7 3b
       -0.030452425 0.016342746 -0.004297406 0.006569631
