weight/epoch_12_base_model.model.vit.encoder.layer.6.attention.attention.value.lora_B.default.weight.npy (npy, 24704 bytes, 1 tensors)

array f4 [768, 8]
00000000: 8730 4e3c 9b14 a7ba 304f f93b 988b 96bc
00000010: 90d0 a83b 9b3a 90ba dae8 54bb ee88 d63c
00000020: 3ff8 8f3c e98a 093c a2af 303d af49 613c
00000030: 7430 cabc e2d8 52bd 015c 113d 3f16 c7bd
00000040: 32d2 a5bc bd43 0ebc 2585 03bd 96f9 e5ba
00000050: c8a6 943c eed6 2b3d 3c90 f1bc c440 a23d
00000060: c682 023c d98d 253a b326 083c f404 bebb
00000070: ed6f 96bb 06a1 47bc 5766 b33b 4f5a 4fbc
00000080: 4154 623c 8f1e 0e3c 57e0 073d 4663 f3ba
00000090: 0a21 c0bc 0d38 20bd cae5 e33c 9f47 8cbd
000000a0: 8c48 54b9 7b7c 2e3c 5280 3a3c 1c44 903b
000000b0: fe74 5cbc d942 b8bc 3edd 9c3c cab3 1fbd
000000c0: 8df0 2ebc 58b9 833a 6262 9abc 5ce6 31bb
000000d0: da9a 9d3b 5455 b83c d689 a9bc 263f 263d
000000e0: e8da d23c a04d 803c 3b6b 3e3d 4e8e 0e3c
000000f0: 7334 e9bc 94d9 79bd c1b5 d73c 84f9 bfbd
00000100: a374 93bc e303 45ba b44a f9bc e35a 8cbb
00000110: 8333 a43c b226 3b3d 84f3 8abc cf52 913d
00000120: 55e5 29bb 0f74 69bb 5edb da3a 78c6 a53a
00000130: 6d73 e53b 7001 6abb 34ea 0b3c 8217 6dbc
00000140: 5009 a9bb e53e febb 9fed d4bc 6728 523b
00000150: c0f4 7d3c 772b 0c3d e802 d1bc aafd 773d
00000160: faef d63b 7e7d 5a3c cc3e ed3c 93c4 0fba
00000170: 7aba 55bc 650e 15bd 43b4 cc3c a10e 7bbd
00000180: 7ed7 b3bb 7db6 8cbb 4219 99bc b593 8b3a
00000190: 6254 183c 2c33 4d3c 29c2 adba 1ef8 743c
000001a0: fb0e f2b9 6767 3ebb dd1f 6fbc dd5c 453a
000001b0: 2ae2 1b3c 817e 1e3c 34c4 48bc 7a8a 0d3d
000001c0: d562 cbbb 0d76 983b 12d0 b2bb b9d2 863a
000001d0: a885 b43b 7002 083c 5b52 feba 5a6b da3c
000001e0: d977 83bb a965 b7bb c8a9 bfbc 373c 9b3b
000001f0: 4a84 3b3b ff0f 8c3c e3f4 55bb c1c1 d83c
00000200: 79d9 5cbc c8cf b4bb 5992 f8bc 5491 f4bb
00000210: 06ad da3c d774 323d c29e 29bd 4add 993d
00000220: 1b82 a5bb 9575 a8bb 954e 25bc c9fc 9a3b
00000230: 9d0d e23b 8976 883c 67f0 8ebc adff ae3c
00000240: e007 0fbc 7d15 fb3b ba05 97bc bebf 8dbb
00000250: fb1b 683c 43df ad3c 0575 d0bb b7db 593d
00000260: ee99 b03b d19f b83b 42d4 6c3c 2df9 dfbb
00000270: 7e16 5abc f610 93bc 1cf0 633c c201 12bd
00000280: 9713 9ebb 2896 8bbc 4190 1abc 7285 66b9
00000290: 5559 9a3c 1d43 583c f07c 2abc 9f98 ad3c
000002a0: 4133 553c 2879 3d3b 1489 ac3c b097 143c
000002b0: fbbf 9bbc ab83 ebbc 2a76 e43c f52a 8fbd
000002c0: 067a 61bc 9e7c 9e3a e609 83bc 415d 25bb
000002d0: ce43 4e3c 4758 043d 818d f5bc 253d 8f3d
000002e0: 4d5a 433c 8517 26bc f79a 623c 1901 63ba
000002f0: 978f 6cbc 15e2 81bc 66a5 843c f853 1cbd
00000300: e836 26bc 8d25 8e3b cc5e e0bb 26ce b0bb
00000310: c928 d83b 08da 903c 9c7c 24bc 7412 223d
00000320: 6f28 7abb 8ce8 26bc 2bd3 91bb 9aa9 403b
00000330: 8a2a 023c 92d6 3e3b aab1 fcb9 c783 de3b
00000340: ffc4 253c 685d b83b 0446 1b3c b904 853a
00000350: 3790 4ebc ca23 b5bc 1f88 c93c 9d31 01bd
00000360: 3a6a 88ba ad01 213c db6c 5fbc a9c9 e0ba
00000370: 0016 633c f6da d33c a565 2dbc 3de1 243d
00000380: f3b5 1dbb fd8a 7abb dd77 983a 19f0 d3bb
00000390: 2e2c 433a 719c 37bc fa29 1f3c e8a7 45bc
000003a0: d257 463c 9bcd 10bb 270f 313c 7452 bfbb
000003b0: c3c2 13bb 00b5 0dbc 25b2 673c 710e debc
000003c0: 28b0 dabb ab41 64bb 6e63 b4bc 8a56 10bc
000003d0: 58d6 bd3c 0d98 0e3d 4e3f 5bbc bc82 993d
000003e0: 9456 84bb 7638 e73b fee1 5fbc 163a eebb
000003f0: a14d 443c 810b c73c aa71 53bc 1d37 413d
0.012584812 -0.001274723 0.007608317 -0.01837711 0.0051518157 -0.0011003794 -0.0032487423 0.02618834
0.017574428 0.008394935 0.043136247 0.013750478 -0.024681307 -0.051476367 0.035488132 -0.0972104
-0.02024183 -0.008683142 -0.0321094 -0.0017545696 0.018145934 0.04195302 -0.029487722 0.07922509
0.007965749 0.00063153874 0.008310008 -0.0057989303 -0.0045909793 -0.012184387 0.0054748463 -0.012655809
0.013814033 0.008674278 0.03317293 -0.0018569015 -0.023453254 -0.039115954 0.027819533 -0.06849598
-0.00020244921 0.010649796 0.011383133 0.0044026505 -0.0134556275 -0.022492813 0.019148465 -0.03898982
-0.010677469 0.0010049744 -0.01884574 -0.0027145362 0.0048097195 0.022501625 -0.020695608 0.040587567
0.025739148 0.015662014 0.04648898 0.00870092 -0.028467393 -0.060998514 0.026331784 -0.09373763
-0.017999953 -0.0007515533 -0.030431129 -0.0042832955 0.020044094 0.0456912 -0.01696182 0.070958726
-0.0025924046 -0.0035622155 0.0016697457 0.0012647649 0.007002285 -0.0035706423 0.008539725 -0.014470937
-0.005158581 -0.0077589625 -0.025992213 0.0032067539 0.0155002475 0.03422114 -0.025514081 0.060544647
0.006559369 0.013335584 0.028960608 -0.0005484309 -0.013044948 -0.03639068 0.0249883 -0.061293248
-0.005488335 -0.0042942152 -0.018688802 0.0010648879 0.009297462 0.012524407 -0.0013256717 0.014951734
-0.00046168998 -0.0029053332 -0.014594999 0.00075287913 0.009514371 0.009673716 -0.01225381 0.03455589
-0.00620685 0.0046527446 -0.005456933 0.0010286189 0.005509097 0.008301362 -0.0019403206 0.026662517
-0.0040120897 -0.0055968356 -0.023396388 0.004737403 0.0028612786 0.017097471 -0.0032647185 0.026459577
-0.013479584 -0.0055179335 -0.030343222 -0.0074636135 0.026693832 0.04356846 -0.04141117 0.07512911
-0.00505091 -0.00514097 -0.010089536 0.0047298414 0.0068985955 0.016658084 -0.017448617 0.02136215
-0.008729905 0.0076624737 -0.018435348 -0.004325836 0.014166827 0.021224624 -0.006361606 0.053188052
0.0053894436 0.005634286 0.014454903 -0.006835124 -0.013311027 -0.017952424 0.013912227 -0.035646208
-0.0048241126 -0.017039374 -0.009433807 -0.00021984222 0.018841425 0.013199595 -0.010405764 0.02119094
0.013012708 0.0028911326 0.021061458 0.009069368 -0.019012442 -0.028749308 0.027888376 -0.06990615
-0.013762003 0.0012091582 -0.01599593 -0.0025232586 0.012589408 0.03231075 -0.0299747 0.06994084
0.011923385 -0.010137443 0.013830892 -0.00086595264 -0.014438531 -0.015854875 0.01619215 -0.038166016
-0.010144927 0.0043379725 -0.006847238 -0.0053956686 0.006596659 0.01768209 -0.010039475 0.03956838
-0.0038171073 -0.010187279 -0.004450222 0.0029397965 0.007944712 0.0029119593 -0.00048197556 0.0067906114
0.010117768 0.0056263693 0.009477142 0.0010148502 -0.012607626 -0.022111792 0.02460104 -0.031541456
-0.0010407635 0.00982706 -0.013636793 -0.0017149943 0.013860226 0.025861245 -0.010583316 0.040253866
-0.002406475 -0.0038229816 0.0011632402 -0.006467831 0.0007445243 -0.011206732 0.009714598 -0.012063958
0.012105899 -0.0022095207 0.010806835 -0.0058386866 -0.0022546507 -0.008649111 0.014141594 -0.027106496
-0.0066738315 -0.003482918 -0.022020068 -0.008809695 0.023173496 0.034812976 -0.013381792 0.07495639
-0.004038641 0.007056291 -0.013664721 -0.007270108 0.011981399 0.024297478 -0.012905518 0.0471717
