weight/epoch_2_base_model.model.vit.encoder.layer.9.attention.attention.value.lora_A.default.weight.npy (npy, 24704 bytes, 1 tensors)

array f4 [8, 768]
0	0xbc333b28	-0.010939397
1	0x3d31a4e1	0.04337013
2	0x3c92da59	0.017926382
3	0xbcd1e508	-0.025621906
4	0xbb739f59	-0.0037173836
5	0x3b7623df	0.0037558002
6	0xbb990943	-0.0046702935
7	0xbd08adcd	-0.033368874
8	0x3c15f760	0.009153217
9	0x3c33fa90	0.010985032
10	0x3be49144	0.006975325
11	0xbc4e279c	-0.012582686
12	0x3c3227f4	0.010873783
13	0x3c95e126	0.018295836
14	0x3c9eaeeb	0.019370517
15	0xbc1db210	-0.009624973
16	0x3bec4818	0.0072107427
17	0xbb1e1eac	-0.0024127169
18	0xbd13b649	-0.036062513
19	0xbd0e70fa	-0.03477571
20	0xbcd5686d	-0.02605077
21	0x3c807a40	0.015683293
22	0x3b8591e9	0.0040762317
23	0x3d048a05	0.03235819
24	0x3d3d655f	0.046239253
25	0xbcbd3cff	-0.023100374
26	0xbd147772	-0.036246724
27	0xbc1e42a9	-0.009659448
28	0x38474520	4.7509675e-05
29	0xbb938cb3	-0.0045028566
30	0xbc9f6d35	-0.019461254
31	0xbc1a633e	-0.009423075
32	0x3c0a034a	0.008423636
33	0xbc62eea4	-0.013850842
34	0xbc23595e	-0.009970037
35	0xbb77ccf3	-0.0037811368
36	0x3cb6181a	0.02222829
37	0xbd435bb9	-0.047694895
38	0x3d378e23	0.044813287
39	0x3b6d4ac6	0.0036207899
40	0xbd0e362c	-0.03471963
41	0x3c9b2fbd	0.018943662
42	0x3cdc870f	0.02691987
43	0x3a1a21ba	0.00058796594
44	0x3cc10443	0.023561602
45	0x3c286fd9	0.010280573
46	0x3d0cc654	0.034368828
47	0xbd0e5991	-0.034753386
48	0xba0e15e6	-0.0005420133
49	0x3c977db1	0.018492552
50	0xbb58766d	-0.0033029572
51	0xbc365391	-0.011128322
52	0x3b5ef07c	0.0034017852
53	0xbc1bd192	-0.009510415
54	0xbb014528	-0.0019725058
55	0xbb67c3c7	-0.0035364495
56	0x3c06ad23	0.00821999
57	0xbc3815ad	-0.011235637
58	0x3c4d2524	0.012521062
59	0x3ce752f3	0.028237795
60	0xbc5b0f44	-0.013370339
61	0x3d0a2e8e	0.033735804
62	0x3cb15617	0.021647496
63	0xbc92da0e	-0.017926242
64	0xbb244355	-0.0025064547
65	0x3c64bddd	0.013961283
66	0xbcf0f60f	-0.029414205
67	0xbd02182d	-0.031761337
68	0x3cac07a8	0.020999745
69	0xbc8959dd	-0.016766483
70	0xbbad44d7	-0.0052877474
71	0xbc251f51	-0.010078267
72	0xbb8d25c6	-0.0043074815
73	0x3cc6d525	0.024271557
74	0xbd310abb	-0.043223124
75	0xbd10e13e	-0.035371058
76	0x3d107079	0.035263512
77	0xbd20e9d1	-0.039285485
78	0xbcfdbf32	-0.030974958
79	0xbd428cfc	-0.047497734
80	0xbb818e09	-0.0039536995
81	0x3c01d6c9	0.007924744
82	0xbbd9f0c3	-0.0066510155
83	0x3cb48d08	0.022039905
84	0xbc14b8d9	-0.009077274
85	0xbab28f37	-0.0013623004
86	0x3c0a9bf4	0.008460034
87	0xbd03a433	-0.032139014
88	0x3b92c27a	0.00447875
89	0x3cea08fb	0.028568735
90	0xbcee188a	-0.029064436
91	0xbc442eab	-0.011974017
92	0x3cc1e9a7	0.023670984
93	0x3cff10d9	0.031135963
94	0xbcb7f16f	-0.022453992
95	0xbc5ce915	-0.013483305
96	0xbcf38d38	-0.029730424
97	0xbc039655	-0.008031447
98	0xbc8402ed	-0.016114676
99	0x3cef80cd	0.029236222
100	0xbd13c144	-0.036072984
101	0x3b2e2be1	0.0026576447
102	0xbc824bf0	-0.01590535
103	0x3c6e721e	0.014553575
104	0xbcd7115a	-0.026253391
105	0xbba2c7fb	-0.004967687
106	0x3cbf7c0a	0.023374576
107	0xbcf17b7e	-0.029477831
108	0xbd2381e3	-0.03991879
109	0x3c004100	0.007827997
110	0xbb58034d	-0.0032960952
111	0x3d35a154	0.044343308
112	0x3c700757	0.014650187
113	0xbadb287c	-0.0016720439
114	0xbd5ef45e	-0.054432265
115	0xbbfe42ea	-0.0077594416
116	0x3ceb11d1	0.028695019
117	0x3b62f320	0.0034629777
118	0xbcbeebae	-0.02330574
119	0x3cd6f327	0.026238991
120	0xbc26754e	-0.010159804
121	0xbcd5716f	-0.026055066
122	0x3c35d667	0.011098481
123	0xbb60b9dc	-0.0034290468
124	0x3ceb3be4	0.028715082
125	0x3d0ec263	0.03485335
126	0x3d33e406	0.043918632
127	0x3cee3b60	0.029081047
128	0x3c66951d	0.014073637
129	0xbc91575b	-0.01774185
130	0x3cf6368d	0.030055309
131	0x3cc27bf2	0.023740742
132	0x3cb403fe	0.02197456
133	0x3c7805b9	0.015138083
134	0xbcb31834	-0.021862127
135	0x3cce1e23	0.025160855
136	0xbca9b70d	-0.020717168
137	0xbd2313db	-0.039813858
138	0xbc0a8fe0	-0.008457154
139	0x3b06330e	0.0020477208
140	0x3d1c959f	0.038228627
141	0xbcf377ff	-0.029720305
142	0x3cf160d8	0.029465124
143	0xbd1a233c	-0.03763126
144	0xbcbe3fdb	-0.023223808
145	0xbcb0a6e2	-0.02156395
146	0xbcb16797	-0.02165584
147	0xbc80e082	-0.015732054
148	0x3cae0f26	0.021247458
149	0xbc80ba6c	-0.015713893
150	0xbd1b54c4	-0.037922636
151	0x3b16c3da	0.002300492
152	0xbcd749b6	-0.026280265
153	0x3c64f3e3	0.013974163
154	0x3bf6721f	0.0075209285
155	0xbce3ba0a	-0.027798671
156	0xb982a889	-0.000249211
157	0xba81c1b8	-0.0009899652
158	0x3c213f52	0.009841757
159	0x3c620f22	0.013797553
160	0x3c15073b	0.009095962
161	0xbcde436d	-0.02713176
162	0xbc1cf7ad	-0.009580535
163	0xbc206f14	-0.009792108
164	0x3d05946f	0.03261226
165	0xbd086df2	-0.033307977
166	0xbcd93e46	-0.026518952
167	0xbbe2cd3b	-0.006921438
168	0x3c90f230	0.017693609
169	0x3c280f4e	0.010257555
170	0xbcfb0edd	-0.030646736
171	0x3c345482	0.011006476
172	0xbc58864c	-0.013215613
173	0xbcc0d612	-0.023539577
174	0x3bb02a68	0.005376149
175	0x3c7c76f9	0.015409225
176	0x3b936319	0.0044978973
177	0xbd1bef84	-0.038070217
178	0x3bb1b54e	0.0054232245
179	0x3c3aab76	0.011393419
180	0x3c8c1bb6	0.017103057
181	0xbc9da86a	-0.019245345
182	0xbb97e641	-0.0046356027
183	0xbb7b9e8f	-0.0038394069
184	0x3c9cccdf	0.019140659
185	0x3c8a9d56	0.016920727
186	0xbd113a64	-0.035456076
187	0xbe8493fb	-0.2589415
188	0xbd151b57	-0.036403026
189	0xbba667b5	-0.005078281
190	0x3cb38dad	0.021918142
191	0xbc7f8a2e	-0.015596909
192	0x3c727233	0.014797735
193	0xb9bf3518	-0.00036469917
194	0xbd0663be	-0.032809965
195	0xbd47bdbd	-0.048764933
196	0x3cb53a44	0.02212251
197	0x3d16a4a1	0.036778096
198	0x3c22abde	0.009928672
199	0xbcd7a2a4	-0.02632267
200	0x3cf3a0ea	0.029739816
201	0xbcab5838	-0.02091609
202	0x3c728f19	0.014804625
203	0xbb388682	-0.0028156345
204	0xbcfeedc9	-0.031119244
205	0xbc84d10d	-0.016212964
206	0x3bbc6585	0.0057494068
207	0x3ce33c44	0.027738698
208	0xbb8bc824	-0.004265802
209	0x3cfebbc7	0.031095399
210	0x3c944f34	0.018104173
211	0x3b90ec53	0.0044227033
212	0xbd19578e	-0.037437014
213	0x3cd82b6b	0.02638789
214	0xbc87e0cd	-0.016586686
215	0x3d0929fd	0.03348731
216	0x3cd71618	0.026255652
217	0xbc9b00f4	-0.018921353
218	0xbc335010	-0.010944381
219	0x3cf02478	0.029314265
220	0xbcdac105	-0.026703367
221	0x3c84c46d	0.016206944
222	0xbb3ae741	-0.0028519186
223	0x3ca00eab	0.019538244
224	0xbbefc162	-0.007316754
225	0x3c03eed1	0.008052544
226	0xbc807eda	-0.015685488
227	0xbcdd8c53	-0.02704445
228	0x3cc43069	0.023948865
229	0xbc0fb3f7	-0.008770934
230	0xbccce98a	-0.025013704
231	0x3c75e637	0.015008501
232	0xbcf9cad4	-0.030492224
233	0x3bb96d16	0.005658756
234	0xbca5b6bc	-0.020228736
235	0xbb7ba8ca	-0.0038400167
236	0xba23d06f	-0.00062490156
237	0xbc1790f8	-0.009250872
238	0xbcf67fc1	-0.030090215
239	0xbcca1b1d	-0.024671132
240	0xbb9a0d57	-0.0047012973
241	0xbd0708ce	-0.03296738
242	0x3c894a35	0.016759017
243	0x3cf31558	0.029673263
244	0xbd18d73e	-0.037314646
245	0x3c0c55c9	0.008565375
246	0xbc59ed68	-0.013301231
247	0x3c7f7747	0.015592403
248	0x3c8e80bb	0.017395368
249	0x3c11a4fa	0.008889431
250	0xbc2fc099	-0.010727071
251	0x3bc06729	0.0058716726
252	0x3aa332c0	0.0012451038
253	0x3c88f91b	0.016720345
254	0xbc981dd3	-0.018568909
255	0xbb020b06	-0.0019842996
