weight/epoch_12_base_model.model.vit.encoder.layer.4.attention.attention.value.lora_B.default.weight.npy (npy, 24704 bytes, 1 tensors)

array f4 [768, 8]
0.01774983 -0.024006227 0.046556603 0.069818705 -0.0052089035 0.036076777 -0.06387122 0.05433778
-0.010554683 0.0014648634 -0.010043676 -0.018421683 0.004906419 -0.008852616 0.015746534 -0.013805215
-0.0041294596 -0.000262371 -0.008356143 -0.0132678235 -0.00016593754 -0.0086256955 0.008521135 -0.008930717
0.015055966 -0.01787471 0.047646005 0.07337837 -0.017778493 0.03232043 -0.05170763 0.04931574
-0.009349743 0.0072412444 -0.02166268 -0.034493566 0.0107534425 -0.017318714 0.034622744 -0.030198459
0.013045091 -0.003155736 0.0124385115 0.022973198 -0.009264093 0.015573734 -0.016445167 0.0073805167
0.010795759 -0.0138503695 0.044405803 0.06701802 -0.02505445 0.03635691 -0.024190344 0.032022025
3.8138347e-05 -0.0025862933 -0.020710407 -0.027823295 0.014653204 -0.0054860017 0.014394804 -0.01588596
-0.0057652416 0.009081886 -0.0036272886 -0.0035372071 0.001002732 -0.005506503 -0.0021141118 0.0031505404
0.0015965784 -0.012762914 0.016709656 0.01265222 0.004301354 0.012278742 -0.013675629 0.0035434938
-0.0058051106 0.00040445584 -0.014509185 -0.021728946 0.0055283257 -0.012155495 0.01437127 -0.01250501
-0.006196228 0.0007602324 0.00028884903 0.00044943747 -0.011706381 -0.0138520915 0.01888492 -0.008190737
-0.00044447795 -0.006182848 0.014567625 0.022795586 -0.01107006 0.003437819 -0.0028738359 0.011381293
0.012553212 -0.013760891 0.046585884 0.07130393 -0.018745322 0.030575493 -0.044886045 0.042580362
-0.005727002 0.0049520577 -0.05053403 -0.07127838 0.025234437 -0.030586062 0.04552525 -0.047471635
-0.0073620602 0.0066467375 -0.0034154975 -0.008468759 -0.0021695592 -0.0047484944 0.0030861208 -0.004734522
-0.0024925307 0.0033123784 -0.015515773 -0.020693127 0.0032843084 -0.011113075 0.014582151 -0.017241476
-0.0049816933 0.00020458412 -0.0042995373 -0.0073585818 0.00046120127 -0.003515873 0.018801719 -0.010826176
-0.0027309172 0.00523477 0.007212167 0.007668708 0.0021545184 0.003486923 -0.00025178038 -0.003749056
-0.0048364974 0.0012617921 -0.025966436 -0.052878328 0.024984593 -0.02242168 0.01686645 -0.024507951
-0.008607314 0.01571297 -0.053978223 -0.077903405 0.029701585 -0.033132017 0.039429918 -0.046642005
-0.00044118302 0.0024050865 -0.0012588416 -0.008529167 0.0009660558 -0.0007545308 -0.0025557533 0.0063629393
-0.011124668 0.0072942576 -0.00033411718 -0.005098761 0.0019119424 -0.0045351465 -0.0038546585 0.0039948435
-0.0035333605 0.0023648012 0.012651843 0.02886179 -0.021160366 0.011258833 0.0039731665 0.010142467
0.0063683293 -0.011886119 0.025336388 0.043323576 -0.0196002 0.015943218 -0.01622803 0.02109832
-0.0034765308 0.010677284 -0.024254762 -0.037252925 0.014119192 -0.020465473 0.015078886 -0.016685965
0.008937529 -0.0023114092 0.0025252716 0.008154672 -0.011618738 0.0015212675 -0.0005078886 0.0025757847
0.0073472164 0.0014425528 0.017719593 0.02548185 -0.0060932557 0.0119491685 -0.010590761 0.015041929
-0.0059138285 -0.0016083171 0.0022085768 0.0028982023 0.0055269734 0.0017417012 0.0118178185 -0.004571749
-0.0044396436 0.0008507767 0.009678869 0.0067911907 -0.00058699545 0.0023542403 -0.010582532 0.011539032
-0.002590496 0.0022815324 0.005707577 0.004816656 0.0010800925 -0.0059682294 -0.003996327 0.007651086
-0.0054924954 0.0038922909 -0.0026351563 -0.0013999235 -0.0074828677 0.001209687 0.0018433118 0.0018658256
00000000: 1768 913c b5a8 c4bc 23b2 3e3d 1cfd 8e3d
00000010: 73af aabb 3ec5 133d eace 82bd 4b91 5e3d
00000020: 8ded 2cbc a900 c03a 3b8e 24bc 12e9 96bc
00000030: 07c6 a03b 900a 11bc e0fe 803c 452f 62bc
00000040: 6b50 87bb d78e 89b9 34e8 08bc 4961 59bc
00000050: 85ff 2db9 ca52 0dbc 3b9c 0b3c 2452 12bc
00000060: 4cad 763c fc6d 92bc 7528 433d 6647 963d
00000070: 34a4 91bc 6d62 043d 61cb 53bd 4dff 493d
00000080: aa2f 19bc f647 ed3b ef75 b1bc 2049 0dbd
00000090: 352f 303c fadf 8dbc 94d0 0d3d c262 f7bc
000000a0: 14bb 553c 77d0 4ebb e6ca 4b3c 4a32 bc3c
000000b0: 6cc8 17bc fa28 7f3c 04b8 86bc 43d8 f13b
000000c0: b2e0 303c a9ec 62bc dce2 353d be40 893d
000000d0: fd3e cdbc fcea 143d d42a c6bc 8729 033d
000000e0: bdf6 1f38 cd7e 29bb dfa8 a9bc aeed e3bc
000000f0: fe13 703c ebc3 b3bb 2fd8 6b3c 4623 82bc
00000100: 5aea bcbb 31cc 143c ceb7 6dbb 7dd0 67bb
00000110: 1a6e 833a e56f b4bb e98c 0abb 4c79 4e3b
00000120: 4844 d13a 8b1b 51bc b0e2 883c 424b 4f3c
00000130: 5ff2 8c3b c72c 493c bf0f 60bc f639 683b
00000140: cc38 bebb 250d d439 efb7 6dbc e700 b2bc
00000150: f526 b53b d727 47bc 7a75 6b3c d0e1 4cbc
00000160: ba09 cbbb 554a 473a a970 9739 7aa2 eb39
00000170: 1fcc 3fbc e2f3 62bc 8cb4 9a3c 7132 06bc
00000180: d208 e9b9 7d99 cabb 0cad 6e3c cfbd ba3c
00000190: 325f 35bc 084d 613b f756 3cbb 9a78 3a3c
000001a0: fdab 4d3c 5c75 61bc d7d0 3e3d cb07 923d
000001b0: ca8f 99bc 7579 fa3c 6eda 37bd bf68 2e3d
000001c0: 93a9 bbbb df44 a23b c5fc 4ebd 66fa 91bd
000001d0: 73b8 ce3c 9f8f fabc af78 3a3d 9e71 42bd
000001e0: 703d f1bb e0cc d93b 8ad6 5fbb 8dc0 0abc
000001f0: 2a2f 0ebb 4299 9bbb 8440 4a3b 0d24 9bbb
00000200: ba59 23bb 7d14 593b de35 7ebc a284 a9bc
00000210: 8d3d 573b 9d13 36bc f9e9 6e3c ff3d 8dbc
00000220: 793d a3bb a285 5639 22e3 8cbb 4220 f1bb
00000230: 63cd f139 906a 66bb 1006 9a3c 4660 31bc
00000240: 30f9 32bb 6f88 ab3b 0b54 ec3b c949 fb3b
00000250: d232 0d3b dc84 643b 6401 84b9 b9b2 75bb
00000260: 7b7b 9ebb b862 a53a 90b7 d4bc f296 58bd
00000270: 7dac cc3c acad b7bc 822b 8a3c e6c4 c8bc
00000280: b105 0dbc 7db8 803c 4518 5dbd d28b 9fbd
00000290: bd50 f33c 70b5 07bd 4481 213d b00b 3fbd
000002a0: 954e e7b9 a89e 1d3b b7ff a4ba ebbd 0bbc
000002b0: e83e 7d3a b4cb 45ba 6d7e 27bb 3480 d03b
000002c0: 3d44 36bc ab04 ef3b 732c afb9 8213 a7bb
000002d0: 249a fa3a 919b 94bb 709e 7cbb 2de7 823b
000002e0: f48f 67bb c8fa 1a3b ad49 4f3c 906f ec3c
000002f0: 8158 adbc f876 383c 5631 823b 972c 263c
00000300: 6bad d03b ffbd 42bc 428e cf3c 1074 313d
00000310: 9990 a0bc 5a9b 823c a5f0 84bc 62d6 ac3c
00000320: 82d6 63bb c6ef 2e3c ecb1 c6bc 8696 18bd
00000330: 2f54 673c 35a7 a7bc 6f0d 773c 01b1 88bc
00000340: b76e 123c 037b 17bb 077f 253b 2c9b 053c
00000350: 855c 3ebc 4465 c73a d423 05ba 7fce 283b
00000360: ebc0 f03b 0a14 bd3a ae28 913c 50bf d03c
00000370: efa9 c7bb 72c6 433c df84 2dbc 6c72 763c
00000380: cac8 c1bb 2bce d2ba c5bd 103b c4ef 3d3b
00000390: 9d1b b53b cb49 e43a 869f 413c 9cce 95bb
000003a0: 6e7a 91bb a806 5f3a 1e94 1e3c a388 de3b
000003b0: 99e0 19ba 9949 1a3b 5b62 2dbc 350e 3d3c
000003c0: 50c5 29bb c385 153b a006 bb3b 0ad5 9d3b
000003d0: e491 8d3a 2391 c3bb 9ff3 82bb f6b5 fa3b
000003e0: 64fa b3bb ce15 7f3b 96b2 2cbb a37d b7ba
000003f0: d832 f5bb 5c8e 9e3a 489b f13a b88e f43a
