weight/epoch_11_base_model.model.vit.encoder.layer.7.attention.attention.query.lora_A.default.weight.npy (npy, 24704 bytes, 1 tensors)

array f4 [8, 768]
000000 74 bc 87 3c 93 16 97 bc b6 e6 bc 3c 6d a6 00 3d
       0.016569354 -0.018443381 0.02305923 0.031408716
000010 3f e3 83 bc c0 77 81 3c 7e 11 0b 3c d0 44 72 ba
       -0.01609957 0.015804172 0.008488057 -0.0009241821
000020 0c bc 65 bc 46 38 11 3d 6d 6e d8 bc 96 a7 ff bc
       -0.014021885 0.035454057 -0.026419843 -0.03120784
000030 fd 12 a9 3c 18 90 a3 bb 12 61 78 bc ca 5a 5b 3c
       0.020638937 -0.0049915425 -0.015159862 0.013388345
000040 1f 5a cf 3c 2f d5 cf 3c d1 ca cd 3c ff bd c0 bc
       0.025311528 0.025370209 0.025121124 -0.023528097
000050 fd d1 78 bc e0 64 b4 3c e5 0b c8 3c a5 e6 91 bc
       -0.015186784 0.022020757 0.024419734 -0.017810175
000060 11 58 69 3c b3 40 91 bc 84 b3 0f 3d ea c6 48 3c
       0.014242188 -0.017731046 0.03508331 0.012254456
000070 f0 73 d1 3c 14 c5 bc 3c 34 6a 80 bc 4f da 86 b8
       0.025567979 0.023043193 -0.015675642 -6.430281e-05
000080 c2 fa 6c 3c 70 f2 c7 3c 45 1a f3 3b d9 51 71 3b
       0.014464082 0.024407595 0.007418903 0.0036822467
000090 1c e0 48 3c e8 c2 0c bc 4e 73 c0 bc ef 18 1d bc
       0.012260463 -0.008591391 -0.023492482 -0.009588464
0000a0 be e9 ee 3c 41 65 ba 3c e7 46 c4 bb 8b 1d b9 3c
       0.029164191 0.02275336 -0.0059898975 0.022597095
0000b0 5b a1 f3 bc 33 cd f4 3c 84 7e 0c 3c 42 03 8b bc
       -0.029740026 0.029883003 0.008575086 -0.016969327
0000c0 e8 0c 0f 3c 05 7c f9 3c 79 5f 01 3d b5 d4 0f 3d
       0.008731104 0.030454645 0.03158519 0.035114963
0000d0 bf 0e bd bb 80 96 dc b7 dc 76 f0 3c c9 f2 95 bc
       -0.00576958 -2.6296126e-05 0.029353552 -0.018304246
0000e0 88 7a c2 3c 26 71 dc 3c 4a 60 0a bd 07 f7 ed bc
       0.023740068 0.026909422 -0.033783235 -0.029048456
0000f0 97 01 dd bb dd 01 12 3d 3a b0 d0 3c 2c 00 80 3c
       -0.0067445743 0.03564631 0.025474656 0.015625082
000100 cc ea 0a bd 34 2e 86 3a 17 8a 0a 3d f9 b2 6b bc
       -0.033915326 0.0010237158 0.0338231 -0.014385932
000110 6b ec b2 bc be 95 b7 bc c2 83 f9 bc 11 0c 5a 3c
       -0.021841248 -0.02241027 -0.030458335 0.013308541
000120 3a 90 fa 3b b1 2a 36 bc e9 0d ba 3b 5d a6 92 3b
       0.0076465877 -0.011118577 0.0056779278 0.0044753985
000130 6a 93 f2 bb 17 b2 92 bb 72 2e b9 bc 11 38 b6 b9
       -0.007402827 -0.0044767964 -0.022605155 -0.00034755518
000140 61 ae 01 3d 06 80 13 3d 14 7b f3 3c 3e b1 18 3b
       0.03166044 0.036010765 0.029721774 0.0023299004
000150 41 29 b0 3a 57 c7 6a bc d5 ae 3a bb 4f 8b c7 bb
       0.0013440029 -0.014329753 -0.0028485556 -0.006089605
000160 b7 33 fb 3c 68 a0 c7 3c 1a 6f 1c bb d5 34 10 bb
       0.030664308 0.02436848 -0.0023869933 -0.0022004147
000170 df d6 a4 bb e6 a0 8f 3c 17 05 6c bc 77 b1 02 bd
       -0.0050304974 0.017532777 -0.01440551 -0.031907525
000180 d7 c6 30 3c f9 69 f2 3b 0d 52 fd bb 9a 1f 16 3c
       0.010789595 0.007397887 -0.0077307285 0.009162808
000190 3b 99 0e 3c 1c ef ba 3c a2 8c cc bc 4d b8 a6 bc
       0.008703525 0.022819094 -0.024969403 -0.020351553
0001a0 ec 65 b1 bc 02 2e 94 bb f4 1b e5 3c 5a b7 e3 3c
       -0.021655045 -0.004522086 0.02796743 0.02779739
0001b0 01 ed a0 3c 74 1a 29 3c da 0c 94 3c 11 f5 81 3c
       0.019644262 0.010321248 0.018072534 0.015863927
0001c0 b3 da d5 3c da 43 91 bc 2a 89 ff bc 5e 69 92 bc
       0.02610526 -0.01773255 -0.031193335 -0.017872509
0001d0 1b d8 68 bc fd ab f7 3c c0 7d 05 3c 66 e7 aa 3c
       -0.01421168 0.030233378 0.008147657 0.020862292
0001e0 78 c2 08 bc ed ab 28 bc b0 52 0b 3c 12 20 df bc
       -0.008347146 -0.010294897 0.008503601 -0.027236972
0001f0 93 d4 33 bc ff 26 ff bc c3 33 e9 bc 4b 14 45 3c
       -0.010975975 -0.031146524 -0.028467065 0.012028764
000200 f5 d4 c6 ba 24 27 70 bc 60 1e 4b bc 0d 7f 45 3c
       -0.0015169667 -0.014657769 -0.012397379 0.012054217
000210 e2 b4 03 bd 70 92 a6 bc ea e4 be 3c b6 d1 08 bd
       -0.032154925 -0.020333499 0.023302514 -0.03340312
000220 b9 81 ab bc 82 33 f9 3a 9c a7 14 bc 4e 4f 99 3c
       -0.02093588 0.0019012543 -0.009073164 0.018714573
000230 1d cf 08 bd 84 8e 9a 3c c7 fb 11 bd 24 23 89 bc
       -0.033400644 0.018866785 -0.035640504 -0.01674039
000240 36 0e 12 bd c3 30 3a bc 9d 00 9c 3c 01 1e d4 bb
       -0.035658084 -0.011364165 0.019043261 -0.0064733033
000250 c7 17 ad bc c0 40 94 bc f4 ee 8c bc bb 57 0e bc
       -0.021129502 -0.018097281 -0.017203785 -0.008687909
000260 21 1a 0e 3d af bf 81 3b d6 97 56 3c a5 ab fb bc
       0.034692887 0.003959618 0.013097724 -0.030721495
000270 f0 f2 0a bc 85 b4 07 3d ed a9 17 3b 97 9b 61 bc
       -0.008480772 0.03313114 0.0023142055 -0.013770006
000280 ab 45 e4 bb d4 3f 6c bc 7f c8 0c bd 78 a4 c2 bc
       -0.006966313 -0.014419515 -0.034370895 -0.023760065
000290 8c 88 d6 3c 91 6b 7c bb 6d 6c 05 bc 8d be ba bc
       0.026188157 -0.0038516263 -0.0081435265 -0.02279594
0002a0 8a 05 85 bb 10 f2 0e bd 5d 2a e1 3b e1 f9 d6 bb
       -0.004059498 -0.034898818 0.006871505 -0.0065605496
0002b0 00 50 e4 bb 5d 60 23 bc 83 ec 1f bc de 97 d0 3b
       -0.0069675446 -0.009971705 -0.009760979 0.00636576
0002c0 a1 e8 00 bd 74 3f 3e 3c bc 52 ac bc da 1a 07 3d
       -0.031471852 0.011611808 -0.021035545 0.032984592
0002d0 c2 ba fd bc a8 33 10 bd d5 a6 8a bc a3 89 74 bc
       -0.030972842 -0.035205513 -0.016925255 -0.014925393
0002e0 1d 1b 75 3c 19 ac 10 3b 7c 4a 0b 3d ef db 99 bc
       0.014960078 0.0022075234 0.03400658 -0.01878163
0002f0 a0 c8 1d bc cf 42 ae 3c 99 38 08 bd 9d 37 f3 3c
       -0.009630352 0.021272091 -0.0332571 0.029689604
000300 04 29 5c 3b af 3d bb 3c aa e0 31 b9 e7 1e 9c ba
       0.0033593783 0.022856561 -0.0001696373 -0.0011911065
000310 49 22 b5 3b bb 27 ae bb b3 26 04 bd 16 9b f9 bc
       0.0055277687 -0.005314795 -0.03226347 -0.030469459
000320 aa 68 93 3c f2 b0 c3 bb 39 07 ac 3c 05 79 5d 3c
       0.017994244 -0.0059720213 0.020999538 0.013517623
000330 4f 3a 8c bc f2 d3 ce 3c 26 c4 0a bd 93 20 5f bc
       -0.017117647 0.025247548 -0.033878468 -0.013618606
000340 a0 4d 08 bd 67 10 4e 3c 13 d5 ab bc f4 20 cf bc
       -0.033277154 0.012577153 -0.020975625 -0.025284268
000350 b9 27 0a bc 57 0b f5 bc 04 22 a5 3c 81 4b 2d bb
       -0.008432322 -0.029912634 0.020157821 -0.002644271
000360 4f 68 84 bc 25 74 3b 3c 46 07 ca ba 4e b8 1a bc
       -0.01616302 0.011441265 -0.0015413545 -0.009443356
000370 65 48 86 bc 3b 71 7f 3b 01 62 dd 3c 91 08 fe bc
       -0.016391942 0.0038977403 0.027024271 -0.031009944
000380 ad ec 7b bb 56 23 c4 3c 3d 79 b7 3a c1 80 e3 39
       -0.003844063 0.02394263 0.0013997924 0.00043392743
000390 6a 34 5f 3c 46 6a 82 bc e0 f4 a0 3c 58 db cd 3c
       0.013623336 -0.015919816 0.019648015 0.025129005
0003a0 69 5c 0e 3d bc d9 f9 3c b6 cc 8e 3c 82 3f e0 bc
       0.034756098 0.030499332 0.017431598 -0.027374033
0003b0 5f e4 22 3c d5 33 2b bc 71 f2 f3 3b e8 88 b3 bc
       0.009942143 -0.010449369 0.0074446728 -0.021915868
0003c0 28 cd 01 bc 32 73 eb bc 55 0f 47 3b f2 3b fa 3c
       -0.007922448 -0.028741453 0.003037413 0.030546162
0003d0 b8 d5 a0 bb ca fd b7 bc d6 d3 dd bc 23 67 f5 3c
       -0.0049082898 -0.022459883 -0.02707855 0.029956406
0003e0 aa fc 8c 3c 7e 08 d5 3c 11 36 ed bc 85 94 16 3c
       0.017210323 0.026005026 -0.028956445 0.009190683
0003f0 b6 c5 87 3a a5 58 2e 3c cf a0 7c bc 2e 37 a6 3c
       0.0010358605 0.010641252 -0.015419199 0.020289984
