weight/epoch_3_base_model.model.vit.encoder.layer.3.attention.attention.query.lora_B.default.weight.npy (npy, 24704 bytes, 1 tensors)

array f4 [768, 8]
000000 ea 15 bc b7 6b 76 56 3a be 01 26 3a bc be a7 b9
       -2.2421551e-05 0.0008181098 0.0006332657 -0.0003199483
000010 ca f7 99 39 f8 43 20 b9 f4 ae c4 39 c1 b7 20 39
       0.0002936705 -0.0001528411 0.00037514383 0.00015327243
000020 b5 5e 2d 3a 5b 1e ff 39 02 dd 3c b9 11 84 06 39
       0.0006613539 0.00048660007 -0.00018011409 0.00012828434
000030 d0 03 79 b9 7c fd 41 39 f2 48 ed 38 f4 ba 80 3a
       -0.00023747911 0.00018500345 0.00011314628 0.0009821341
000040 5c c8 93 b9 13 7c 16 39 af 2d fc b9 c1 e9 a0 39
       -0.00028187304 0.00014351336 -0.00048099222 0.00030691738
000050 3b 19 9b 39 9b dc df 39 b3 cc 7e 3a 63 be 70 b8
       0.00029582702 0.00042698238 0.00097198336 -5.739777e-05
000060 5e 5f 57 3a d4 a6 6a ba 69 83 1e 39 73 f2 66 39
       0.000821581 -0.0008951251 0.00015117008 0.00022024829
000070 c7 27 24 b9 78 cd 8c 3a ec 61 d5 b8 c5 86 6f 3a
       -0.00015655077 0.0010742387 -0.00010174871 0.00091372087
000080 4b b2 57 3a 92 a4 05 39 82 0a 20 ba 78 a7 4a 39
       0.0008228167 0.00012745176 -0.00061050814 0.00019326608
000090 82 34 5f 3a 32 85 0e 3a 7f 53 ed 3a e3 3c 30 3a
       0.0008514599 0.0005436718 0.0018106549 0.000672294
0000a0 4f 0f d5 b9 7a d2 82 b9 28 87 9d 38 f3 b8 ad 38
       -0.00040637932 -0.0002495235 7.511518e-05 8.283732e-05
0000b0 9c 86 00 3a fe 6a 2a ba 36 d6 f4 b9 1c 16 69 ba
       0.0004902871 -0.00065009284 -0.00046698906 -0.0008891539
0000c0 df d1 cf 38 6f 31 f4 39 fa c7 01 b9 36 da 66 b9
       9.909621e-05 0.00046576138 -0.00012376896 -0.00022015799
0000d0 d1 fd 4c 3a 02 19 7a b9 2e 2c e1 b9 13 ba bf b9
       0.0007819804 -0.00023851174 -0.0004294826 -0.00036568995
0000e0 b8 b8 0d 3a 43 76 15 ba 6e 9c 8a ba 3b e0 30 3a
       0.00054062484 -0.00057015213 -0.0010575184 0.000674728
0000f0 3d 5d a9 3a d7 0a e4 3a e6 1f e0 39 1f 17 1d ba
       0.0012921464 0.001739825 0.00042748376 -0.000599252
000100 bb ed 6b b9 39 30 ad b9 4a bf 3c 39 22 f5 29 b9
       -0.00022499908 -0.0003303306 0.00018000338 -0.00016208415
000110 9d 1d 73 38 f1 60 31 b9 79 7f 20 b9 17 10 1a ba
       5.7963294e-05 -0.00016916149 -0.00015306276 -0.00058770314
000120 c7 0b 41 b9 79 b1 58 3a 5b 94 bf b9 8c ad e8 38
       -0.00018410302 0.00082661916 -0.00036540892 0.00011094948
000130 10 95 07 37 3e 06 72 b9 c7 9f 0b 3a 8a 24 70 3a
       8.081333e-06 -0.00023081244 0.0005326238 0.0009160718
000140 61 8d 1e b9 db 18 c8 39 fb 03 05 3a 85 02 8d b8
       -0.00015120722 0.0003816549 0.00050741405 -6.723873e-05
000150 a0 3f b9 b9 bd 45 23 ba 4e 57 cf b9 b8 dd ef b9
       -0.00035333354 -0.00062283484 -0.00039547164 -0.00045750826
000160 3a 65 25 39 1b 14 a8 b9 e1 aa 36 38 b1 73 4c b9
       0.00015773336 -0.00032058437 4.3551325e-05 -0.00019498054
000170 57 e8 b3 b9 21 0d c5 b9 20 8e ab b9 b2 bd bb b8
       -0.00034314647 -0.0003758455 -0.00032721553 -8.952188e-05
000180 fc 1b 5c ba 24 be 8d b8 44 82 98 39 b1 85 15 3a
       -0.0008396504 -6.7588204e-05 0.00029088755 0.00057038205
000190 64 f9 24 ba 88 c0 e8 b9 88 33 da 39 f8 8a aa b8
       -0.00062932656 -0.00044393935 0.00041618594 -8.132117e-05
0001a0 97 bd 4e b8 0d 4a 6d ba 47 71 41 ba f8 a8 11 ba
       -4.9290797e-05 -0.0009051867 -0.00073792454 -0.00055564893
0001b0 fc 57 37 39 6b b3 7e 39 9a 51 ed b9 7b f8 de 38
       0.00017485017 0.00024290166 -0.0004526496 0.00010632068
0001c0 3b d6 eb 39 ec be f5 b9 53 35 e4 ba 0e ec d6 39
       0.00044982307 -0.0004687229 -0.0017410911 0.00040993135
0001d0 7d a7 aa 3a 2d e6 c4 3a 6d 74 59 39 4b 42 06 bb
       0.0013019886 0.0015022211 0.00020738105 -0.002048629
0001e0 75 4c 7b 3a c1 1d 88 b9 18 89 39 3a e7 9a 48 ba
       0.0009586283 -0.0002596211 0.00070776185 -0.0007652477
0001f0 f7 27 88 ba cc 0c 27 ba 9c ad 8a b9 eb 5e c1 39
       -0.0010387887 -0.00063724513 -0.0002645076 0.00036882548
000200 cc d8 8a 37 24 0d 1e 3a cf 83 f7 38 f9 cc ac 37
       1.6551836e-05 0.000602918 0.00011802429 2.0599446e-05
000210 a8 5a 4a b9 95 3e 2c 3a fd f9 e7 39 dd 0d d1 39
       -0.00019297993 0.0006570605 0.0004424601 0.00039873915
000220 a8 07 9f b7 59 7b 75 b8 72 59 a8 39 d5 4b b6 37
       -1.8957842e-05 -5.852743e-05 0.000321101 2.1731403e-05
000230 4e b6 a6 b6 aa 8f 79 b9 04 bc 96 b9 19 ab 74 ba
       -4.9684086e-06 -0.0002380001 -0.00028750312 -0.0009333357
000240 da 1b 94 b9 a4 33 8a b9 71 4a 3c 3a e3 fc 3c ba
       -0.0002824951 -0.00026359886 0.00071827235 -0.0007209314
000250 00 37 1f 39 4e 31 86 ba 4b 0b a4 ba 43 a4 ad b9
       0.0001518391 -0.0010238083 -0.0012515573 -0.00033119516
000260 64 ca 60 3a d4 43 18 ba 62 7c f2 ba 45 30 d2 39
       0.00085750804 -0.0005808447 -0.0018500204 0.00040090285
000270 3d a8 9b 3a ef 2a f8 3a e2 38 40 3a b0 44 30 3a
       0.00118757 0.0018933694 0.0007332695 0.00067241024
000280 c4 08 f2 b8 b3 22 7d ba d2 99 84 ba 1b 3e 4d b9
       -0.00011541092 -0.00096563547 -0.0010116643 -0.0001957346
000290 da 1e 04 39 6e c2 01 3a 52 47 1f 3a 8d a4 8a 39
       0.00012599994 0.0004949932 0.0006075996 0.0002644401
0002a0 1a 00 59 3a d8 de c9 b8 87 c2 68 ba cc 2d 2a 39
       0.0008277908 -9.625935e-05 -0.00088790845 0.00016229524
0002b0 33 81 22 3a 11 d2 63 3a 94 2e 0b 3a b0 41 1b ba
       0.0006199062 0.0008690665 0.000530937 -0.0005922569
0002c0 b8 7c 6c 3a 89 97 b1 39 f5 1e b8 b9 35 7e c2 39
       0.000902127 0.00033872973 -0.0003511828 0.00037096595
0002d0 2d 01 08 3a 2c 97 bb b8 b3 ad 57 3a ca 4f 50 ba
       0.00051881635 -8.945013e-05 0.00082274823 -0.000794646
0002e0 ce 2a 90 39 5f cd e8 39 c2 68 da b9 b3 d1 29 3a
       0.00027497712 0.00044403502 -0.0004165825 0.0006478086
0002f0 bb 5a 1d 3a 8f 02 33 b9 9f c4 d3 39 eb e1 a3 39
       0.00060025946 -0.00017071723 0.0004039155 0.00031258105
000300 8a d7 af b9 89 b5 08 39 57 25 0b 3a 90 40 8b b9
       -0.0003353919 0.00013037598 0.0005307993 -0.0002656025
000310 41 9b 1c b9 00 f6 03 b9 ae 76 13 b9 48 29 84 b6
       -0.00014935156 -0.00012584776 -0.00014063224 -3.9387123e-06
000320 6b c1 4d ba aa 8c 09 39 00 54 36 3a 48 ed 0c ba
       -0.0007848951 0.0001311774 0.0006955266 -0.0005375934
000330 72 35 5a 39 39 28 1a ba 35 29 a2 ba 00 8a a0 ba
       0.0002081001 -0.00058806274 -0.00123719 -0.0012248158
000340 70 ab 1a ba 71 7c 44 b9 14 92 81 38 d4 3b fb b9
       -0.000590018 -0.00018738375 6.1784085e-05 -0.00047919026
000350 2c 77 ab b7 dd 2a e3 38 68 8c 87 b8 9b e0 a7 ba
       -2.0440282e-05 0.000108321874 -6.463454e-05 -0.0012808027
000360 62 db 92 ba c8 57 93 b9 d3 b5 38 3a 70 97 11 ba
       -0.0011204297 -0.00028103427 0.0007046137 -0.0005553877
000370 08 19 76 b9 05 59 01 b9 12 ee 88 ba d6 f1 06 3a
       -0.00023469713 -0.00012335561 -0.0010446927 0.00051477307
000380 cf 31 be b9 89 dc 96 b8 39 0a 1c 3a 86 7d bf 39
       -0.00036276734 -7.193635e-05 0.0005952451 0.0003652388
000390 9f ea d5 b9 55 e7 00 ba d3 18 e3 b9 32 f6 8d b9
       -0.00040801332 -0.00049172837 -0.0004331531 -0.00027077046
0003a0 fe 67 30 ba 53 33 b8 b9 e2 c1 99 3a a9 72 c8 b7
       -0.0006729363 -0.00035133454 0.0011730755 -2.389525e-05
0003b0 fc 23 d8 b9 62 7b be ba 26 c9 60 ba 1f 96 8d ba
       -0.0004122554 -0.001453262 -0.00085748953 -0.0010802186
0003c0 84 0e 4d ba 21 08 3d ba e6 bf fc 38 60 c3 b2 39
       -0.00078222924 -0.0007210989 0.0001205204 0.0003409637
0003d0 4a ec 67 ba 65 eb 03 3a ba 13 06 b9 df 69 82 ba
       -0.00088471605 0.000503233 -0.00012786585 -0.0009949765
0003e0 9e e1 ef ba 1d 2b ed b8 6e e2 fd 39 4f 0f 6d ba
       -0.0018301492 -0.00011309071 0.00048424624 -0.00090431137
0003f0 3c 68 7c ba bd 09 05 ba 03 46 3a ba ab 35 c2 b8
       -0.0009628569 -0.00050749985 -0.00071057695 -9.260637e-05
