weight/epoch_12_base_model.model.vit.encoder.layer.9.attention.attention.query.lora_B.default.weight.npy (npy, 24704 bytes, 1 tensors)

array f4 [768, 8]
000000 8b c9 1d ba 75 6a f6 b9 f1 47 2b 3a 0e 78 06 ba
       -0.0006019107 -0.00047000093 0.00065338524 -0.0005129584
000010 ca 91 18 ba 36 08 a0 b7 74 ff fd 39 72 c2 9c 38
       -0.0005820064 -1.907731e-05 0.00048446248 7.474878e-05
000020 c4 d0 15 b9 8f d2 6d ba fb 6f ca 3a b7 0f 3f ba
       -0.00014287519 -0.0009072208 0.001544475 -0.00072884135
000030 aa 73 3e ba b1 d8 6f b9 4a 31 b2 b9 92 9d ef b9
       -0.000726516 -0.0002287354 -0.0003398753 -0.0004570303
000040 2d 04 60 b8 ad 87 2f bb dd 0c b9 3b 3d 8b c3 ba
       -5.340965e-05 -0.002678375 0.0056472854 -0.0014918816
000050 c9 77 f8 ba 46 4a 35 bb 76 e8 25 ba 1a 67 b5 ba
       -0.0018956597 -0.0027662679 -0.000632889 -0.0013839931
000060 5a 96 46 3a b2 23 5f ba 6f 5a 78 b9 0d a1 08 bb
       0.0007575505 -0.0008512094 -0.00023684812 -0.0020847947
000070 01 03 a9 ba d2 4c 44 ba a6 5c 01 ba 79 ad 19 3a
       -0.0012894572 -0.0007488254 -0.0004934765 0.0005862336
000080 5f 3a 22 bb bd 89 e0 3a 7a c4 06 bc d7 5a ef 39
       -0.002475403 0.0017130893 -0.008225555 0.00045653313
000090 1d 3f 9d 3b 1e 05 8a 3b d3 4c 68 3b c2 a6 80 3a
       0.0047987835 0.004212036 0.0035446181 0.0009815323
0000a0 2d ec 4d ba 4e 81 1c 3b 75 e7 a8 bb 11 58 f0 b9
       -0.00078553223 0.0023880783 -0.005154545 -0.00045841982
0000b0 5c 24 30 3b 8c 20 39 3b 9c 77 52 3b 18 86 bb 3a
       0.002687714 0.002824816 0.003211475 0.0014306931
0000c0 a2 29 c3 b9 b0 5b b7 ba 36 6f 21 3b a6 a8 b4 39
       -0.00037224317 -0.0013989117 0.0024632937 0.00034457928
0000d0 5d e7 88 ba 7b ba 60 ba 84 b6 3f ba 8a 69 be 38
       -0.0010444928 -0.00085727096 -0.0007313269 9.079564e-05
0000e0 bf 6d 48 b8 08 97 f9 3a f6 91 0b bb fe 2c 8a 3a
       -4.7785925e-05 0.0019042203 -0.0021296716 0.0010541973
0000f0 bf 2b 80 3a f8 ae ef 3a d7 c8 af 39 02 e9 2f 39
       0.0009778662 0.0018286398 0.00033528238 0.00016776103
000100 44 00 cf 39 50 f8 13 bb 1a 12 65 3b aa 45 ab ba
       0.00039482315 -0.0022578426 0.0034953416 -0.0013067026
000110 3a 43 d1 ba 27 54 30 bb f0 af 3f ba cc bf 30 ba
       -0.001596547 -0.0026905627 -0.00073122885 -0.0006742447
000120 3c d3 cb 3a a5 d0 15 3b f2 04 7e bb f0 5e 75 3a
       0.0015550624 0.0022859958 -0.0038760272 0.0009360155
000130 dd 6a 82 3a 2f 19 01 3b 4f 92 9c 3a 3b 09 28 3a
       0.0009950061 0.0019698848 0.0011945459 0.0006410067
000140 ff f9 87 3a da c0 1f 3b 14 3a 3c bb 28 f6 0d 3b
       0.0010374187 0.0024376423 -0.002872114 0.0021661613
000150 53 45 33 3a 56 25 a7 3a ae f8 35 b9 07 21 6f 3a
       0.0006838638 0.0012752216 -0.00017354146 0.0009122048
000160 6d 0f 5a ba 5b cb 57 b8 ec 33 34 b9 9b 1d 0a 3a
       -0.00083183387 -5.1449384e-05 -0.0001718548 0.0005268694
000170 96 4c 5d 3a c2 b4 5a 3a 81 be 8b 38 d9 d7 0b 3a
       0.0008441893 0.0008342975 6.6635206e-05 0.0005334593
000180 56 fc 90 ba b1 e7 8e ba 00 47 3b 3a 22 03 c8 b9
       -0.001106153 -0.001090279 0.0007144064 -0.00038149307
000190 17 1e 83 b9 ed cd 48 3a 42 4c d1 ba be f1 f0 39
       -0.00025008686 0.000766008 -0.0015968161 0.0004595648
0001a0 d7 35 08 3b 7c 11 a3 3a 16 99 85 ba 19 d7 1f 3a
       0.0020784044 0.0012441124 -0.0010192718 0.00060974207
0001b0 50 ae 2e ba 25 04 35 3a 58 af af ba b8 f6 a9 3a
       -0.0006663548 0.00069052196 -0.0013403697 0.0012967205
0001c0 16 10 3f ba 91 49 ab 3a f9 b2 03 bb 9c d5 84 39
       -0.0007288469 0.0013068189 -0.002009569 0.00025336153
0001d0 9d e4 02 3a 94 7a 61 39 bd e7 ed 3a 82 57 35 39
       0.00049931725 0.00021503336 0.0018150728 0.00017294104
0001e0 13 18 9f 3a 2f 88 69 ba 93 33 2d 3b 43 37 23 39
       0.0012137912 -0.00089085376 0.0026428446 0.00015565478
0001f0 98 5f 1a ba a9 d3 ef ba 3b 23 46 3a 94 df 27 b9
       -0.00058888784 -0.0018297333 0.00075583503 -0.0001600965
000200 cd 11 52 b9 df e8 2a b9 77 35 60 ba ae c8 5a ba
       -0.00020033792 -0.00016299215 -0.0008552889 -0.00083459436
000210 94 d7 d6 b9 87 e3 99 3a fc 48 16 3a 3c d1 24 3a
       -0.0004097788 0.0011740782 0.00057329214 0.0006287282
000220 dc 60 83 ba 62 42 a3 ba 25 ad 57 3b 79 1f c2 ba
       -0.0010023373 -0.0012455697 0.0032909599 -0.0014810405
000230 51 e6 68 b9 f9 2d 49 ba 17 4a d0 39 65 79 76 ba
       -0.00022211044 -0.0007674392 0.00039728053 -0.00094022445
000240 3a 26 65 ba 5f 85 b7 3a 36 01 ca ba bb 61 c9 3a
       -0.0008741353 0.001400154 -0.0015411738 0.0015364209
000250 04 ec af 3a 1a ea 08 3b d6 bf 82 3a 26 a9 46 39
       0.0013421779 0.0020891489 0.0009975384 0.00018945764
000260 5e 16 19 bb ca 7e c9 ba 98 c7 2a 3b 1f 98 e2 b8
       -0.002335928 -0.0015372869 0.0026058909 -0.000108048545
000270 c3 7e e0 ba 4c bd b4 ba d6 75 7e ba 38 ff 4b b9
       -0.0017127622 -0.0013789325 -0.000970689 -0.00019454665
000280 29 18 94 3b 8d d2 97 bb d1 62 52 3c 2e af d9 ba
       0.0045194817 -0.004633254 0.0128409425 -0.0016607994
000290 68 86 ec bb 8f 6c dc bb 9a bf 81 bb 66 4f a4 ba
       -0.007218171 -0.0067268084 -0.0039596083 -0.001253587
0002a0 d3 8c 18 ba b3 78 6f 3b 5c ee f1 bb f0 9d 8e 3a
       -0.0005819324 0.0036540448 -0.007383151 0.0010880809
0002b0 a8 07 90 3b 5e 1e 86 3b 21 8b cb 3a 71 58 b2 39
       0.004395444 0.0040929755 0.0015529135 0.000340167
0002c0 bb be d1 ba 46 2a 92 3a 14 99 7c ba 71 25 ba 3a
       -0.0016002277 0.0011151514 -0.00096358475 0.0014201832
0002d0 39 e9 c0 3a 60 20 f5 3a 8c 9c 7b 3a 2e 61 e2 b8
       0.0014717943 0.0018701665 0.00095982174 -0.00010794621
0002e0 81 54 88 3b 91 fc f1 ba 90 ce ae 3b 92 2a 34 bb
       0.0041604643 -0.0018462111 0.0053346828 -0.0027491194
0002f0 fa a2 64 bb 1c 93 85 bb df f5 1a bb 7b 50 16 ba
       -0.003488718 -0.0040763747 -0.0023645086 -0.00057340384
000300 f1 39 cc 39 34 4e 25 b8 a8 9b 5f 3a 35 68 48 ba
       0.00038953082 -3.9411898e-05 0.00085299695 -0.00076449226
000310 d3 09 b4 b9 f5 1e f6 b9 d7 1c 4d ba a4 2f 61 ba
       -0.00034339595 -0.0004694384 -0.0007824427 -0.0008590168
000320 81 ef 11 bb 7a c7 33 3b e7 25 b2 bb d7 42 a9 3a
       -0.0022268 0.002743213 -0.005436647 0.0012913597
000330 72 9d 61 3b 1a 64 8d 3b 89 58 73 3b b8 db d4 3a
       0.003442612 0.0043149116 0.0037131628 0.0016239798
000340 6f 7d 2b 3a 76 dd 0b 3a 45 c4 23 3a 18 04 4b ba
       0.00065418234 0.00053354295 0.0006247203 -0.00077444455
000350 6f 9b 71 ba 07 34 9d b6 20 14 0c ba b4 83 a0 b9
       -0.0009216582 -4.6850214e-06 -0.0005343575 -0.00030615705
000360 82 8a fd b9 22 09 6b ba 9b a6 dd 3a d7 5e 89 ba
       -0.00048359117 -0.00089658995 0.0016910614 -0.0010480535
000370 41 36 d5 ba 4d f5 06 bb a3 54 3b 39 6d 70 87 39
       -0.0016266779 -0.0020592988 0.0001786524 0.0002583297
000380 76 0a 07 3a ac f8 9c ba 46 56 8f 3b 05 97 62 39
       0.00051514 -0.0011975965 0.0043742983 0.00021609299
000390 3f 7c d4 ba cc e1 26 bb 34 28 c3 ba 4e e3 00 ba
       -0.0016211345 -0.0025464175 -0.0014889301 -0.00049166835
0003a0 57 ec 1d bb 37 db ab 3b c3 e9 17 bc fe 32 2a 39
       -0.0024097168 0.0052446383 -0.009272042 0.0001623146
0003b0 9f 0f a4 3b c2 b7 a7 3b e0 03 22 3b 77 30 cb b9
       0.005006745 0.005118341 0.0024721548 -0.00038755286
0003c0 30 a0 18 3a 02 09 5e 3a 60 36 d9 b8 00 99 54 33
       0.00058222096 0.000846997 -0.000103574945 4.949925e-08
0003d0 51 ac bb 3a ba 51 ac 3a dd ed d5 ba fd 87 e8 ba
       0.0014318322 0.0013146915 -0.0016321499 -0.0017740723
0003e0 66 1d ab 3a b3 a6 8f ba 24 2e 61 3b 8e c1 4b 3a
       0.0013055026 -0.0010959714 0.0034359777 0.00077726773
0003f0 a4 81 31 ba 82 af 83 ba b8 8e c1 ba 91 9f 1e b9
       -0.0006771332 -0.0010046812 -0.0014767265 -0.00015127497
