weight/epoch_2_base_model.model.vit.encoder.layer.2.attention.attention.value.lora_B.default.weight.npy (npy, 24704 bytes, 1 tensors)

array f4 [768, 8]
0	0xbb5d34fa	-0.00337535
1	0xbb6b0071	-0.0035858417
2	0x3bba2aec	0.005681386
3	0x3c21de4e	0.009879662
4	0xbb88b580	-0.004172027
5	0x3b988268	0.0046542175
6	0x3c08fde9	0.008361318
7	0x3b96684a	0.004590069
8	0x3c3a305c	0.011364069
9	0xbc8797cd	-0.016551876
10	0x3bc26b19	0.005933177
11	0x3c87a45f	0.01655787
12	0xbc2bd70a	-0.010488281
13	0x3c29c53c	0.010361966
14	0x3c9ff109	0.019524114
15	0x3c922934	0.017841913
16	0x3bf80d15	0.007569919
17	0xbc049514	-0.008092184
18	0x3b6332d5	0.003466775
19	0x3c248420	0.010041267
20	0xbba75a0b	-0.0051071695
21	0x3c36d9a4	0.011160288
22	0x3c227301	0.009915114
23	0x3c6d0d52	0.014468508
24	0x3c5350f2	0.012897717
25	0xbcf0e328	-0.029405192
26	0x3c6093d2	0.013707118
27	0x3cfc57d2	0.030803595
28	0xbc9eab65	-0.019368837
29	0x3c711acf	0.014715864
30	0x3d0b2f41	0.03398061
31	0x3d0651d1	0.03279287
32	0xbbcca2fe	-0.006245016
33	0xbb34ff03	-0.002761782
34	0xbaf0e3b8	-0.0018378412
35	0x3bb3e240	0.0054896176
36	0xbb6ef6c0	-0.0036462992
37	0xbbff1565	-0.007784533
38	0x3aee915a	0.0018201277
39	0xbbd2389f	-0.006415441
40	0x3b8c60c0	0.0042839944
41	0xbbaef1d0	-0.005338885
42	0x3b151def	0.0022753438
43	0x3b81974f	0.003954805
44	0xbb58a588	-0.0033057649
45	0xba829010	-0.0009961147
46	0x3bb3b4bd	0.005484192
47	0x3ba47f18	0.0050200336
48	0xbc884c1f	-0.01663786
49	0x3cb5093c	0.02209913
50	0xbc375158	-0.011188827
51	0xbcae7e5c	-0.021300487
52	0x3c684881	0.0141774425
53	0xbc6d78c1	-0.014494122
54	0xbcbab874	-0.022793032
55	0xbcfbb06f	-0.030723779
56	0xba9eebbe	-0.00121247
57	0xbad24075	-0.0016040938
58	0xba13ce25	-0.0005638323
59	0xbb1f9705	-0.002435149
60	0xbb341b85	-0.0027482223
61	0xbb300f54	-0.0026864605
62	0x3a9b57f9	0.001185178
63	0xbb0a5df9	-0.002111314
64	0xbc578d38	-0.013156228
65	0x3cb33458	0.021875545
66	0xbbbfcd43	-0.0058533265
67	0xbc9233e7	-0.017847015
68	0x3ca15b55	0.01969687
69	0xbc3ec6d2	-0.011644082
70	0xbcd2bdaa	-0.025725204
71	0xbcebc541	-0.028780581
72	0x3cc86b96	0.024465363
73	0xbd0cbc9c	-0.03435956
74	0x3c8f3b68	0.017484382
75	0x3d1390c9	0.03602675
76	0xbc9cd5cb	-0.019144913
77	0x3cae5881	0.021282436
78	0x3d14a897	0.036293592
79	0x3d3a0f97	0.045425024
80	0x3c740b73	0.014895308
81	0xbc6f22e0	-0.014595717
82	0x3c14f260	0.00909099
83	0x3c8e8d3f	0.017401336
84	0xbc1579e2	-0.009123297
85	0x3c869577	0.016428692
86	0x3c7fc615	0.015611191
87	0x3cd5e74b	0.026111266
88	0xbbdfaebf	-0.0068262513
89	0xbaaa574b	-0.0012995986
90	0x390ba1b3	0.0001331631
91	0xbbd386b2	-0.006455266
92	0xbb6a443b	-0.0035746235
93	0xbbc00cea	-0.0058609145
94	0x3bd3df7d	0.006465851
95	0xba2e3c7a	-0.0006646585
96	0x3c085fb7	0.008323601
97	0xbc880896	-0.016605657
98	0x3bd1768b	0.0063923053
99	0x3c592466	0.013253307
100	0xbc38639e	-0.011254219
101	0x3b38fae2	0.002822571
102	0x3c79f292	0.015255587
103	0x3c728dff	0.014804362
104	0x3b0affee	0.0021209675
105	0xbbf25e1f	-0.007396474
106	0x3b833ec3	0.0040052845
107	0x3c037e7f	0.0080257645
108	0xbbe32f67	-0.006933141
109	0xb9ddd595	-0.00042311536
110	0x3c3a5f20	0.011375219
111	0x3bbe118f	0.005800433
112	0x3bf6a72d	0.007527253
113	0xbc65622c	-0.014000457
114	0x3ba996f2	0.005175465
115	0x3c7f9f63	0.015601966
116	0xbc46dc5f	-0.0121375015
117	0x3bea6f0b	0.0071543506
118	0x3c7371df	0.014858692
119	0x3c80e084	0.015732057
120	0x3bfaad68	0.007650066
121	0xbca1fa03	-0.019772535
122	0x3c37e2f1	0.011223541
123	0x3c9aa9d8	0.018879816
124	0xbc63746b	-0.013882737
125	0x3bff8168	0.007797409
126	0x3cb4e2be	0.022080775
127	0x3c989990	0.018627912
128	0xbad81a38	-0.0016487306
129	0xbc0ad17b	-0.008472796
130	0xbb0215e6	-0.0019849478
131	0x3c0442f0	0.0080726
132	0xbc41a203	-0.011818412
133	0xbabd6c0f	-0.001445176
134	0x3c41f870	0.011839017
135	0x3b871bbd	0.0041231797
136	0x3c9b22c1	0.01893747
137	0xbcf5a448	-0.029985562
138	0x3c7f8fb6	0.015598228
139	0x3d027127	0.03184619
140	0xbca9b110	-0.020714313
141	0x3c9dbde7	0.019255592
142	0x3d0b06e5	0.033942122
143	0x3d26e753	0.04074795
144	0xbc5d10b5	-0.013492753
145	0x3cac844c	0.021059178
146	0xbc0ed719	-0.008718275
147	0xbcb9da8d	-0.022687221
148	0x3c54efa5	0.012996589
149	0xbc4d56dc	-0.012532916
150	0xbcbee2ff	-0.0233016
151	0xbcdf2043	-0.027237063
152	0x3c639e40	0.01389271
153	0xbd04abd5	-0.032390434
154	0x3c49ea60	0.012323946
155	0x3d024ca4	0.03181137
156	0xbc8ba0a1	-0.017044367
157	0x3c1bc820	0.009508163
158	0x3d094dc9	0.033521447
159	0x3ceba50a	0.02876522
160	0xbb939bd4	-0.00450466
161	0x3bd0e9d9	0.006375533
162	0xbb8c4488	-0.0042806305
163	0xbc0dcf74	-0.008655418
164	0x3ba205df	0.0049445475
165	0xbbbd394c	-0.0057746526
166	0xbc243397	-0.010022066
167	0xbc50e60e	-0.012750162
168	0x3c980e73	0.018561577
169	0xbc683340	-0.014172375
170	0x3bff150e	0.0077844923
171	0x3c7ca0c2	0.015419187
172	0xbc5796c6	-0.013158506
173	0x3c8cfb4d	0.017209673
174	0x3c8cfabc	0.017209403
175	0x3cb543d0	0.022127062
176	0xbc0f2760	-0.008737415
177	0x3bb96288	0.005657498
178	0xbaa22a6b	-0.0012372261
179	0xbba94a84	-0.0051663537
180	0x3bb48940	0.0055095255
181	0xbc0e4404	-0.008683208
182	0xbc258d78	-0.01010453
183	0xbc55e648	-0.013055392
184	0x3c698bfc	0.014254566
185	0xbcc01be6	-0.023450803
186	0x3c32e303	0.010918382
187	0x3cdb6c44	0.026785024
188	0xbc84265b	-0.01613157
189	0x3c8ea03f	0.017410396
190	0x3cdfd362	0.027322475
191	0x3d005124	0.03132738
192	0xbaf08234	-0.001834935
193	0xbb88ce70	-0.004175
194	0x3ab41f58	0.0013742251
195	0x3bc187f8	0.0059061013
196	0xbbddb155	-0.0067655244
197	0x3b0d97ac	0.0021605296
198	0x3c111b7a	0.008856649
199	0x3bc715c7	0.006075594
200	0x3b9a2c7f	0.0047050114
201	0xbc775b09	-0.015097388
202	0x3bdfb146	0.0068265526
203	0x3c6796c3	0.0141350655
204	0xbc7f4de9	-0.01558254
205	0x3ba50206	0.0050356416
206	0x3cab7aac	0.020932518
207	0x3c80b241	0.015709998
208	0x3bd4e9ec	0.006497612
209	0xba2de687	-0.00066337775
210	0x39181eee	0.00014507372
211	0x3aa58baf	0.001263013
212	0xba277cdd	-0.00063891505
213	0x3afe6248	0.0019407952
214	0x3a9d6d9f	0.0012010819
215	0x3b68dab8	0.0035530757
216	0xbc928be7	-0.017888976
217	0x3c73bbc8	0.0148763135
218	0xbbc35f1e	-0.0059622666
219	0xbc6560bc	-0.014000114
220	0x3c694eff	0.014240026
221	0xbc87383b	-0.016506305
222	0xbc991d2f	-0.018690674
223	0xbccfeab1	-0.025380464
224	0xbc2a2d79	-0.010386818
225	0x3c5b26be	0.013375936
226	0xbbde6b65	-0.006787705
227	0xbc67d567	-0.01415
228	0x3c2eebaf	0.010676309
229	0xbc014574	-0.007890094
230	0xbc706d6a	-0.014674524
231	0xbca578d9	-0.020199226
232	0x3c10e7db	0.008844341
233	0xbcda10e7	-0.026619388
234	0x3c1bbd36	0.009505561
235	0x3cfbaad2	0.030721102
236	0xbca27b01	-0.019834043
237	0x3c29166c	0.010320287
238	0x3d038a9a	0.032114603
239	0x3cffc1a7	0.03122027
240	0x3c29cc14	0.010363597
241	0xbca21e1e	-0.019789752
242	0x3bbffee3	0.0058592423
243	0x3c93a2b2	0.018021915
244	0xbc8d87f5	-0.017276743
245	0x3c488fd8	0.012241326
246	0x3cd50998	0.026005551
247	0x3cbbdd69	0.022932725
248	0x3c069c77	0.008216015
249	0xbbf207c6	-0.0073861806
250	0x3aef8c1d	0.001827601
251	0x3c0612c0	0.008183181
252	0xbbaf2d6a	-0.00534599
253	0x3bd9112c	0.0066243615
254	0x3c009898	0.007848881
255	0x3c3f8635	0.011689712
