weight/epoch_5_base_model.model.vit.encoder.layer.2.attention.attention.query.lora_B.default.weight.npy (npy, 24704 bytes, 1 tensors)

array f4 [768, 8]
0	0x398484a2	0.0002527582
1	0xb9e74db4	-0.00044117647
2	0xb9705950	-0.00022921455
3	0x37b984ae	2.2115502e-05
4	0x388591e5	6.369109e-05
5	0xba0558cd	-0.000508678
6	0x380bd0c2	3.3334603e-05
7	0x39d8b7da	0.0004133571
8	0x39f8d890	0.00047463598
9	0x3a116c70	0.00055474695
10	0x3a1f41d1	0.0006075176
11	0x38ff062c	0.00012160497
12	0xb940614c	-0.00018346793
13	0x3925042e	0.00015737183
14	0xb9634b88	-0.00021676545
15	0xba659266	-0.0008757472
16	0x38c859a0	9.553437e-05
17	0xb9cb7f98	-0.00038814242
18	0x3a52ab9d	0.00080364366
19	0xba036380	-0.000501208
20	0x3908602b	0.00013005796
21	0x38d5d4c2	0.00010196261
22	0xba2f3107	-0.0006683026
23	0xba255068	-0.0006306232
24	0xb88cf443	-6.7212175e-05
25	0xb72aaafe	-1.0172602e-05
26	0x388f9220	6.845989e-05
27	0x399483e6	0.00028327032
28	0x39e6dd07	0.00044033697
29	0xb72f98a2	-1.046635e-05
30	0xb820970a	-3.828764e-05
31	0x37e3e44a	2.7166814e-05
32	0x38c3c202	9.334461e-05
33	0xb9dc7ba0	-0.00042053778
34	0xb9a120dd	-0.00030732798
35	0xba91ede5	-0.001113352
36	0x3945a390	0.00018848316
37	0xba66aa91	-0.000879922
38	0x3a45fa8c	0.0007552288
39	0xb83c064d	-4.482856e-05
40	0xb921e102	-0.00015437978
41	0x3a289580	0.00064309686
42	0x3a2a6eab	0.0006501476
43	0x39f3fdb0	0.00046537584
44	0x399302ad	0.00028040019
45	0x39acdc05	0.00032970324
46	0xba324a45	-0.0006801228
47	0xba287fda	-0.0006427743
48	0xba44fded	-0.00075146445
49	0x39b4d3db	0.0003449012
50	0x39728440	0.00023128185
51	0x3acc386d	0.0015580781
52	0xb8b04154	-8.404502e-05
53	0xb8263a75	-3.9631926e-05
54	0xba87c5ff	-0.001035869
55	0xba8c1b24	-0.0010689241
56	0x3aad6ffb	0.0013232225
57	0xba7572b6	-0.00093631016
58	0xb82522b5	-3.937139e-05
59	0xbb2d22da	-0.0026418478
60	0xb9c45e74	-0.00037454406
61	0xbac45328	-0.0014978396
62	0x3aa21774	0.0012366609
63	0x38b08c51	8.41847e-05
64	0xba0b0fc9	-0.00053047814
65	0xba2b16bb	-0.00065265194
66	0xb8be7ae6	-9.0827976e-05
67	0xba962409	-0.0011454831
68	0x39707c22	0.00022934427
69	0xba29f83e	-0.00064838293
70	0xba5ff2dc	-0.0008542964
71	0xb992e0ba	-0.00028014724
72	0x3a43bb08	0.00074665295
73	0x3a4d22e8	0.0007825331
74	0x3a48ffd0	0.00076675136
75	0xba5545eb	-0.0008135724
76	0xba46f267	-0.00075892213
77	0x39b3888c	0.00034243276
78	0xb918299c	-0.0001451135
79	0xba62a839	-0.0008646283
80	0xba4e2031	-0.0007863073
81	0x39918219	0.00027753485
82	0x38a3e32f	7.814762e-05
83	0x3a5cde29	0.00084254384
84	0x3a718ce2	0.00092144136
85	0x39a00a20	0.00030525122
86	0xba84023c	-0.0010071467
87	0xba0cc264	-0.00053695426
88	0xb8526018	-5.0157396e-05
89	0xba4bb2b9	-0.0007770467
90	0x37099ba7	8.202077e-06
91	0xb9a82307	-0.00032069554
92	0xb9342603	-0.00017180298
93	0xb93da89a	-0.00018087254
94	0x39e18cd1	0.0004302026
95	0x398349fd	0.00025041393
96	0xb8dec09f	-0.000106216634
97	0x395daadc	0.00021139852
98	0x3a1ce03a	0.000598434
99	0xba88afe9	-0.0010428402
100	0xb972a143	-0.00023138993
101	0x38056ca8	3.1810865e-05
102	0xb9cac673	-0.000386763
103	0x3904f0bc	0.00012678182
104	0xb9817dff	-0.00024698672
105	0x39127f31	0.00013971028
106	0x38badf8a	8.9108085e-05
107	0x39b0b815	0.00033706488
108	0xb9e226fc	-0.00043135125
109	0xba4089f5	-0.0007344776
110	0xba39ca27	-0.0007087313
111	0xb99b664c	-0.0002964012
112	0xba29bfea	-0.0006475436
113	0x399895c7	0.00029103292
114	0xb956f510	-0.00020499923
115	0x3ae83f74	0.0017719106
116	0xb9f0d381	-0.0004593395
117	0xba84fde0	-0.0010146461
118	0xba5b73e9	-0.0008371459
119	0xba925da1	-0.001116682
120	0xba32a926	-0.0006815366
121	0xba7bc8f4	-0.00096048345
122	0xb9a156a7	-0.00030772874
123	0x3a1be17a	0.00059463794
124	0xb88afea7	-6.6277855e-05
125	0xbaa6a47d	-0.0012713816
126	0x393865da	0.0001758555
127	0xb9d6f263	-0.00040997853
128	0x3a09b3dd	0.0005252937
129	0xb94005f6	-0.00018312767
130	0x39d218b6	0.00040072732
131	0xb9c7170e	-0.00037973415
132	0xb83cc507	-4.500619e-05
133	0x3a1940fa	0.0005846169
134	0x39d8b83d	0.00041336
135	0x39a2b238	0.0003103183
136	0xb99edf50	-0.0003030249
137	0xba0c8702	-0.0005360694
138	0x39bea117	0.00036359645
139	0xbaac4d6e	-0.0013145634
140	0x38a338b6	7.783009e-05
141	0x3a576aa7	0.00082174916
142	0x3a034d07	0.00050087314
143	0x3a926b84	0.0011170958
144	0x394de1b9	0.00019634412
145	0xb9907d6c	-0.00027559267
146	0xb9854f90	-0.00025427015
147	0x384abebd	4.8338192e-05
148	0x385c2634	5.2487667e-05
149	0x3a676e84	0.0008828419
150	0x3a73863c	0.0009289717
151	0x3ac0dd5d	0.0014714409
152	0x39f6abe6	0.0004704885
153	0xb9dab263	-0.0004171311
154	0x38788442	5.9250982e-05
155	0xba657b6e	-0.0008754049
156	0xb99aaa41	-0.00029500018
157	0x3a39fb58	0.0007094643
158	0x39f1b6fc	0.00046103436
159	0x3925e3e9	0.0001582053
160	0xba6a410d	-0.0008936085
161	0xba36a770	-0.0006967699
162	0x3a51d1a5	0.0008003957
163	0xb99169a9	-0.00027735278
164	0xb859ab45	-5.189634e-05
165	0x382a87aa	4.0657505e-05
166	0x3a38881a	0.00070393237
167	0x39d48803	0.00040537128
168	0x39d72d4e	0.0004104175
169	0xb850d69e	-4.9790942e-05
170	0x39402d7f	0.00018327495
171	0xb99432bb	-0.00028266557
172	0xba2d645e	-0.0006614382
173	0xb976fd0c	-0.00023554655
174	0x398c1634	0.00026719423
175	0x3769357d	1.3900336e-05
176	0x39749652	0.00023325652
177	0x3aa1f201	0.0012355448
178	0xb89fbbc8	-7.616688e-05
179	0xb9873c00	-0.0002579391
180	0x38c27b71	9.2736336e-05
181	0x3a1354ad	0.00056202227
182	0x3a151d48	0.0005688262
183	0x3a59c303	0.0008306952
184	0x3a179fbd	0.0005783996
185	0x3a276034	0.000638488
186	0x3992d955	0.00028009215
187	0xb9a7e438	-0.00032022758
188	0x399b1558	0.00029579806
189	0x3a1eed06	0.0006062541
190	0xb9cb5b26	-0.00038787088
191	0xb8f54262	-0.00011694875
192	0xb74aae7a	-1.2080762e-05
193	0xba93dc41	-0.0011280851
194	0xb9d27199	-0.00040138958
195	0xba191aa1	-0.0005840455
196	0x3aad8e82	0.0013241323
197	0x3a9143cb	0.0011082826
198	0x3ab3e1b6	0.0013723883
199	0x3ab4e864	0.0013802168
200	0x38a331ca	7.7817196e-05
201	0x39fc94ba	0.00048175995
202	0xb74b2e7c	-1.2110566e-05
203	0xba893822	-0.0010468999
204	0xba190955	-0.00058378774
205	0xb90394a2	-0.00012548504
206	0xba0e2ca0	-0.000542352
207	0xb6fe9924	-7.587618e-06
208	0x39de17f9	0.00042361
209	0x3a87c650	0.0010358784
210	0x3a0c397c	0.0005349142
211	0x39838999	0.00025088785
212	0xba363744	-0.0006950984
213	0x39c07656	0.0003670926
214	0xba55272d	-0.0008131143
215	0xba319f8e	-0.00067757897
216	0x3a76494c	0.00093950774
217	0xba7be213	-0.0009608578
218	0xb996249c	-0.00028637506
219	0xbb0dcda2	-0.002163746
220	0x3a361292	0.0006945516
221	0x3a03978e	0.0005019837
222	0x3aed39b3	0.0018098861
223	0x3b218010	0.0024642982
224	0xb9d285c9	-0.00040154
225	0x3a37d6e0	0.0007012915
226	0x39a4aeab	0.00031410655
227	0x3a6a35b6	0.0008934395
228	0x38cb120c	9.683156e-05
229	0x39f0e8b3	0.00045949742
230	0xba538fae	-0.0008070421
231	0xb91db224	-0.0001503905
232	0x3a0c7625	0.0005358181
233	0x38ac11b1	8.2048944e-05
234	0xb9d070bf	-0.00039756854
235	0xb9919d41	-0.00027773718
236	0x38795ca8	5.945252e-05
237	0x394e0c0d	0.0001965018
238	0x3a54b326	0.00081138534
239	0x3a4ac6c8	0.0007735309
240	0xb91cbc4d	-0.00014947467
241	0xb84e710c	-4.921951e-05
242	0x3a2516c9	0.0006297646
243	0x3aa56fec	0.0012621856
244	0xb7e36b17	-2.7110376e-05
245	0x382c6740	4.1104155e-05
246	0xba4546f7	-0.0007525528
247	0xba1f37be	-0.0006073675
248	0x39c44dbf	0.0003744196
249	0xb9c65b50	-0.00037833536
250	0xb9be22d5	-0.00036265576
251	0xba703a0a	-0.0009163922
252	0x390ce0c0	0.00013435166
253	0xb98a1302	-0.00026335573
254	0x3a891f23	0.001046155
255	0x3a7d7abf	0.00096694747
