weight/epoch_3_base_model.model.vit.encoder.layer.10.attention.attention.value.lora_B.default.weight.npy (npy, 24704 bytes, 1 tensors)

array f4 [768, 8]
000000 77 07 3c 3b 0e 58 d6 3a 56 1b 42 bb bb 69 67 3b
       0.0028690973 0.0016353147 -0.0029618344 0.0035310823
000010 32 0c c0 ba d8 2f 30 bb aa 86 16 3c 9e ee 37 ba
       -0.0014652072 -0.0026883986 0.00918738 -0.0007016453
000020 3f b7 aa 3b 8e 3b 67 3b bd c9 30 bb db 83 3f 3a
       0.005209833 0.00352833 -0.0026975714 0.000730572
000030 85 b5 c8 ba 33 1d 03 bb 6b 41 a5 ba 79 91 75 bb
       -0.0015312886 -0.0020006418 -0.0012607997 -0.0037470742
000040 40 4d 43 bb 68 3c b3 ba 70 0f 31 3a a2 92 27 bb
       -0.0029800683 -0.0013674619 0.00067543145 -0.0025569578
000050 d2 c0 48 ba 19 c5 c2 3a 80 60 59 bb ca f7 3b 39
       -0.0007658127 0.0014859765 -0.003316909 0.00017926018
000060 2d 55 67 3b 1e f9 1e 3c ec 8b 50 bb a1 e8 e8 3b
       0.0035298571 0.009702949 -0.0031821681 0.0071078097
000070 9c d9 59 bb 78 42 74 bc c0 f6 a3 3c 06 7c 6f bb
       -0.0033241278 -0.0149084255 0.02001512 -0.003654243
000080 68 42 76 bb 2b 16 f0 39 cf fc 27 ba c3 5d dd b9
       -0.0037576202 0.00045792884 -0.0006408216 -0.00042222263
000090 0c 37 95 3a 13 e5 30 ba f1 eb cd ba ba 25 05 3a
       0.0011384203 -0.0006748002 -0.0015710575 0.0005079169
0000a0 d8 f1 9c 3a d2 a0 7a 39 7c ac 40 bb f4 7c 44 3b
       0.001197393 0.00023901768 -0.0029399684 0.0029981704
0000b0 9f 49 59 bb fb 0e 09 3b 7f 09 9f 3b 66 8a 20 bb
       -0.0033155454 0.002091347 0.004853427 -0.0024496554
0000c0 ae 1f 63 39 ba 9d 87 b9 04 80 09 3b 5e 28 13 ba
       0.00021660209 -0.00025866722 0.0020980844 -0.000561362
0000d0 4e b1 9a 39 80 9c 3c 3a b0 af 76 3a ad 14 25 bb
       0.0002950527 0.0007194951 0.0009410335 -0.0025189326
0000e0 72 d6 5d 3a 91 c4 2e 3c 0e 73 83 bb b7 c7 ec 3b
       0.0008462436 0.010666982 -0.0040115183 0.0072259563
0000f0 c7 af 24 bb 14 0f 90 bc f8 99 c1 3c 33 22 0d bb
       -0.0025129186 -0.017585315 0.023632988 -0.0021535277
000100 0a f3 17 3b d3 86 eb 3b 28 7f bd ba 71 e7 a6 3b
       0.0023185634 0.007187703 -0.0014457451 0.005093508
000110 20 e5 24 ba 8e 6a 5c bc 7e b3 b1 3c 84 61 23 bb
       -0.0006290246 -0.013453139 0.021692034 -0.002492995
000120 eb 6f 72 ba 22 4e eb bb 41 26 80 3a b5 c5 3f bb
       -0.00092482445 -0.007180945 0.0009777026 -0.002926213
000130 32 f7 f8 3a 99 49 5b 3c ba 8b 90 bc dd 8c 02 3a
       0.0018994568 0.013384246 -0.017644752 0.0004980097
000140 36 c1 e7 38 ac 58 17 3b b3 43 53 ba 9c 98 a7 b8
       0.00011050927 0.0023093624 -0.0008059099 -7.991606e-05
000150 c6 0a 17 ba 1b 45 29 bb 48 cc 97 3b 0c fe 18 b9
       -0.0005761798 -0.0025828544 0.0046325065 -0.0001459049
000160 32 a7 b4 ba ed 41 9e bb 26 92 1d 3a ca f8 18 bb
       -0.0013782738 -0.0048296363 0.00060108525 -0.002334165
000170 35 a2 b6 3a f0 68 f3 3b 2e 87 14 bc 6f a6 4a 3b
       0.001393384 0.007428281 -0.0090654325 0.0030921956
000180 26 33 e3 ba 3b 34 4d bb f8 0c 3b 3a a5 ad 3a bb
       -0.0017333969 -0.003131165 0.00071354164 -0.0028484848
000190 d1 07 6c 3a cb 9e b9 3b 9a 29 bf bb 20 71 f0 3a
       0.000900385 0.0056646816 -0.0058338167 0.0018344261
0001a0 56 96 32 3a 88 64 11 bc e5 eb eb 3a 8d 17 c7 bb
       0.0006812563 -0.008874066 0.0017999379 -0.0060758055
0001b0 31 24 d3 39 5d a0 81 3c f1 10 d2 bc c3 fc 73 b9
       0.0004027202 0.015823537 -0.025642844 -0.00023268447
0001c0 18 d5 ad 3a dd b4 31 3b 61 dd 9a bb 58 e4 9d 3b
       0.001326236 0.002711586 -0.0047260975 0.0048184805
0001d0 57 a9 00 3b e6 b6 4d ba d7 73 9d 3b 36 e8 4d bb
       0.0019632184 -0.00078473834 0.004805069 -0.0031418926
0001e0 47 53 96 39 43 91 36 3b eb 2a 49 ba 07 69 80 ba
       0.00028672276 0.0027857579 -0.0007673937 -0.0009796926
0001f0 74 57 c8 3a bd 4a 88 3b 7f 7f 85 bb 0a 96 e0 ba
       0.0015284852 0.0041593 -0.0040740366 -0.0017134559
000200 12 3a bb bb 26 ed f9 ba 9a 8c 6a 3b 25 a5 ce bb
       -0.0057137096 -0.0019067868 0.0035789371 -0.006306308
000210 94 ea 1d bb a6 18 aa 3b 5c d7 24 bc 33 7a bb 3a
       -0.0024096118 0.0051909266 -0.010061111 0.0014303386
000220 07 16 c5 bb 87 84 01 bc 92 da 67 3b 73 8a ed bb
       -0.0060145888 -0.007905132 0.003537808 -0.0072491704
000230 0d 46 67 ba 7e 48 22 3c 64 f9 8e bc 86 22 68 3b
       -0.0008822389 0.009904979 -0.017452903 0.0035420968
000240 90 88 75 bb 16 dc 37 bc ac e8 b2 3b 53 26 df bb
       -0.003746543 -0.011221906 0.0054598656 -0.0068099885
000250 14 f9 e1 37 88 2e 48 3c b8 66 8a bc 9f ca 19 3b
       2.6938076e-05 0.012218125 -0.016894683 0.002346672
000260 2b c6 65 3b 19 59 2b 3b 67 17 27 bb 46 bf da 3a
       0.0035060744 0.0026145636 -0.0025496127 0.0016689084
000270 dc e0 ca b9 d9 bb ae b9 f7 67 51 3b ae 15 52 bb
       -0.00038695976 -0.00033327824 0.0031952837 -0.003205638
000280 93 9a 16 3b d6 04 a3 3b f0 aa c5 b9 a0 ed 28 3b
       0.0022980317 0.0049749417 -0.00037702126 0.00257764
000290 d8 c0 b0 ba b5 d7 cf bb 23 d1 b9 3b 65 e3 98 ba
       -0.0013485206 -0.006342853 0.005670683 -0.0011664449
0002a0 19 7a b0 b9 f6 ea c0 bb be 46 61 3b 29 9a a4 bb
       -0.00033660306 -0.0058873845 0.003437444 -0.00502326
0002b0 1b 61 81 39 66 43 0d 3c b6 13 39 bc da 3c 1c 3b
       0.00024677147 0.008622026 -0.011296203 0.0023839981
0002c0 11 9c 8b 3b e1 14 1e 3c 86 ff d1 bb 28 0b eb 3b
       0.004260548 0.009648533 -0.0064086346 0.007172961
0002d0 d1 bb bd ba a3 b7 5f bc f5 b5 9e 3c 69 40 ab bb
       -0.0014475529 -0.013654622 0.019373873 -0.005226184
0002e0 1c 8d f6 3b 9a 4d 2d 3c b6 d9 56 bb c1 a1 0d 3c
       0.0075241458 0.010577584 -0.0032783574 0.008644522
0002f0 df 1a ea ba c1 fe 96 bc 39 24 bb 3c 71 d5 a8 bb
       -0.0017860791 -0.018432023 0.02284442 -0.0051523973
000300 58 bd 1c 3a ec 59 3f 3b 81 44 73 bb a1 39 4a 3b
       0.0005979142 0.0029197885 -0.003711969 0.0030857103
000310 84 b6 00 3b 9e 09 e1 ba ab 35 84 3b bd 68 8a bb
       0.0019640038 -0.0017169004 0.004034718 -0.0042239116
000320 53 a1 4a 3a cf 46 82 ba 25 df c2 ba d8 a1 b1 3a
       0.00077297277 -0.0009939315 -0.0014867528 0.0013552262
000330 aa bb fe 3a 60 4c 09 3b dd 95 13 bb 02 f9 0a 3b
       0.001943459 0.0020950064 -0.0022519745 0.002120555
000340 c7 64 8d 3b 08 d3 9a 3b e9 e0 cb bb 1d 7e b0 3b
       0.004314992 0.004724864 -0.0062218797 0.0053861276
000350 98 36 4a ba cc f6 c6 ba a6 9d 8c 3b 49 c5 3c bb
       -0.00077138236 -0.0015179752 0.004291254 -0.0028804115
000360 04 2d 4d ba 37 67 5a bb a6 e7 c3 3a bf ee b4 ba
       -0.0007826837 -0.003332568 0.0014946356 -0.0013804062
000370 0e d5 b3 3a 6f 37 0e 3b fe e5 48 bb 9c 4c 1a 3b
       0.0013720111 0.0021700521 -0.0030654664 0.0023544198
000380 93 06 14 ba 4f d5 e5 3a 22 b8 1b ba 34 32 c9 3a
       -0.00056467316 0.0017534884 -0.00059402187 0.0015350045
000390 b1 fc 11 3b 0a 12 ca bb af fd db 3b c6 33 05 39
       0.002227586 -0.006166701 0.006713591 0.00012703156
0003a0 37 93 ca ba 5d b4 48 bb fc 07 14 3a 13 f2 4b ba
       -0.001545525 -0.0030625083 0.0005646942 -0.00077799073
0003b0 0a d3 b7 b8 d0 c6 a5 b9 4a 55 33 3b a4 5f c7 3a
       -8.765429e-05 -0.0003161938 0.0027364069 0.0015210998
0003c0 5c 4d 9b 3b b0 d0 01 3c fd 02 76 bb d3 ec 0a 3c
       0.0047394466 0.00792329 -0.0037538402 0.008479315
0003d0 40 c3 bb ba 2c 83 2e bc 5c 2a 7d 3c be df 76 bb
       -0.0014325157 -0.010651391 0.015451994 -0.0037669982
0003e0 04 e4 77 bb 84 42 87 bb 57 6a b2 3a 53 07 9b bb
       -0.0037825117 -0.0041278023 0.0013612014 -0.0047310977
0003f0 8c 11 19 3a 65 d7 c1 3b 6c 60 0d bc de 60 21 3b
       0.00058391015 0.0059155696 -0.008628946 0.0024624388
