weight/epoch_9_base_model.model.vit.encoder.layer.5.attention.attention.value.lora_B.default.weight.npy (npy, 24704 bytes, 1 tensors)

array f4 [768, 8]
0	0xbb004b5a	-0.0019576163
1	0xbc3d9805	-0.011571889
2	0xbc86d000	-0.016456604
3	0xbb843f8f	-0.004035897
4	0xbc0647ca	-0.008195827
5	0x3bcae6ca	0.006192063
6	0x3a0cf689	0.0005377313
7	0xbc436a36	-0.011927178
8	0x3c8b7aec	0.017026387
9	0xbc8be2ef	-0.017075984
10	0xbcf051da	-0.029335905
11	0xbba7382a	-0.005103131
12	0xbb91b446	-0.004446539
13	0x3d0faba7	0.03507581
14	0x3c97d0fb	0.018532267
15	0xbd458633	-0.048223685
16	0x3c2f85b1	0.010713027
17	0xbb7a42e2	-0.0038186838
18	0xbc978e70	-0.018500537
19	0xbb555e08	-0.0032557268
20	0xbaceb753	-0.0015771188
21	0x3c49bc08	0.012312897
22	0x3b4a195f	0.0030837876
23	0xbc85dc8e	-0.01634052
24	0x3c8ba466	0.017046165
25	0xbc6b1453	-0.014348107
26	0xbc9c69ce	-0.01909342
27	0xbb43cb9c	-0.0029876
28	0xbb1e306a	-0.0024137744
29	0x3ca1354c	0.019678734
30	0x3c76ed5c	0.015071239
31	0xbd00c130	-0.031434238
32	0xbad31c24	-0.0016106409
33	0x3bb99e1f	0.0056646015
34	0xbc5bd407	-0.0134172505
35	0xbaec2899	-0.001801747
36	0xba8c50c2	-0.001070522
37	0x3c112c0f	0.008860602
38	0xbc1f8e3f	-0.009738504
39	0xbb96acd6	-0.0045982404
40	0x3c6d3952	0.014478998
41	0xbcbd4c07	-0.023107542
42	0xbd1cdca8	-0.03829637
43	0xbc72a96e	-0.014810903
44	0xbba91297	-0.005159687
45	0x3cee6578	0.029101118
46	0x3c7f822d	0.015595001
47	0xbd75f4bf	-0.06004786
48	0x3b3c1df0	0.0028704368
49	0x3b99c05f	0.004692122
50	0xbb9682bc	-0.0045932215
51	0xb9eb1470	-0.0004483792
52	0xba9c6932	-0.0011933206
53	0x3b1661ba	0.0022946433
54	0xbb72dd9e	-0.0037058364
55	0x38dc286a	0.00010497945
56	0x3abb47ec	0.0014288402
57	0xbc1792f8	-0.009251349
58	0x3bd07162	0.0063611725
59	0x3ab16274	0.001353337
60	0x3ac56d5b	0.0015062498
61	0xbc08eb13	-0.008356827
62	0x3bd8a713	0.0066117137
63	0xbb023620	-0.0019868687
64	0xbc79cc42	-0.015246453
65	0x3c13fac4	0.009031955
66	0x3d112df0	0.0354442
67	0x3bc773e6	0.006086814
68	0x3bfe2329	0.0077556563
69	0xbcfa72bf	-0.030572293
70	0xbc792599	-0.015206718
71	0x3d185f1d	0.037200082
72	0x3a907f8b	0.0011024339
73	0x3b1f686b	0.0024323713
74	0xbbf71a06	-0.007540944
75	0xbc15c2ff	-0.009140729
76	0x3b6e120f	0.0036326682
77	0x3c220a42	0.009890141
78	0x3ba761fb	0.0051081157
79	0xbcb7aef5	-0.022422293
80	0x3c33015c	0.010925617
81	0xbc93f87e	-0.018062826
82	0xbcbc07c3	-0.02295292
83	0xbbb4f1fc	-0.005522011
84	0xbab5e0cd	-0.00138762
85	0x3cad326f	0.021142213
86	0x3ca751c0	0.020424724
87	0xbd2f6440	-0.042820215
88	0xbc8ce6d3	-0.01719991
89	0x3cc1d4a0	0.023660958
90	0x3cb92cf1	0.022604438
91	0x3b83c743	0.0040215566
92	0x3b21f80e	0.0024714503
93	0xbd03efd9	-0.03221116
94	0xbc7eebfd	-0.015559194
95	0x3d419014	0.047256544
96	0x3b636837	0.0034699568
97	0xbb9ee58d	-0.004849142
98	0xbcd1c726	-0.025607657
99	0xbba218e1	-0.0049468135
100	0xba1f73bf	-0.0006082616
101	0x3c4dfa5d	0.012571898
102	0x3bcfda20	0.006343141
103	0xbca57c5e	-0.020200904
104	0xbc79c37c	-0.015244361
105	0x3cde04bf	0.027101872
106	0x3d33130f	0.043719348
107	0x3c7e6f07	0.015529401
108	0xbaba5532	-0.0014216064
109	0xbd401237	-0.04689237
110	0xbc8ef5b5	-0.017451147
111	0x3daec15b	0.085329734
112	0xba0c72cf	-0.0005357684
113	0x3b75cae1	0.0037504958
114	0xb9ce1e69	-0.0003931404
115	0x3b694b9c	0.0035598045
116	0xbb0a81a4	-0.00211344
117	0x3c1e2cfd	0.009654281
118	0xbbb98733	-0.005661869
119	0x3b7c7bbb	0.0038525898
120	0xbb57186b	-0.003282095
121	0x3c7e28eb	0.015512685
122	0x3ba00e5b	0.004884524
123	0xbaa434b2	-0.0012527911
124	0xbb970361	-0.004608557
125	0xbcb03199	-0.021508025
126	0xbc210d08	-0.009829767
127	0x3ce081fc	0.027405731
128	0xbcc68df7	-0.024237616
129	0x3cf2bf8f	0.029632358
130	0x3d037b81	0.032100204
131	0x3c61057b	0.013734217
132	0x3b9f720c	0.0048658904
133	0xbd4a80cc	-0.049439237
134	0xbce378f7	-0.027767641
135	0x3d6d38c7	0.057915475
136	0xbc14a828	-0.009073295
137	0xb8483c4e	-4.773988e-05
138	0xbbb17fb2	-0.005416834
139	0xbb5ca460	-0.003366731
140	0xbb8e5863	-0.0043440326
141	0x39d4450e	0.0004048724
142	0xbbc50763	-0.0060128435
143	0x3b02d347	0.0019962357
144	0x3b99e73a	0.004696754
145	0xbb8f87fb	-0.004380224
146	0xbc2a21c5	-0.010384028
147	0xbbc1e117	-0.0059167254
148	0xbb96f923	-0.004607336
149	0x3cbefcfe	0.023313995
150	0x3b66ece3	0.003523641
151	0xbcbe120a	-0.023201961
152	0xbcf35ea6	-0.029708218
153	0x3d098f1e	0.033583753
154	0x3d87f054	0.06637636
155	0x3cb99eaa	0.022658665
156	0x3c35cee8	0.011096694
157	0xbd8506d1	-0.06495441
158	0xbcedda26	-0.029034685
159	0x3db617d9	0.08891267
160	0xbc186e99	-0.009303712
161	0x3c9f8c32	0.01947603
162	0x3c8af8f4	0.016964413
163	0x3b44e273	0.00300422
164	0x3c10b600	0.008832455
165	0xbc869b2d	-0.016431415
166	0xbbf0fc3b	-0.007354287
167	0x3cff621b	0.03117471
168	0x3bd1dd4a	0.0064045535
169	0x3a70b3a0	0.00091820396
170	0xbc305069	-0.010761359
171	0xbb39bbae	-0.0028340626
172	0xbb4e4bf3	-0.0031478375
173	0x3bcc299e	0.006230547
174	0xbb87d43d	-0.004145174
175	0x3bce93cf	0.0063042413
176	0xbcdba49e	-0.026811894
177	0x3cc787ce	0.024356749
178	0x3d07e0f3	0.033173513
179	0x3c81d4b3	0.015848493
180	0x3bef0699	0.0072944877
181	0xbd34e293	-0.04416139
182	0xbcb0f1df	-0.021599708
183	0x3d8f6752	0.07002129
184	0xbc4c094c	-0.012453388
185	0x3cb52a3a	0.022114862
186	0x3d3b451b	0.0457202
187	0x3c94d737	0.018169029
188	0x3bb3cf73	0.0054873764
189	0xbd63c1fc	-0.05560492
190	0xbc225742	-0.009908499
191	0x3da43a99	0.08018989
192	0xbbcbcffc	-0.006219862
193	0x3b33dd13	0.0027445003
194	0x3b91ff0f	0.004455454
195	0x3afddbbe	0.0019367856
196	0x3a9895f7	0.0011641373
197	0xbbfe2f01	-0.007757068
198	0xbb76c395	-0.0037653197
199	0x3aee646d	0.0018187888
200	0x3b4b7878	0.0031047147
201	0x3afd0152	0.0019302762
202	0xbc8e4425	-0.017366478
203	0xbb674b5b	-0.0035292718
204	0xbc1b0652	-0.009461956
205	0x3b92cace	0.0044797426
206	0xbb168f78	-0.0022973698
207	0x3c3b5558	0.011433922
208	0x3c8cab30	0.017171472
209	0xbcd0b9df	-0.025479255
210	0xbc8d1d13	-0.017225778
211	0xbc0dd2f3	-0.008656251
212	0xbad8aa3d	-0.0016530227
213	0x3ca59024	0.020210333
214	0x3c8fb224	0.017540999
215	0xbd55dd3b	-0.052212935
216	0xbccf22d3	-0.02528516
217	0x3cfbcc65	0.030737111
218	0x3d584dad	0.052808452
219	0x3c6fd140	0.014637291
220	0x3bc6a0c9	0.0060616476
221	0xbd470c94	-0.04859598
222	0xbcaa4650	-0.02078548
223	0x3da3a21c	0.07989904
224	0x3c297720	0.010343343
225	0xbc408974	-0.011751521
226	0xbcc2668c	-0.023730539
227	0xbc35a1c0	-0.0110859275
228	0x36ee0951	7.0940373e-06
229	0x3cf5e94a	0.030018467
230	0x3b893fa9	0.004188497
231	0xbd2037db	-0.039115768
232	0x39a309bc	0.00031097035
233	0x3b3eca66	0.0029112338
234	0xbbdf6652	-0.0068176175
235	0xbb42d86a	-0.0029731044
236	0x3b24fd77	0.002517549
237	0xbbb5ca6d	-0.0055478127
238	0xbb8d6f5b	-0.004316253
239	0xba40ea38	-0.000735912
240	0x3c4e6647	0.012597627
241	0xbc5bd791	-0.013418094
242	0x3b296453	0.0025847151
243	0x3b5834d7	0.003299048
244	0xbb8cf9c2	-0.0043022344
245	0x3c0deebb	0.008662875
246	0x3c809463	0.015695756
247	0xbc92050a	-0.017824668
248	0xbab269ff	-0.0013611912
249	0xbc16397a	-0.009168977
250	0xbc493229	-0.0122800255
251	0xbbda3918	-0.006659638
252	0x3b14285d	0.0022607066
253	0x3bb4f1ed	0.005522004
254	0x3ae35736	0.0017344716
255	0xbcf56d76	-0.029959422
