weight/epoch_4_base_model.model.vit.encoder.layer.1.attention.attention.value.lora_B.default.weight.npy (npy, 24704 bytes, 1 tensors)

array f4 [768, 8]
00000000: dcea df3c f036 e53c 2960 123c fe5c 1a3d
00000010: e023 1dbd cac6 dd3b f933 93bc 2754 12bd
00000020: c1ba 38bc 7aae 03bc 2ade c039 110e 64bc
00000030: 4ebd 523c 8c14 8d3a 5cc8 d43b d1c5 393c
00000040: 5a67 44bc ca31 29bc 8d10 edba 11bb 89bc
00000050: db8e 8b3c 16a2 1fbb 5ed4 173c 6b14 823c
00000060: 5d10 823a 8224 1738 76c6 e9ba f7b9 bab9
00000070: b321 b438 356f c03a 99c2 25bb 3010 9cb8
00000080: f4b4 083d 6fad 2c3d aab7 603c efd9 4b3d
00000090: d279 3ebd b5e7 d03b c44d e6bc 7d88 3fbd
000000a0: 9ee7 923c 1829 ae3c f7bb b53b c868 e93c
000000b0: af83 e6bc 1fda 423b c046 73bc 6be7 bfbc
000000c0: fd32 ee3c 5678 0c3d fb6d 6d3c 10d9 433d
000000d0: 19a7 5dbd f2f3 5dba 3b96 cfbc 027d 4abd
000000e0: df58 acbb c308 b03a 7f58 32bb 6796 28bb
000000f0: aa57 dc3b 2a7e 8d36 af86 28ba a26c da3b
00000100: ade9 01bc b5dc 4abc 7e72 14bb 16e4 5bbc
00000110: a853 763c f1f9 de3a 7589 233c d2ff 633c
00000120: df10 273c afb4 363c e2db 423b 9aa6 6f3c
00000130: 644e 71bc 7946 1eba ae8a d1bb ca71 4fbc
00000140: 0c01 ac3c 4b5e 813c 1bff e53b e410 073d
00000150: 0ce4 fabc ba72 1fba c8ca 50bc c350 e7bc
00000160: 28bf eb3b 8041 f73b b58d 773b 6566 273c
00000170: 1c63 2dbc 71a5 5d3a 5886 97bb 4f85 21bc
00000180: 236c c83b 8982 063c 14d1 273b e3e8 123c
00000190: 28f1 1bbc e66e 9939 5ce1 b2bb b5eb 11bc
000001a0: 2813 9b3c 560a 803c ec1d ea3b 1242 c33c
000001b0: 4a13 dabc 0481 033b cd06 17bc 45cb a1bc
000001c0: 0c26 883c 34d2 0f3c d6d1 4ebb 53d8 ae3c
000001d0: f74a 97bc d201 493b 94eb a5bb 241e 24bc
000001e0: 21f6 9e3c b39d 913c e31a ef3b 6c14 c43c
000001f0: e059 d6bc fc3e c63b 1888 25bc 91a9 bbbc
00000200: 2bf3 383c 61bc 013c 4956 013a 2c86 823c
00000210: af8d 5dbc 66c6 e53a b9d6 01bc e320 49bc
00000220: afda 9b3c 70b1 953c 6694 d23b cc52 ca3c
00000230: 8e1e c8bc 4cf4 883b 1310 28bc d6e1 bcbc
00000240: cf04 a7bb 907b edbb bd7d 5eba 7d95 f6bb
00000250: 95fd d73b 6d95 b739 8dca a33b dbfe df3b
00000260: 44a0 a8bc 1ff9 8fbc 5995 63bb 6bec c8bc
00000270: 6c3a da3c 3b06 7cbb e5fe 4a3c 39a4 c93c
00000280: 5ff3 013b fd99 87b9 8f7a f1ba f074 8c3b
00000290: 70a2 debb d807 fd3a 6c4c 15bb 398d 76bb
000002a0: 8fb8 c63c e1d4 943c aa15 893b e02b eb3c
000002b0: 6209 00bd 5a65 a73b eb16 4bbc 8b40 d2bc
000002c0: d05d 953a 7f9f c43a 4be4 71ba 8013 243b
000002d0: 1a26 eaba acbf 8739 cb0c 21bb 55d2 70bb
000002e0: a94e d0bb 25c7 11bc 9160 c2bb 4636 0cbc
000002f0: 1563 0f3c 325b c4bb 189e 413b eeb7 0e3c
00000300: 3607 3f3c 70dc f13b eae0 2e3a 76be 6d3c
00000310: dc60 41bc 9d07 0e3b a2e3 04bc f0d3 4bbc
00000320: d802 febc 5899 e2bc a8c8 19bc c0cb 29bd
00000330: 4a79 303d 8793 77bb 1d31 983c 6af7 1f3d
00000340: 96d2 6bbc 79bc 65bc 0c09 21bb cb31 96bc
00000350: 6991 b03c 9d8a 54bb 9cd4 083c b3e5 883c
00000360: b8ae 40bb e99a 8d3b 6ef7 8c3b da44 d2ba
00000370: 3c48 7b39 56dc 593a 7aad 663a 5ecb 35ba
00000380: 5151 023d b3d6 cd3c b5f3 da3b 52b6 473d
00000390: 94e3 3cbd 406e 313b d985 b7bc e417 47bd
000003a0: e398 6abc f88e 4abc a2a6 26ba 4bb9 99bc
000003b0: bbce a53c 408a 94bb 45f0 103c 3bee 7f3c
000003c0: ae5a f73b cfd4 a93b 9479 4d3b 0cd5 103c
000003d0: 9b35 4ebc 3750 6a3a c12f 1fbb 22ea 20bc
000003e0: 5e29 933c a058 623c 59b4 a53b 8457 a63c
000003f0: b408 abbc a695 ae3b b15d 2abc c6fa a9bc
0.02733367 0.027980298 0.008934059 0.03768634 -0.03836429 0.0067680823 -0.017969118 -0.035724785
-0.011274994 -0.008037204 0.0003678662 -0.013919369 0.012862517 0.001076357 0.0064936113 0.011338667
-0.011987532 -0.010326812 -0.0018086598 -0.016812833 0.017035892 -0.0024358085 0.009266941 0.015878877
0.000992309 3.6035206e-05 -0.0017835635 -0.0003561524 8.589346e-05 0.001468158 -0.0025292991 -7.441675e-05
0.033375695 0.042157587 0.013715664 0.049768385 -0.046502896 0.006375278 -0.028113253 -0.046761025
0.01793271 0.02125983 0.005546089 0.028492346 -0.028138964 0.002973206 -0.014848411 -0.023425778
0.029077047 0.03429445 0.014491553 0.04781443 -0.054114435 -0.00084668316 -0.02534019 -0.049435623
-0.0052596177 0.0013430346 -0.0027213392 -0.0025724412 0.0067243176 4.216815e-06 -0.0006428761 0.006665782
-0.007929248 -0.012381722 -0.002265125 -0.013421079 0.015034594 0.0017011744 0.009981503 0.013915973
0.0101968935 0.011151477 0.002973311 0.014627123 -0.014728162 -0.0006037723 -0.0063947057 -0.012661407
0.020996593 0.015792033 0.0070189363 0.032975093 -0.03062632 -0.0006082464 -0.012743659 -0.028236752
0.0071944185 0.00754565 0.0037773673 0.010217284 -0.010582712 0.00084551336 -0.0046241693 -0.009858443
0.0061164065 0.008209833 0.0025606798 0.008966657 -0.009517945 0.0002926506 -0.005458994 -0.008906295
0.018930033 0.015629929 0.0071446802 0.023835216 -0.026620526 0.0020065913 -0.00921793 -0.019750247
0.016619705 0.008778144 -0.0031558177 0.021343386 -0.018468363 0.003067125 -0.0050634835 -0.010016952
0.019404473 0.017775392 0.0072969063 0.02393552 -0.026165903 0.006049989 -0.010103248 -0.022908004
0.0112884445 0.007918448 0.0004933817 0.015933119 -0.0135225495 0.0017530441 -0.007924729 -0.012275907
0.019025175 0.018273085 0.006426382 0.024697684 -0.024428632 0.004179513 -0.010257739 -0.023056906
-0.005097009 -0.007247396 -0.00084873644 -0.0075251446 0.0065915086 0.0003501581 0.004998511 0.006835801
-0.020584233 -0.017574845 -0.003472647 -0.024526795 0.026639186 -0.0038455862 0.012389873 0.02461444
0.0019828898 -0.00025863937 -0.0018423366 0.004286401 -0.0067942664 0.0019304706 -0.0022781147 -0.0037620796
0.024257926 0.018167915 0.0041834908 0.028707445 -0.03125895 0.0051085176 -0.012395601 -0.025665542
0.0011395756 0.0015001147 -0.0009227439 0.0025036037 -0.0017864138 0.00025892013 -0.0024574276 -0.0036746461
-0.0063570333 -0.008897577 -0.005931922 -0.008557862 0.00875165 -0.0059923166 0.0029543694 0.008710844
0.011659434 0.0073810145 0.0006671088 0.014510741 -0.011802878 0.0021672018 -0.0081109125 -0.012440667
-0.031007215 -0.02766101 -0.009386219 -0.041454077 0.04308442 -0.0037777142 0.018578107 0.03905431
-0.014393469 -0.014021986 -0.0024572043 -0.01833429 0.021553712 -0.0032431253 0.008351471 0.016711092
-0.0029401015 0.0043214452 0.004301957 -0.0016042248 0.00023964135 0.00083107257 0.0008799654 -0.0006934906
0.03181583 0.02512679 0.006681884 0.04875786 -0.046115473 0.002707377 -0.02240269 -0.04860677
-0.014318678 -0.012363188 -0.00063572277 -0.018765112 0.020240178 -0.0045330822 0.008846347 0.015620763
0.0075486517 0.0051828395 0.0031352984 0.008839857 -0.012586023 0.00089383445 -0.0024289938 -0.009821447
0.017964061 0.013815075 0.0050568995 0.020305403 -0.020878173 0.005327898 -0.010398314 -0.02074946
