weight/epoch_0_base_model.model.vit.encoder.layer.4.attention.attention.query.lora_A.default.weight.npy (npy, 24704 bytes, 1 tensors)

array f4 [8, 768]
00000000: 938b 70bc e821 af3c b5c7 033d 41a4 83bb
00000010: 0fdc 00bd b60c c3bc 2ef3 b9bb f943 cebc
00000020: 94a2 13bd 9685 123d 336a df38 bcc3 063d
00000030: 92fc 90bb 68d3 d3ba 49b8 1abc a4c7 b7bc
00000040: efa2 76bc ec19 51ba 4ee1 c23c 8b41 7c3b
00000050: e318 ff3b 6e92 46bc 0f2e 1b3c 3827 3a3c
00000060: 2fe3 933c a1dc 05bc d65c d2bb aa11 7bbc
00000070: e579 563c a53b 1cbb 6590 b8bc 16bd e73c
00000080: d783 f6bc ffdb a8bc fa2d 133d 4fae 0e3c
00000090: 3d6a 093d 2b32 e23c ce65 30bc a574 f93c
000000a0: c719 9e3c cc17 803c fb3a 0cbd 8b6d 6ebc
000000b0: 1c45 e03c fcb5 50bc c9dd 693c 6928 a43b
000000c0: 6e2f 903b 781b 7dbc 3c11 6e3c 4eb1 9e3c
000000d0: b0a5 5b3c d020 e2bc 5f27 dc3a 45d3 9239
000000e0: 9fc9 123d b82c dbbc 4198 a6bc e462 cebc
000000f0: 63b9 a7bc cb04 c73c cf9d 02bd ca35 18bc
00000100: 7f20 0bbd 533c c73c 122f 5e3c 825b 0f3d
00000110: b693 ac3c fe49 13bd d8f3 7d39 4225 a9bc
00000120: 4252 503c 7ea8 513c 620c efbc 6268 f83b
00000130: 94d1 cc3c 974d a33b 69ce d83c 54d8 1d3c
00000140: 660f 063d cac5 893b 1377 85bc 3c02 123d
00000150: 096c ce3b da3b 973c fd6b 783c 8d29 f9bc
00000160: c841 c4bc 061c 57bc 811f e8bc b55f acbb
00000170: 1b58 753c c50b 073c dd7f 703c e70d f33c
00000180: 6645 a63c 5904 bcbc 73ec 98bb 9adf 2f3c
00000190: b55d 043c e338 353c 4a26 06bd f5ce ee3c
000001a0: e636 adbc 17ac e6bc 751e 93bc 5b22 25bc
000001b0: b06e d6bb 4ebe 0e3d 2b8d 5e3c 8f39 ad3c
000001c0: 78f1 65bc 6107 f23b b6d4 a7bc 8715 e23c
000001d0: 2431 aabc 592e bebc 1d9d 9abb 0b67 db3b
000001e0: 869d 95bc a1ee f9bb e09f c2bc 4222 b4bc
000001f0: c2fe e13c 6cd8 c4bc 287d e6bc 4bf9 bebb
00000200: bfda d2bb 008c f6bc 923d 06bd b3c4 833c
00000210: 71d7 e9bc 55c3 23ba 3320 bc3c 12ed 48bc
00000220: b533 afbc d50e 0b3b 39bf c8bc 7705 c33c
00000230: 4e8c 11bd acf3 d33c 46df 06bc dd9d a83c
00000240: adac 2a3c 8465 ebbc 1917 df3c 5f99 a53c
00000250: 9576 bc3c ee3f 973a 5c45 8dbc cb45 883c
00000260: 0a1c f43b 9e57 70bc 80a5 ed3c 87ed ea3c
00000270: ed9a d0bb c7d4 173c 664b 763b 7ecd c23c
00000280: 8f4f 9cbc f123 113d 3d6d b13a 603d 973c
00000290: 9ecc 2a3b bd88 ea3c bc56 ffbb 9dab 64bc
000002a0: 231c 513b 8415 4cbc bf3d 1a3c bfbd 843c
000002b0: 47be c0bc 671d aabc 1d94 6f3c 9d95 af3c
000002c0: 07e0 c6bc af20 99bc c7c2 d13c d5e3 513c
000002d0: f8ab 0cbb ab99 75bc f6a1 8d3c 4d62 893c
000002e0: 2063 73bc e1fc c5bb 5e44 ac3c 3d6d 973c
000002f0: 22c6 b53c 8c92 b4bb c960 943c 9778 64bc
00000300: ea84 063d fa97 67bc f4fc 4abc 5260 f6bc
00000310: dcf0 be3c 2f62 eebb 92ad 30bb 7f77 c63c
00000320: e7ca 07bc d6a9 e2bc e329 fe3c f8a8 f03c
00000330: d9c0 34bc b046 0d3d bb91 0e3d c018 34bc
00000340: 20a5 243b 65c4 8a3c 0138 b83c 1f46 d03c
00000350: e654 01bd 65aa c93c b32b 8d3c a8d1 8e3c
00000360: 22ce 673c 1d4b 103d 07c1 abbc 5aba 8dbc
00000370: bb4f e5bc be44 a13c 0dba 5fbb c439 d23c
00000380: 59f6 40ba 7df3 e43b 77e2 8d3c 5962 173b
00000390: 40d7 2e3c 55cf c23a 55b3 bb3a 933e 43ba
000003a0: e5bb a33b ab69 d83b 3896 0c3c 2775 0c3d
000003b0: 17a2 f73b 4c3b fabc 4266 883c ec30 e8bc
000003c0: 99a9 95bc ed89 a33c 435d a63b 9e98 19bb
000003d0: aa0d d03c 76b9 063d 0556 07bd f9e6 e7bc
000003e0: 5048 7fba 48c3 ab3c 5a95 073d 6432 0c3d
000003f0: 39ee 363b 7d5a 153b 6836 95bc 77b9 e03b
-0.014681715 0.021378472 0.032172877 -0.0040173833 -0.031459864 -0.023809772 -0.005674741 -0.025178896
-0.03604372 0.03577193 0.0001065325 0.03290151 -0.00442464 -0.0016161026 -0.009443351 -0.022434063
-0.015053495 -0.000797658 0.023789074 0.0038491215 0.007784949 -0.0121198725 0.00947143 0.01136189
0.018052666 -0.008170278 -0.0064197583 -0.015324036 0.013090585 -0.0023839262 -0.02252979 0.028288405
-0.030092163 -0.020612715 0.03593252 0.008708551 0.033548582 0.027611813 -0.01076646 0.030451128
0.019299401 0.015636347 -0.034235936 -0.014552484 0.027376704 -0.012738701 0.014274069 0.0050097
0.0044001853 -0.015448444 0.014530476 0.019371655 0.013406202 -0.027603537 0.0016796401 0.00028004698
0.035836812 -0.026754722 -0.020336272 -0.02519364 -0.020474141 0.024294278 -0.03188878 -0.009290168
-0.033966538 0.024320757 0.013561027 0.034999378 0.021066528 -0.035959236 0.00024218799 -0.020647649
0.012714924 0.012796519 -0.02918071 0.007580803 0.025002278 0.0049836147 0.026465612 0.009634096
0.03272953 0.0042044865 -0.01629213 0.035646662 0.0062995 0.018461157 0.015162465 -0.03041532
-0.023957148 -0.01312924 -0.028335335 -0.0052604326 0.014974619 0.008242552 0.0146789225 0.029669715
0.020296764 -0.022951292 -0.004666859 0.010734463 0.008078982 0.011060926 -0.03275136 0.02915142
-0.021144342 -0.02815823 -0.017958859 -0.010078992 -0.0065439567 0.034849457 0.013583462 0.02114561
-0.014034621 0.0073861335 -0.02048717 0.027598156 -0.020775385 -0.02321546 -0.0047184364 0.0066956333
-0.01826359 -0.0076273237 -0.023757875 -0.021988992 0.027587298 -0.02402898 -0.028135851 -0.005828058
-0.006434768 -0.030096054 -0.03277356 0.016085004 -0.028545113 -0.0006247063 0.022964573 -0.012263553
-0.02138696 0.0021218557 -0.024505245 0.023806317 -0.035534196 0.025873028 -0.0082319435 0.020583088
0.010417146 -0.02873493 0.027232694 0.020214735 0.023005763 0.0011539438 -0.017244987 0.016634842
0.0074496316 -0.014669327 0.02900958 0.028677715 -0.006366125 0.009267039 0.0037581562 0.023779627
-0.019080905 0.035434667 0.0013536584 0.018461883 0.0026061903 0.028629655 -0.007792322 -0.013956931
0.003190764 -0.012456302 0.0094141355 0.01620376 -0.023528231 -0.020765973 0.014622715 0.021433646
-0.024276746 -0.018692343 0.025605572 0.012810667 -0.0021464806 -0.014990251 0.017289143 0.016770506
-0.014855176 -0.0060421084 0.021028694 0.018484706 0.022189204 -0.005510634 0.018112557 -0.0139447665
0.0328416 -0.014135355 -0.01238941 -0.030075226 0.02330821 -0.007274888 -0.0026958925 0.024226902
-0.008288122 -0.027668875 0.031025833 0.029377446 -0.011032307 0.03449124 0.03480695 -0.010992229
0.0025122836 0.016939351 0.022487642 0.025424061 -0.031575106 0.024617383 0.017232751 0.017433956
0.014148267 0.035227884 -0.020966066 -0.017300773 -0.02799212 0.0196861 -0.0034137995 0.02566231
-0.00073609274 0.006987034 0.0173199 0.0023099391 0.010671437 0.0014862815 0.0014320413 -0.0007447984
0.004996764 0.0066043935 0.008580737 0.034291413 0.0075571644 -0.030545853 0.016650323 -0.02834364
-0.018269347 0.01996323 0.0050770356 -0.0023436914 0.02539714 0.032891713 -0.03304102 -0.028308379
-0.00097382534 0.02096714 0.033101417 0.034227744 0.0027912988 0.002278953 -0.01821442 0.0068580466
