weight/epoch_4_base_model.model.vit.encoder.layer.6.attention.attention.value.lora_B.default.weight.npy (npy, 24704 bytes, 1 tensors)

array f4 [768, 8]
0	0x3bd45b32	0.006480598
1	0x39f0e6ca	0.00045948318
2	0x3ba1fa79	0.0049431887
3	0xbc63ae44	-0.013896529
4	0x3b98c415	0.0046620467
5	0x3ab3cd66	0.001371783
6	0xbb567135	-0.0032721285
7	0x3cba9828	0.022777632
8	0x3c7d0183	0.015442255
9	0x3bd2fd8d	0.006438917
10	0x3d12a42f	0.03580111
11	0x3c2488fc	0.010042425
12	0xbcb8ce29	-0.022559242
13	0xbd354023	-0.04425062
14	0x3cf9c0d4	0.030487455
15	0xbda845c4	-0.08216432
16	0xbc6cd5a4	-0.014455233
17	0xbbc6197b	-0.006045518
18	0xbcba8b18	-0.022771403
19	0xbb256974	-0.0025239857
20	0x3c5ced86	0.013484364
21	0x3cfcb5d8	0.030848429
22	0xbcaf4152	-0.021393452
23	0x3d68fd59	0.056882236
24	0x3c23b08b	0.009990822
25	0x3af03c49	0.0018328513
26	0x3c5c2e05	0.013438706
27	0xbb6244ad	-0.0034525797
28	0xbc00cc10	-0.007861152
29	0xbc973abc	-0.018460624
30	0x3c1fbd92	0.009749787
31	0xbce01159	-0.027352022
32	0x3c3eed27	0.011653221
33	0x3c101c87	0.008795864
34	0x3ceba42c	0.028764807
35	0xb99dbb0e	-0.0003008474
36	0xbca081aa	-0.019593079
37	0xbd0457ee	-0.03231042
38	0x3cca5eb5	0.024703363
39	0xbd6204ab	-0.055180233
40	0xba8541b4	-0.0010166676
41	0x3bcab75c	0.006186409
42	0x3be669c6	0.007031652
43	0x3b77c8bd	0.0037808858
44	0xbc0a0f3b	-0.008426483
45	0xbc7b27af	-0.0153292855
46	0x3c50487b	0.012712593
47	0xbce65e00	-0.028120995
48	0xbc35f8fc	-0.011106726
49	0x3ad25bee	0.0016049126
50	0xbcacc1df	-0.021088539
51	0xbb6812aa	-0.0035411515
52	0x3c1552fa	0.009114021
53	0x3ccfb8d5	0.02535669
54	0xbca4f298	-0.020135209
55	0x3d431c0f	0.04763418
56	0x3ced0048	0.028930798
57	0x3c45ec8b	0.012080322
58	0x3d5f7754	0.05455716
59	0x3c21e574	0.009881366
60	0xbd09153b	-0.033467513
61	0xbd90523a	-0.070469335
62	0x3d184980	0.03717947
63	0xbdf5c00b	-0.1199952
64	0xbc607547	-0.013699836
65	0xbafd23de	-0.0019313057
66	0xbcc8e142	-0.024521474
67	0xbb834111	-0.0040055593
68	0x3c893133	0.016747093
69	0x3d09cc78	0.033642262
70	0xbc52c4d0	-0.012864307
71	0x3d633847	0.055473592
72	0xbb668628	-0.0035175178
73	0xbae9651c	-0.0017806622
74	0xbb2e7ce5	-0.0026624736
75	0x39c1bbd4	0.00036951771
76	0x3bc83ebe	0.006110995
77	0x3b046094	0.0020199167
78	0x3b677e95	0.0035323252
79	0xbb7d5646	-0.003865616
80	0xbbabc5a5	-0.005242067
81	0xbbcd98e2	-0.0062743286
82	0xbca97e1c	-0.020690016
83	0x3aa2a7a5	0.0012409581
84	0x3c47c9c5	0.012194102
85	0x3cd55b50	0.026044518
86	0xbc994f8d	-0.01871469
87	0x3d4ce4f8	0.05002305
88	0x3c177a58	0.009245478
89	0x3c31959c	0.010838892
90	0x3ce6e989	0.02818753
91	0x3a8f030d	0.0010910943
92	0xbc7f9c15	-0.015601178
93	0xbd109d05	-0.035305995
94	0x3cbd6b6b	0.02312251
95	0xbd7f9b68	-0.062404066
96	0xbc21f735	-0.009885599
97	0xbba199bf	-0.004931658
98	0xbcc14453	-0.02359215
99	0xbb290481	-0.0025790038
100	0x3c5bdd9d	0.013419536
101	0x3cc02ff3	0.023460364
102	0xbc0c37fb	-0.008558269
103	0x3d148e41	0.036268476
104	0xbbad1db6	-0.005283083
105	0xbb935a7c	-0.0044968706
106	0xbc9a8a39	-0.018864738
107	0xba2bd93e	-0.0006555504
108	0x3c4de4dd	0.012566772
109	0x3c980ac3	0.01855982
110	0xbc8ba2eb	-0.017045459
111	0x3d37897e	0.044808857
112	0xbbeaebfb	-0.0071692443
113	0x3b89dec2	0.004207463
114	0xbc07eee5	-0.008296703
115	0xbaa4601c	-0.001254085
116	0x3bf3daa7	0.007441837
117	0x3c2d56a7	0.010579742
118	0xbbe1af6b	-0.0068873665
119	0x3cff0caa	0.031133968
120	0xba439b61	-0.0007461813
121	0xbab4fad4	-0.0013807663
122	0xbc295204	-0.010334495
123	0x3b1fb718	0.0024370607
124	0xbab2b75b	-0.0013634966
125	0x3bb171ec	0.005415192
126	0x3acdc448	0.0015698755
127	0x3c0a1cbf	0.008429705
128	0xbc026772	-0.007959234
129	0xbb744954	-0.0037275152
130	0xbc9664eb	-0.018358668
131	0xbb9b4cdf	-0.0047393884
132	0x3c8998f6	0.01679657
133	0x3ccc3dea	0.024931867
134	0xbcbdc249	-0.023163931
135	0x3d350062	0.04418982
136	0xbb836837	-0.004010226
137	0xbb5d7cc0	-0.003379628
138	0xbbd945e6	-0.006630647
139	0x3b52d7d2	0.0032172096
140	0x3bc318ec	0.0059538987
141	0x3c420552	0.011842089
142	0xbc4a84d9	-0.012360775
143	0x3c9d06df	0.019168315
144	0xbb841b7b	-0.0040315962
145	0x3bc81b70	0.0061067864
146	0xbbf099f8	-0.0073425733
147	0xbb2bf925	-0.002624103
148	0x3bf72775	0.0075425454
149	0x3c40374d	0.011731935
150	0xbaa48956	-0.0012553136
151	0x3ce5f7f0	0.028072327
152	0x3ba899ca	0.005145286
153	0x3ba09275	0.0049002715
154	0x3c460093	0.012085098
155	0xbb9fd86c	-0.0048780944
156	0xbc409712	-0.011754768
157	0xbc8073a3	-0.01568014
158	0x3c423da6	0.011855518
159	0xbd013d84	-0.031552806
160	0xbba9fad7	-0.005187373
161	0xbc40e34b	-0.011772941
162	0xbc3bf356	-0.01147159
163	0xb9f3aba7	-0.00046476463
164	0x3c7c3da0	0.015395552
165	0x3c5bc893	0.01341452
166	0xbc1bee7c	-0.009517308
167	0x3ca9f33e	0.02074587
168	0x3c3ddc78	0.011588208
169	0x3b0a2486	0.0021078899
170	0x3c945598	0.01810722
171	0x3bef72fb	0.007307408
172	0xbc86d950	-0.016461045
173	0xbcd8f2b4	-0.026482917
174	0x3cbc8209	0.023011224
175	0xbd752634	-0.059850886
176	0xbc04f99b	-0.008116151
177	0x398438f4	0.00025219435
178	0xbc153c10	-0.009108558
179	0xba7f33fb	-0.0009735224
180	0x3c15fdec	0.009154778
181	0x3cab46a9	0.020907717
182	0xbc8e15b0	-0.017344326
183	0x3d2f35d9	0.042775963
184	0x3c22bcda	0.009932721
185	0xbbf01e36	-0.00732782
186	0x3c509607	0.012731082
187	0xba0815ca	-0.0005191235
188	0xbc3aa12c	-0.011390965
189	0xbc784bd8	-0.015154801
190	0x3c7287ad	0.014802855
191	0xbcfa4c87	-0.03055407
192	0xbb811ccf	-0.003940202
193	0x3b363585	0.0027802896
194	0x3b25a9c0	0.002527818
195	0xbb136498	-0.0022490378
196	0xba581bbd	-0.00082438794
197	0x3b6cc96f	0.0036130806
198	0xbb1c57b4	-0.0023855986
199	0x3c15bf8c	0.009139907
200	0xbba29e96	-0.0049627526
201	0xbbfc16cf	-0.0076931487
202	0xbbd4ecdb	-0.006497962
203	0x3a5edac4	0.00085012265
204	0x3bed05e3	0.007233368
205	0x3bf22921	0.007390157
206	0xbba0927b	-0.0049002743
207	0x3c71ca2f	0.014757677
208	0x3c349e5d	0.011024085
209	0x3bbc3b8e	0.005744404
210	0x3c89de9a	0.016829778
211	0x3abce381	0.0014411063
212	0xbc741415	-0.014897366
213	0xbcd4d7c5	-0.025981793
214	0x3cb92207	0.022599233
215	0xbd200772	-0.0390696
216	0xbaafb76e	-0.0013406107
217	0x3bfa9803	0.0076475157
218	0xbc07ee27	-0.008296526
219	0xbaaee719	-0.0013344019
220	0x3c0fe1f3	0.008781898
221	0x3c83cf10	0.016089946
222	0xbba5e944	-0.005063208
223	0x3cbe3e98	0.023223206
224	0xbb9e72df	-0.004835471
225	0xbadfaaac	-0.0017064414
226	0xbb9805d8	-0.0046393685
227	0xbb788515	-0.003792112
228	0x3b934837	0.0044946927
229	0x3938df3c	0.00017630769
230	0x3b077a39	0.0020672216
231	0x3b34bfa2	0.0027580042
232	0x3bfb1e42	0.007663519
233	0xbb258e46	-0.0025261804
234	0x3bf4d67a	0.0074718567
235	0xbb337a1f	-0.0027386022
236	0xbb5fd476	-0.0034153736
237	0xbbaa172a	-0.0051907497
238	0x3c2a26a7	0.010385192
239	0xbcb3f8d3	-0.021969235
240	0xbc24d69c	-0.0100609325
241	0xbb5fe1ba	-0.0034161643
242	0xbcccf84b	-0.025020739
243	0xbbe45a3a	-0.0069687637
244	0x3cb0f5b2	0.021601532
245	0x3d12c5e4	0.035833254
246	0xbc91ab32	-0.017781828
247	0x3d8ed179	0.069735475
248	0x39df41eb	0.00042582987
249	0x3b9c0ea8	0.0047624893
250	0xbb268d06	-0.0025413646
251	0xbb5590ab	-0.003258745
252	0x3b7e9a3f	0.0038849262
253	0x3bcaf613	0.006193885
254	0xba726679	-0.0009246837
255	0x3c8bc171	0.017060013
