weight/epoch_5_base_model.model.vit.encoder.layer.6.attention.attention.value.lora_B.default.weight.npy (npy, 24704 bytes, 1 tensors)

array f4 [768, 8]
0.008176661 -0.0002897652 0.006078146 -0.015112565 0.003974502 -0.0007598279 -0.0028912392 0.02171337
0.01802604 0.0069992566 0.041146066 0.0112606175 -0.024992717 -0.05076388 0.034521874 -0.094356865
-0.0157819 -0.0073197507 -0.024294935 -0.002104482 0.013965295 0.03307317 -0.022978986 0.060802616
0.008316383 0.0013205954 0.009883168 -0.0042085573 -0.0059495964 -0.013836063 0.007251676 -0.019167516
0.010896663 0.008472452 0.027385706 -0.0015806812 -0.018198844 -0.030546317 0.023428516 -0.052000225
0.00020195446 0.0071506198 0.009276744 0.0040178085 -0.010000598 -0.018346142 0.015698802 -0.033343118
-0.012656593 0.00064528943 -0.02410599 -0.0037840467 0.0105770435 0.02972922 -0.02286978 0.054153815
0.028003728 0.013420247 0.052675486 0.009496076 -0.033565216 -0.07019411 0.035011426 -0.115664154
-0.014454444 -0.0010794655 -0.025591489 -0.0040518157 0.017117454 0.036103938 -0.013222631 0.057518393
-0.002362866 -0.001887644 0.0006670457 0.0006536163 0.005581815 -0.0016782336 0.0065331203 -0.010246198
-0.0050840015 -0.0059645637 -0.022380244 0.0014986321 0.013467931 0.028756076 -0.020117447 0.054656994
0.0062270286 0.011477914 0.024830824 -0.00022619651 -0.012101082 -0.030463021 0.020703105 -0.053054307
-0.007943778 -0.0043396736 -0.020929739 -0.00087183557 0.011536888 0.018332813 -0.0054762037 0.026644105
-0.0050200066 -0.0044944487 -0.019235509 -0.0006073073 0.013045231 0.017754357 -0.01720517 0.04448821
-0.0070392927 0.0042906073 -0.008809995 -0.0012691604 0.007815492 0.011288049 -0.005758677 0.03311846
-0.0031271153 -0.0029273306 -0.01643026 0.0030479198 0.0015607292 0.012243402 -0.0020684884 0.019010764
-0.010005977 -0.00450511 -0.022473745 -0.005830148 0.01980049 0.030508865 -0.029404733 0.054130916
-0.006852912 -0.0046578376 -0.01287825 0.0032537326 0.010016674 0.020200962 -0.017584896 0.031699046
-0.0061027226 0.0065914528 -0.012421677 -0.0038376246 0.011151843 0.01636182 -0.004296128 0.03898055
0.0069943625 0.0049176887 0.015851127 -0.0043615396 -0.014436205 -0.020299489 0.014230318 -0.040623184
-0.0057294723 -0.013820891 -0.012640803 -0.00029336667 0.017648192 0.0155857885 -0.01056409 0.025324129
0.011013701 0.0024552345 0.017663384 0.0074995672 -0.016077891 -0.02544769 0.02377776 -0.060100712
-0.0136603145 -0.00011076222 -0.018702954 -0.003332374 0.015008503 0.033986684 -0.026930466 0.068761155
0.012735744 -0.0073937364 0.017592855 0.0006192557 -0.015629949 -0.021249868 0.018470503 -0.043176122
-0.0053912387 0.0028349983 0.00049099984 -0.003527865 0.0010404766 0.0067366906 -0.003782805 0.016901093
-0.006294939 -0.009353837 -0.009014758 0.0010573792 0.009764247 0.010432323 -0.006045367 0.02030263
0.010190369 0.00593424 0.013441315 0.0009146556 -0.013529873 -0.02355731 0.022165334 -0.03423285
-0.0014665533 0.008124479 -0.011235736 -0.0017143647 0.011118778 0.019614724 -0.006560043 0.02942916
-0.004926414 -0.0030302557 -0.005571488 -0.0051444904 0.0052684876 0.00068888103 0.002119724 0.005772454
0.010951517 -0.0023837776 0.0117361555 -0.0027006662 -0.005538479 -0.011348874 0.014350505 -0.03275967
-0.009265367 -0.0034915332 -0.02408121 -0.007965442 0.022026831 0.0362999 -0.016714498 0.071577735
0.00022719632 0.006111015 -0.0038965198 -0.004144424 0.0051000514 0.00836563 -0.002588211 0.02100084
00000000: 67f7 053c a0eb 97b9 2f2b c73b b19a 77bc
00000010: 8a3c 823b 302f 47ba f27a 3dbb 3de0 b13c
00000020: 59ab 933c 055a e53b c788 283d 747e 383c
00000030: 87bd ccbc c9ed 4fbd cf66 0d3d 2c3e c1bd
00000040: 0b49 81bc 85da efbb 2c06 c7bc 59eb 09bb
00000050: b1ce 643c bb77 073d 6d3e bcbc 2a0c 793d
00000060: 7041 083c d417 ad3a 03ed 213c f0e7 89bb
00000070: d5f4 c2bb a8b0 62bc 789f ed3b 3205 9dbc
00000080: eb87 323c 0ad0 0a3c fd57 e03c dc2e cfba
00000090: be15 95bc 453c fabc 29ed bf3c 30fe 54bd
000000a0: bdc3 5339 bf4f ea3b 7cfd 173c d2a7 833b
000000b0: 8cd9 23bc a64a 96bc c69a 803c cb92 08bd
000000c0: 995d 4fbc a428 293a ed79 c5bc c5fd 77bb
000000d0: 564b 2d3c b18a f33c 6859 bbbc 64d0 5d3d
000000e0: 1368 e53c 98e0 5b3c 40c2 573d 6e95 1b3c
000000f0: ae7b 09bd eec1 8fbd 2468 0f3d 54e1 ecbd
00000100: 55d2 6cbc da7c 8dba 3ea5 d1bc 18c5 84bb
00000110: e739 8c3c b9e1 133d bca3 58bc 6898 6b3d
00000120: 50da 1abb d26a f7ba aedc 2e3a 7357 2b3a
00000130: a8e7 b63b 2df8 dbba c913 d63b abdf 27bc
00000140: b297 a6bb 6372 c3bb c656 b7bc c06d c43a
00000150: 99a8 5c3c dd91 eb3c 58cd a4bc 03e0 5f3d
00000160: 1a0c cc3b dc0d 3c3c 036a cb3c 2a2f 6db9
00000170: 9e43 46bc 968d f9bc 8f99 a93c 794f 59bd
00000180: 9f26 02bc d233 8ebb d874 abbc e58b 64ba
00000190: 3705 3d3c b22e 963c ba71 b3bb bd44 da3c
000001a0: de7e a4bb 2b46 93bb c993 9dbc b433 1fba
000001b0: aabb 553c 9671 913c dbf1 8cbc 4539 363d
000001c0: dea9 e6bb 3998 8c3b cc57 10bc f559 a6ba
000001d0: 8d0c 003c 82f1 383c 49b3 bcbb 39a7 073d
000001e0: 4af0 4cbb 75d8 3fbb c198 86bc 9cbf 473b
000001f0: 6291 cc3a 8d98 483c 7a8f 07bb 76bc 9b3c
00000200: 1cf0 23bc 9a9f 93bb dc1a b8bc d30a bfbb
00000210: a334 a23c baed f93c 32e2 f0bc 61b8 5d3d
00000220: 648e e0bb c6a0 98bb 4cff 52bc 933c 553b
00000230: fa1c 243c 7d7c a53c 330e 90bc dcd6 013d
00000240: 59f9 c7bb 1dfd d73b 4a84 4bbc a880 7bbb
00000250: 38b6 363c 3909 863c 89c6 8cbb 12aa 1f3d
00000260: f730 e53b 9024 a13b 39da 813c 3feb 8ebb
00000270: d585 6cbc 1d4b a6bc 4826 693c 7f64 26bd
00000280: 4cbe bbbb 0571 62bc 5f1b 4fbc 02cf 99b9
00000290: f192 903c 895b 7f3c 0115 2dbc 8c74 cf3c
000002a0: cf72 343c 00e8 203b cdb2 903c eebe f53b
000002b0: c8b5 83bc ad77 d0bc 94c9 c23c 2a2c 76bd
000002c0: 83cf 5fbc 0449 e8b8 f036 99bc f563 5abb
000002d0: 39e6 753c 9f35 0b3d 489d dcbc a6d2 8c3d
000002e0: 95a9 503c 2847 f2bb e41e 903c 8c55 223a
000002f0: 610a 80bc 3414 aebc 744f 973c 72d9 30bd
00000300: fda8 b0bb 61cb 393b 71b6 003a c133 67bb
00000310: 9a60 883a 75bf dc3b f0e8 77bb 2974 8a3c
00000320: c745 cebb d640 19bc a3b2 13bc c297 8a3a
00000330: 38fa 1f3c 56ec 2a3c 3718 c6bb b351 a63c
00000340: 81f5 263c 0374 c23b f638 5c3c 80c5 6f3a
00000350: 67ac 5dbc 43fb c0bc 1394 b53c bf37 0cbd
00000360: 5d39 c0ba 891c 053c 1816 38bc 89b4 e0ba
00000370: 892b 363c 0faf a03c a1f5 d6bb 6c15 f13c
00000380: c26d a1bb 4197 46bb 0791 b6bb 1d93 a8bb
00000390: 47a3 ac3b 0696 343a 11eb 0a3b db26 bd3b
000003a0: fe6d 333c 2739 1cbb 0149 403c a9fd 30bb
000003b0: 217c b5bb a1f0 39bc 611e 6b3c 012f 06bd
000003c0: c4cd 17bc 35d2 64bb f545 c5bc 7c81 02bc
000003d0: 9d71 b43c 34af 143d d8ec 88bc 5997 923d
000003e0: 8c3b 6e39 e93e c83b c15c 7fbb f3cd 87bb
000003f0: 551e a73b ff0f 093c fa9e 29bb f409 ac3c
