weight/epoch_8_base_model.model.vit.encoder.layer.8.attention.attention.value.lora_B.default.weight.npy (npy, 24704 bytes, 1 tensors)

array f4 [768, 8]
000000 b0 78 28 3c 2e 3e df 3b 98 55 09 bc aa e0 7c bb
       0.01028268 0.0068128323 -0.008382224 -0.0038586059
000010 8a b2 33 3b 40 4b fc 39 d5 78 eb bb 8d 98 f6 3b
       0.002741965 0.0004812125 -0.007186035 0.0075255097
000020 68 01 83 bb 31 5d 4b bb 2d 79 5c 3a c3 d3 5a bc
       -0.0039979704 -0.0031030888 0.00084103906 -0.013356152
000030 91 ad a9 3c 35 e2 54 3c 5e fe 26 bb fe ba e8 bb
       0.020712646 0.012993385 -0.0025481205 -0.0071023693
000040 bc 04 9d ba 37 2c 8b bb 94 f5 47 3b 66 2a 03 3c
       -0.001197956 -0.004247214 0.0030511366 0.008005714
000050 06 93 1c bc 98 be 53 bb 94 e7 96 ba 52 67 10 39
       -0.0095565375 -0.0032309648 -0.0011513107 0.000137714
000060 b6 31 8f bb b6 c1 a8 39 2c 6a a5 3b 14 1e 34 3c
       -0.0043699397 0.00032187783 0.005048057 0.010993499
000070 ea ff 16 bc dd 61 8d bc 7e 40 88 38 93 65 98 3b
       -0.009216288 -0.017258579 6.496998e-05 0.0046507805
000080 25 7e 5a 3a 85 ca 23 3b 37 6e 4a bc 4d 00 06 3b
       0.0008334837 0.0024992537 -0.012355379 0.0020446957
000090 f1 2c 0c 3c 75 a4 e6 3b e8 af 1b bc 35 62 8b 3b
       0.008555637 0.007038648 -0.009502389 0.0042536505
0000a0 6d e6 d5 bb e1 95 91 bb 73 63 3d 3c 33 49 bd b9
       -0.006527713 -0.004442916 0.011559355 -0.00036103427
0000b0 25 f2 a9 bb 5d d4 aa bb 9c 37 22 3b 6d 30 53 bb
       -0.0051863366 -0.005213304 0.0024752384 -0.003222491
0000c0 ab 5f 18 bc 3a 4c 30 3a d2 0d 67 3c da 17 b8 3c
       -0.009300153 0.0006725226 0.014102416 0.02247231
0000d0 08 28 72 bc 9e 3c 94 bc fd 35 3d 3b c9 d5 9e bb
       -0.014780052 -0.01809531 0.002887129 -0.0048472625
0000e0 ae e0 da 3b a6 82 95 3a 72 0e 54 bb 2b 7b a0 bc
       0.006679616 0.0011406734 -0.0032357243 -0.019589981
0000f0 95 d9 ec 3c 4f 44 05 3d 82 8c 45 bc d8 f9 61 bb
       0.028912345 0.032535847 -0.012057425 -0.0034481194
000100 4b e1 b2 bb 53 86 41 bb 99 9c 12 3c db 06 a1 3c
       -0.005458986 -0.0029529526 0.008948469 0.01965659
000110 51 59 5c bc 0a 22 aa bb 70 ae ec 3b 7b e6 75 bb
       -0.013449029 -0.005192046 0.007222943 -0.003752141
000120 eb 9c 19 b9 3a 18 69 bb 75 33 43 bb 5f ba 71 bc
       -0.00014649674 -0.0035567419 -0.002978531 -0.014753907
000130 88 33 55 3c 06 16 67 3c f9 1b f0 3a 13 4d 03 bb
       0.013012774 0.014104372 0.0018318883 -0.0020034953
000140 c3 7c f7 3c 4a b9 fc 3b 7c c5 53 bd 82 96 5b bd
       0.030210858 0.007712518 -0.051702008 -0.053610332
000150 b5 69 58 3d ba 45 cc 3c 9d cf e5 bc 81 6b d5 3c
       0.052835185 0.024935592 -0.0280531 0.026052238
000160 c7 1f df bb 1a 40 a3 bb 77 bf 53 3c b2 10 85 3c
       -0.006809208 -0.0049820067 0.012924067 0.016243313
000170 79 89 ad bc bf 1a 9f bc b6 68 00 3c ed 2e 4d bb
       -0.021183716 -0.019421933 0.007837465 -0.0031308488
000180 c8 a7 29 bb b8 43 ef b9 11 47 69 3c 5f 2d 8e 3c
       -0.002588736 -0.00045636087 0.014238135 0.017355619
000190 eb 72 c0 bc 8e a3 b4 bc 71 e2 16 3c 3b 98 ba bb
       -0.023492297 -0.022050645 0.009209261 -0.005694417
0001a0 1f b6 bb bc f0 76 2c bc c2 c8 c9 3c 7a 28 d1 3c
       -0.02291399 -0.010526404 0.024631862 0.025531996
0001b0 11 88 ee bc 9a ec a2 bc 09 23 8e 3c 6a ab 65 bc
       -0.029117616 -0.019888211 0.01735069 -0.014017919
0001c0 2f 54 3f 3b 61 b3 44 3b e3 73 fa bb 78 69 98 bb
       0.0029194464 0.0030014145 -0.0076432093 -0.0046512447
0001d0 27 72 63 3b 56 4f d1 b9 bd 21 0f bc b0 87 72 3b
       0.0034705491 -0.00039922696 -0.008736071 0.0037007146
0001e0 fc 58 3e 3c b2 f0 3d 3a 6f 37 3c bc 71 14 4a bc
       0.011617895 0.0007245644 -0.011487826 -0.012333975
0001f0 ea e8 21 3c 66 17 19 3c d8 b6 a8 ba 00 0a c4 3b
       0.009882191 0.0093439575 -0.0012871874 0.0059826374
000200 17 98 31 3c c1 3e b4 3b b7 33 a5 bc a4 d6 b9 bc
       0.010839484 0.005500645 -0.020166261 -0.022685356
000210 fc 8e a9 3c e0 ed e0 3b 05 d9 35 bc db c5 0b 3c
       0.020698063 0.0068642944 -0.011099105 0.008531059
000220 1d de a1 39 76 03 c9 ba 91 a7 28 3c 10 e3 81 3c
       0.000308738 -0.0015336114 0.010293857 0.015855342
000230 bc d5 91 bc 8d 5a 6d bc 43 f2 0c 3c a2 95 78 ba
       -0.017802112 -0.014486921 0.008602682 -0.0009482746
000240 ea d1 a4 3b bf 3d b5 3b 4a 2a 70 bc 84 48 97 bc
       0.0050299065 0.0055310423 -0.01465852 -0.018467195
000250 7c d4 73 3c 4b 55 76 3b ff d9 ec bb 06 fc 34 3c
       0.014882203 0.003758746 -0.0072281356 0.011046415
000260 38 8f 3e ba a9 8a 4c 3a 60 34 c2 bb f5 3b ce ba
       -0.0007269266 0.00078026444 -0.0059266537 -0.0015734421
000270 9c 3b 18 3c 09 66 d2 3b 38 6e 8e bb 0f db 7e 3b
       0.009291556 0.006420855 -0.004346635 0.0038887893
000280 26 2f 56 3c 3e c6 95 3a 2c f0 94 bc 38 1c 8d bc
       0.0130727645 0.0011426879 -0.01818093 -0.01722537
000290 62 79 a6 3c 0f 5d 3b 3c e1 51 54 bb 94 84 0e 3c
       0.020321552 0.011435761 -0.0032397436 0.008698601
0002a0 8a e1 72 bc 73 25 20 bc 86 d3 af 3c 81 07 77 3c
       -0.0148242805 -0.009774554 0.021463167 0.015077473
0002b0 fa 22 95 bc f8 fe 11 3a ee 41 04 3c 20 f1 21 bc
       -0.018205155 0.00055693043 0.0080723595 -0.009884149
0002c0 d9 fc 8c 3b 85 bd d0 b9 08 5d 1f bc ab df 95 bc
       0.0043026027 -0.00039814055 -0.00972677 -0.01829513
0002d0 a2 52 8e 3c 29 32 57 3c 84 42 00 bc 8f ed f6 b8
       0.017373387 0.013134518 -0.007828359 -0.00011774443
0002e0 21 9a ad 3b c0 02 ef 3a fb 3e 27 bc fb 78 f4 ba
       0.0052979146 0.0018235072 -0.010207887 -0.0018651778
0002f0 78 7b 18 ba a7 84 16 bb 8d 34 81 bb e2 db 0d 3b
       -0.0005816738 -0.002296725 -0.003943032 0.0021645953
000300 76 3d 8f 3b 50 d9 84 bb fd a3 d9 bb a3 71 f2 bc
       0.0043713404 -0.004054226 -0.0066418634 -0.029595202
000310 79 1e 17 3d 08 d1 c4 3c ce c9 2a bc 4f d6 9c bb
       0.036894295 0.024025455 -0.010424091 -0.0047862898
000320 b1 68 32 3b 03 be a2 3a be 0e d8 bb ba bd a4 bc
       0.0027223045 0.0012416247 -0.0065935543 -0.02011
000330 60 4c 8b 3c 8b 84 80 3c 6b 51 18 bb f4 9d 7c bb
       0.017004192 0.015688201 -0.0023241888 -0.0038546296
000340 bf 4d bc ba d9 f6 14 bb c4 38 4c bb a5 ab 1b bc
       -0.0014366432 -0.002273014 -0.0031161765 -0.009501372
000350 ec bc 0e 3c 27 41 1a 3b 4d 5b a7 39 81 1b 00 3b
       0.008712035 0.002353737 0.00031920747 0.0019547644
000360 c8 61 22 bb 5e e3 64 ba f5 76 0f ba 43 35 8b 3b
       -0.002477752 -0.000873139 -0.0005472743 0.0042482927
000370 1e 50 b8 bb 58 6b 1a 3a 78 8b 29 bb 10 28 6e b9
       -0.005624785 0.0005890629 -0.0025870483 -0.00022712373
000380 2e 84 2f 3a b9 d0 52 38 77 55 16 3b b2 3f 06 bc
       0.00066954165 5.026229e-05 0.0022939125 -0.008193897
000390 53 68 6d 3b 94 70 a6 ba d8 fa 5d b9 02 52 37 3b
       0.0036225512 -0.0012698346 -0.00021169649 0.0027972464
0003a0 cb 60 6b 3c b3 a9 d7 3a e9 5f 19 bd 4e d3 27 bd
       0.014366339 0.0016453773 -0.037444983 -0.040973
0003b0 8e a8 3a 3d 5a be 13 3d 2c c0 a9 bc c6 eb 3c 3c
       0.045570903 0.036070205 -0.020721518 0.011530822
0003c0 1f de 49 3a 30 c9 41 ba 75 6a b4 bb ff 37 fe 39
       0.000770064 -0.0007392345 -0.0055058547 0.00048488376
0003d0 2f 36 23 3a bc 33 cb b9 b9 d3 26 bb b7 97 96 3b
       0.00062260305 -0.00038757722 -0.0025455786 0.0045957225
0003e0 9b 4e 0f 3c 75 18 91 3a ca b4 b2 bb 76 19 b1 bc
       0.008746768 0.0011069911 -0.0054536806 -0.021618586
0003f0 3f 16 74 3c f0 91 9e 3b 0b 68 06 bc 57 5e ca 3b
       0.014897882 0.0048391744 -0.008203517 0.006175797
