weight/epoch_7_base_model.model.vit.encoder.layer.7.attention.attention.query.lora_B.default.weight.npy (npy, 24704 bytes, 1 tensors)

array f4 [768, 8]
000000 0c dc 0a b9 27 9e a0 39 0f 5a 9c b8 e8 82 bc ba
       -0.0001324268 0.0003063541 -7.4554344e-05 -0.0014382275
000010 09 be a5 ba da 87 10 bb e7 cf 10 3a 04 3e 98 b8
       -0.0012645136 -0.002205363 0.0005524144 -7.259476e-05
000020 63 e4 61 39 85 31 a9 b9 d2 22 2f 3a 84 12 09 3b
       0.00021542753 -0.00032271087 0.0006680909 0.0020915577
000030 1f f0 a3 39 2f 96 f2 b9 0e ac e2 ba 87 c4 4e ba
       0.00031268687 -0.00046269732 -0.0017293708 -0.0007887561
000040 ad bc 4c 39 c7 a8 1c bb 45 aa de ba e0 1a bb ba
       0.00019525243 -0.002390431 -0.0016988 -0.0014274977
000050 c8 4e 89 3a 6d b1 ae 39 85 dc 51 3a a7 98 a5 ba
       0.0010475749 0.0003332006 0.0008005577 -0.0012633995
000060 8b 32 f4 39 22 2f c6 3a 59 c0 c3 38 04 d3 85 ba
       0.00046576964 0.0015120248 9.334152e-05 -0.0010209982
000070 f1 54 fb ba 60 07 04 bb 41 4b 80 38 e7 25 5b 39
       -0.0019175095 -0.0020145997 6.117533e-05 0.00020899587
000080 a0 6b 53 ba 05 c5 26 3b 44 8a 9c 3a 9b dc 83 ba
       -0.00080650486 0.0025447023 0.0011943062 -0.0010060252
000090 dd c3 03 bb 56 85 c8 ba 4b 2e 0b bb 96 43 38 b8
       -0.0020105757 -0.0015298526 -0.002123731 -4.3931963e-05
0000a0 69 e1 a9 b9 52 e6 9b 3a 41 76 9f 39 91 82 4a b9
       -0.00032402136 0.0011894202 0.0003041495 -0.00019312861
0000b0 36 a7 2f 3a e5 1d f8 b9 41 33 f1 39 69 3f 3c 3a
       0.00067006366 -0.0004732452 0.0004600529 0.000718108
0000c0 58 75 b1 39 d1 3e d6 ba 40 f2 29 3a c0 02 18 3b
       0.000338475 -0.0016345625 0.00064829364 0.0023194999
0000d0 d8 75 0f 3a 4e 23 5f 3b d7 56 d9 b9 3b 6c 9d b9
       0.0005472577 0.0034048143 -0.00041454166 -0.00030026012
0000e0 a0 a2 b3 b9 ad 81 0c 3a 11 62 8c 39 4d 11 b5 ba
       -0.00034262706 0.00053598994 0.00026775946 -0.001381436
0000f0 c2 50 15 b9 37 a0 27 3a 9c 92 bb 39 94 d1 9a b7
       -0.00014239832 0.00063944183 0.00035776652 -1.8455823e-05
000100 b1 81 da 39 d8 28 5b b8 45 4b b1 ba df bb 2c ba
       0.00041676828 -5.2251708e-05 -0.001352646 -0.0006589274
000110 48 d4 0c ba a5 d9 14 ba 4a 32 86 39 77 0e 0a ba
       -0.00053722085 -0.00056781835 0.0002559594 -0.00052664377
000120 75 07 23 3a 2c 33 d5 b9 64 0a 5e ba 4d 54 8b b9
       0.0006219068 -0.00040664652 -0.0008470176 -0.00026574955
000130 28 93 3a 39 b7 9d 2f 3a 4b 73 a2 39 8a d4 40 ba
       0.00017793162 0.00066992216 0.00030984948 -0.00073558895
000140 4e c6 fc b9 89 0d d0 b9 95 07 26 3a 05 17 aa b8
       -0.00048212934 -0.00039682936 0.0006333527 -8.1105194e-05
000150 e3 ca 3d ba 15 cd a2 ba 8e 29 1f ba a7 7f 39 ba
       -0.00072400103 -0.0012420738 -0.0006071561 -0.00070762116
000160 39 cb a9 39 c6 14 f1 39 a2 a9 11 3a 83 25 0e 3a
       0.00032385605 0.0004598258 0.00055565883 0.000542246
000170 2e 43 59 39 02 f4 b5 b9 d9 25 62 3a d9 6d a3 39
       0.00020719759 -0.0003470481 0.00086268556 0.00031171626
000180 88 a0 5e ba d3 ad 9c 3a ad a4 8d 39 98 53 fb ba
       -0.0008492549 0.0011953659 0.0002701631 -0.0019174693
000190 25 f6 e3 ba 1d 33 99 ba aa 5f 44 39 cc 05 a1 ba
       -0.0017392082 -0.0011688207 0.00018727654 -0.0012285053
0001a0 ee 23 34 ba 02 b7 d3 b9 b6 6a 0d 3a fb 4e 68 3a
       -0.0006871809 -0.00040381408 0.00053946243 0.00088618667
0001b0 27 5d 86 b9 78 d8 63 ba b8 1d 9d ba a3 c6 0f b7
       -0.00025627876 -0.0008691619 -0.0011987006 -8.569713e-06
0001c0 4a 4d 98 b9 06 be d7 39 c1 95 d9 39 f5 9c 81 39
       -0.00029049284 0.00041149574 0.0004150104 0.0002472174
0001d0 cb 1d 16 b8 ba 78 33 ba 94 04 b2 b9 72 44 92 39
       -3.5790534e-05 -0.0006846298 -0.00033954217 0.00027898286
0001e0 f4 28 91 38 16 6a af 3a d5 44 cc 39 86 97 b8 38
       6.921767e-05 0.0013383057 0.00038961196 8.802027e-05
0001f0 51 62 aa ba 7e f9 e7 ba 44 e4 bf b9 45 b2 14 3a
       -0.0012999271 -0.0017698256 -0.0003660043 0.0005672316
000200 18 b7 35 39 00 ad 1d ba 39 4c a9 38 5e b5 d9 3a
       0.00017329713 -0.0006014854 8.0727455e-05 0.0016609838
000210 9e 36 8a 3a a1 1d 70 3b 45 ca 4f b9 a1 1f 03 3b
       0.0010544842 0.0036638754 -0.0001981641 0.0020007866
000220 0f 20 a9 39 5c 7f d0 b9 18 46 6b ba 85 eb 49 b9
       0.00032258077 -0.00039767742 -0.00089749834 -0.00019256592
000230 c7 64 3b 3a a5 c4 f4 b9 00 83 e9 38 fd e6 1a ba
       0.0007148501 -0.00046685818 0.000111347064 -0.0005909054
000240 6b f8 11 39 52 7a 36 b9 d2 35 af 37 43 8c 6e ba
       0.0001392082 -0.0001740244 2.0886688e-05 -0.000909988
000250 ed 96 05 3a 7e b1 43 3a bb 5c 56 ba 4e 14 15 b9
       0.0005096037 0.0007465108 -0.000817727 -0.00014217311
000260 b5 be 3f b9 5e e2 9d 3a e9 da 77 b9 c7 00 94 ba
       -0.00018286223 0.0012045612 -0.00023637306 -0.0011291736
000270 37 53 03 bb 4a 4f 17 bb 84 e3 9e 38 97 69 b5 37
       -0.0020038614 -0.0023088031 7.576405e-05 2.162605e-05
000280 29 d0 a0 39 23 7c 31 b9 e8 93 0f 39 39 6f 0f b8
       0.0003067267 -0.0001692628 0.00013692642 -3.419744e-05
000290 02 6b 16 39 95 53 87 3a e7 61 3f ba 38 ef b0 39
       0.00014344978 0.0010324592 -0.00073006604 0.00033747568
0002a0 ae 16 58 b8 a0 58 65 3a 6a 01 bf 3a f9 d2 e5 3a
       -5.1519535e-05 0.0008748863 0.0014572565 0.0017534188
0002b0 56 39 8d b9 1c 32 2e 3a 48 b7 1b bb 1e 9a e8 39
       -0.00026936334 0.000664504 -0.0023760367 0.00044365315
0002c0 74 b8 a3 39 98 e5 ca ba 0c 87 52 ba a3 0d 03 ba
       0.0003122721 -0.0015479801 -0.0008030988 -0.00049992854
0002d0 2c b4 16 39 ff 7c 2c 3a a7 07 d5 b9 bf 84 3c 39
       0.00014372234 0.0006579905 -0.00040632227 0.00017978529
0002e0 39 70 99 39 b1 9f 76 ba f7 1f f1 39 b2 39 aa 3a
       0.00029266046 -0.0009407951 0.00045990918 0.0012987165
0002f0 5e be 93 3a 48 b7 25 3b c3 cb 64 ba d9 06 67 ba
       0.0011271944 0.0025286246 -0.00087278726 -0.0008812971
000300 a2 7f 32 b8 b8 7e c7 3a b2 1b 2b ba f1 65 bd ba
       -4.2557374e-05 0.001522026 -0.0006527259 -0.0014449937
000310 74 fb 01 bb f5 17 23 bb 7e 0a e2 b7 f0 8a 38 ba
       -0.0019833716 -0.0024886106 -2.6946185e-05 -0.0007039746
000320 d3 64 d1 39 e3 99 91 b9 52 98 23 3a a0 b1 ed 3a
       0.00039938706 -0.0002777121 0.0006240654 0.0018134601
000330 a7 9c 23 3a 89 cb 14 3a 5d d6 55 b9 dd b0 82 b9
       0.00062412996 0.0005676081 -0.0002039312 -0.00024927306
000340 ca 58 6d 39 ae c8 aa b9 7e 98 10 bb 78 86 22 bb
       0.00022635158 -0.00032574445 -0.0022063549 -0.0024799388
000350 89 31 fa 39 58 6c 0d ba c2 6d 08 3b 62 2f 33 39
       0.00047720622 -0.00053948676 0.0020817374 0.00017088422
000360 3c d8 0d 3b ba ae e0 ba 65 4c 02 ba 44 ed 0d 3b
       0.0021643778 -0.0017141916 -0.000497049 0.0021656314
000370 0e 48 0e 3a f8 80 b4 3a 00 b3 0f b9 90 d9 d4 3a
       0.0005427607 0.0013771346 -0.00013704225 0.0016239155
000380 28 c4 57 ba 76 05 95 3b 27 e1 c1 3a 60 8b 8d ba
       -0.00082308287 0.00454777 0.0014791832 -0.0010798983
000390 9d a1 86 bb 6e a9 88 bb 93 05 ab ba c3 d8 17 ba
       -0.0041086213 -0.004170588 -0.0013047926 -0.0005792493
0003a0 2f 80 9e 3a ad 0f 7d bb 51 c3 8f ba 84 9c 2d 3b
       0.0012092645 -0.003861408 -0.0010968243 0.0026490996
0003b0 71 92 87 3b f2 88 d4 3a b0 61 2a 3a 09 ac 3a 38
       0.00413733 0.0016215129 0.0006499542 4.4506076e-05
0003c0 c0 57 d4 ba 05 82 b2 39 93 c8 ea 3a de 2a d4 b6
       -0.0016200468 0.00034047678 0.0017912559 -6.3230827e-06
0003d0 f8 11 55 38 03 90 90 39 33 de d6 b9 28 5f 6f 3a
       5.0799892e-05 0.00027573117 -0.00040982812 0.0009131306
0003e0 8f 78 ec 3a b2 bf a1 bb f7 8d 06 bb f2 4f c6 3a
       0.00180413 -0.004936182 -0.0020531395 0.0015130027
0003f0 d5 b8 93 3b 7c 53 46 3b 3d 35 03 3b f2 e8 80 3a
       0.0045081177 0.0030262163 0.0020020746 0.0009835048
