weight/epoch_10_base_model.model.vit.encoder.layer.10.attention.attention.query.lora_A.default.weight.npy (npy, 24704 bytes, 1 tensors)

array f4 [8, 768]
0.03042375 0.03462109 0.0064559425 0.0019981246 -0.031666886 0.042948626 0.0030597094 -0.0036024186
0.025502572 0.0040684687 -0.03420384 0.0011418189 0.01205691 -0.007629427 -0.0029400869 0.03844042
0.022408776 0.004617195 -0.0067237183 0.009228687 -0.017311048 -0.014177457 -0.020157246 -0.037011646
0.02632982 -0.028206268 0.019455465 0.016640317 0.04376894 -0.0071707265 -0.021836832 0.00014668921
0.013243366 -0.009558396 -0.022809956 -0.021977467 0.015630124 -0.011865718 -0.0055436166 -0.028350728
-0.015938576 0.022095459 -0.014272101 0.02303061 -0.013680694 0.029107653 0.020365113 0.01623513
-0.03557514 0.029481472 -0.028611237 0.010831602 -0.020084029 -0.024161985 0.029628335 -0.023713797
0.023113845 -0.010704381 0.009271601 0.0026358538 0.0068644974 0.0073300875 -0.02992251 -0.0301515
-0.02450026 -0.00027171744 0.017020699 0.0033598503 0.007138841 0.014498182 0.03227227 -0.013705399
0.024121491 -0.017103065 -0.03816505 -0.028745558 -0.024416083 0.020622982 0.027294459 -0.028856928
-0.008130716 0.0005983436 0.00021814881 0.026725063 -0.014929968 0.032746162 0.061618507 -0.015927792
-0.011019261 -0.019574637 -0.031617265 0.0070201363 -0.0005701823 0.02040732 -0.0010578849 0.0011765582
0.016110983 -0.03503265 -0.017536111 -0.031921625 -0.003912029 -0.032378696 -0.041702107 -0.028240528
0.010085514 0.03293563 -0.008681459 -0.018052071 -0.011347308 0.022781411 0.001957057 -0.0009967153
0.005356529 -0.029655436 -0.027025074 -0.032069813 -0.021252124 -0.013346515 -0.015174326 -0.020593926
0.020917676 0.009297243 -0.015089087 0.014741408 0.00972354 -0.028839692 0.05302568 -0.009710407
-0.0031350665 0.013540224 -0.037225977 0.025434887 -0.029720424 -0.036776856 0.016621137 -0.028297756
0.0156745 -0.00068814337 0.022986675 0.026450425 -0.0141818 -0.025779914 -0.0129341595 -0.0031754968
0.029922778 0.016764048 0.017708022 0.013797163 0.03062814 0.021812927 0.019398946 0.009180611
-0.001765848 0.020307895 0.035662357 -0.027622506 -0.023504067 0.033190325 -0.01658652 -0.02074456
0.033115532 -0.026685447 0.002953992 0.016203523 0.0035535172 -0.0125322975 -0.009792881 -0.0007646895
0.019896125 -0.026429707 -0.019530743 0.032977205 -0.009932186 0.03008231 0.004768678 0.036710117
-0.015769135 -0.008496246 0.023877965 -0.028250344 -0.018505652 0.00068683206 0.035106625 -0.0030459766
0.0029715449 0.0003590138 -0.032103997 -0.02942054 0.00088102446 -0.035453442 0.009983292 -0.009523635
0.012648424 -0.041062664 -0.024880819 -0.047406197 -0.020984977 0.0059761186 -0.010070205 -0.021951752
0.019785296 0.016248273 -0.036972176 0.02089338 0.039120827 -0.033541583 0.012284826 0.0035641238
-0.03155328 0.0013977651 0.027449898 0.013312963 -0.04133333 0.008462599 -0.01952402 -0.018265279
0.025232008 0.0157736 0.0035628767 -0.026901567 0.0023636376 0.023034077 0.0028363923 -0.015397193
-0.008741642 -0.01945717 -0.02859575 0.032091096 0.022428082 -0.028165 -0.02503835 0.010928414
-0.014036232 0.028956449 -0.0022865296 -0.0044916635 0.005691785 -0.0002830817 0.01696921 0.035908382
-0.010493131 -0.00014467101 -0.023382114 -0.018110437 0.024417836 -0.011731919 0.027205873 0.004827795
-0.015267683 0.016422184 -0.0016932753 0.014140943 -0.007812038 0.025288882 -0.008904227 -0.041866504
00000000: 3a3b f93c d8ce 0d3d 5f8c d33b f8f2 023b
00000010: 23b5 01bd e6ea 2f3d 6885 483b 8e16 6cbb
00000020: c5ea d03c ca50 853b 5319 0cbd 16a9 953a
00000030: 598a 453c 4600 fabb 79ae 40bb b473 1d3d
00000040: 9c92 b73c d74b 973b a352 dcbb eb33 173c
00000050: e6cf 8dbc 9148 68bc cf20 a5bc 8699 17bd
00000060: a2b1 d73c d510 e7bc 1161 9f3c 4651 883c
00000070: 0f47 333d 6af8 eabb 28e3 b2bc 96d0 1939
00000080: b4fa 583c d29a 1cbc f2db babc 170a b4bc
00000090: bf0a 803c 6e68 42bc 3aa7 b5bb c93f e8bc
000000a0: 9e91 82bc 8901 b53c 88d5 69bc b1aa bc3c
000000b0: fd24 60bc 2c73 ee3c bdd4 a63c 89ff 843c
000000c0: 3db7 11bd 2183 f13c 1d62 eabc 0877 313c
000000d0: 4387 a4bc 5bef c5bc 1fb7 f23c 7043 c2bc
000000e0: 3f59 bd3c 6e61 2fbc eae7 173c 4abe 2c3b
000000f0: 94ef e03b 3b31 f03b 0d20 f5bc 4700 f7bc
00000100: c5b4 c8bc 4c75 8eb9 fe6e 8b3c ef30 5c3b
00000110: f0ec e93b c889 6d3c ee2f 043d 9c8c 60bc
00000120: 6f9a c53c ba1b 8cbc f552 1cbd ce7b ebbc
00000130: 3d04 c8bc 87f1 a83c a198 df3c 5d65 ecbc
00000140: b236 05bc 29da 1c3a e0be 6439 85ee da3c
00000150: d39c 74bc d720 063d b063 7c3d 007b 82bc
00000160: 218a 34bc fd5a a0bc 1b81 01bd 2c09 e63b
00000170: 4978 15ba 402d a73c baa8 8aba be36 9a3a
00000180: 2efb 833c 657e 0fbd e4a7 8fbc 40c0 02bd
00000190: 7a30 80bb 869f 04bd d4cf 2abd ae58 e7bc
000001a0: b63d 253c 83e7 063d ae3c 0ebc f0e1 93bc
000001b0: 0fea 39bc 15a0 ba3c f841 003b 37a4 82ba
000001c0: d285 af3b f5ef f2bc b063 ddbc a35b 03bd
000001d0: ef18 aebc 57ab 5abc bc9d 78bc 98b4 a8bc
000001e0: 8c5b ab3c 7753 183c 3838 77bc f285 713c
000001f0: 7c4f 1f3c 3841 ecbc 7531 593d 6618 1fbc
00000200: b075 4dbb d1d7 5d3c 447a 18bd d35c d03c
00000210: 3f78 f3bc 54a3 16bd 0d29 883c b2d0 e7bc
00000220: cf67 803c 8564 34ba 8d4e bc3c 90ae d83c
00000230: c85a 68bc 6630 d3bc cce9 53bc ff1b 50bb
00000240: 9d20 f53c c254 893c 6a10 913c 7f0d 623c
00000250: dde7 fa3c 06b1 b23c 8aea 9e3c 466a 163c
00000260: 0774 e7ba be5c a63c b112 123d 9848 e2bc
00000270: 9a8b c0bc 94f2 073d 74e0 87bc 7ff0 a9bc
00000280: 27a4 073d 709b dabc c397 413b 40bd 843c
00000290: 20e2 683b 4454 4dbc 5272 20bc 7275 48ba
000002a0: 33fd a23c 1d83 d8bc f0fe 9fbc 1b13 073d
000002b0: 9cba 22bc 2d6f f63c 9242 9c3b 595d 163d
000002c0: 462e 81bc d733 0bbc b99b c33c 446d e7bc
000002d0: 2a99 97bc 850c 343a f7cb 0f3d 029f 47bb
000002e0: 40be 423b 043a bc39 7b7f 03bd 5803 f1bc
000002f0: 8df4 663a a137 11bd f690 233c 0509 1cbc
00000300: 563b 4f3c 5331 28bd dcd2 cbbc 002d 42bd
00000310: b0e8 abbc 51d3 c33b 80fd 24bc 29d4 b3bc
00000320: c614 a23c 191b 853c 2370 17bd 9828 ab3c
00000330: 293d 203d e662 09bd 4b46 493c 1394 693b
00000340: 033e 01bd 3735 b73a 9cde e03c 9d1e 5a3c
00000350: 234d 29bd b6a6 0a3c d6f0 9fbc 11a1 95bc
00000360: 5bb3 ce3c a337 813c 277f 693b ad60 dcbc
00000370: 42e7 1a3b f6b1 bc3c c4e2 393b 8244 7cbc
00000380: 1b39 0fbc a564 9fbc a241 eabc f471 033d
00000390: 19bb b73c 49ba e6bc 3a1d cdbc 170d 333c
000003a0: 39f8 65bc 1336 ed3c 9ad9 15bb ce2e 93bb
000003b0: 2782 ba3b 956a 94b9 0303 8b3c ab14 133d
000003c0: 62eb 2bbc d4b2 17b9 d98b bfbc 575c 94bc
000003d0: ea07 c83c 3c37 40bc dade de3c 7b32 9e3b
000003e0: 4e25 7abc d187 863c e4f0 ddba 6aaf 673c
000003f0: 20fc ffbb a12a cf3c 09e3 11bc 367c 2bbd
