weight/epoch_0_base_model.model.vit.encoder.layer.7.attention.attention.value.lora_B.default.weight.npy (npy, 24704 bytes, 1 tensors)

array f4 [768, 8]
00000000: a22b ebb9 1a9e e2b8 dcba 5cb8 0d2a e037
00000010: 1d08 dd36 a2bd 1e39 1c62 09b9 32a5 f4b8
00000020: 9508 1939 52bb 1c39 caba 9e38 4088 a6b8
00000030: dc6b 5eb8 5017 71b9 a681 02b9 c1d6 8cb7
00000040: 4c85 a239 b2d2 8eb8 aa65 3cb9 9193 8638
00000050: 3ba4 fc37 8734 a4b8 4b60 02b9 971a a0b9
00000060: 3e6c 9f38 1745 89b8 9660 a7b7 ccab 45b8
00000070: 6d85 0b39 aa9e ca38 bed5 e437 ce24 ca38
00000080: 72e2 6539 2a7b 0e35 99dd d2b8 c7fe a2b6
00000090: 2273 99b7 bba0 71b9 aca0 09b9 e0a8 8eb9
000000a0: 673e b3ba 413b 5bb9 cc3f a238 74e6 f439
000000b0: b9d2 63b8 e18e 9c39 d69a c139 911a dd38
000000c0: 027a ca39 40ed 4a38 7d39 c8b8 a159 8738
000000d0: 9161 1b38 9b7a c237 b94e a038 a3c8 a0b8
000000e0: 537e 0c3a 1055 f737 accb 3ab9 d341 e8b8
000000f0: 25d1 2fb8 d383 d8b9 d9bb 7fb9 9e7e 85b9
00000100: bb47 62ba af9c 26b7 6455 1239 4911 8139
00000110: 7c35 9eb8 5aa8 8839 9bce 6439 6ebd 8c39
00000120: 8eb0 363a ea9e 5539 a1a3 85b9 9395 c1b9
00000130: 27ec 22b9 2a02 6bb8 15e1 0237 896b af38
00000140: 13cd 9839 d0fd d238 5380 8638 eece 4c39
00000150: cd90 8f38 c0ad 9eb8 42a4 1e39 3623 1039
00000160: 69f3 9239 9edd 9b38 677f 1f38 13d3 af38
00000170: 6e58 5738 0553 4839 15c5 06b8 b077 5439
00000180: 5c58 a5ba 1011 1db9 f589 2439 4751 1a3a
00000190: 09bb da37 1587 bd39 7344 c339 2614 2439
000001a0: 450a bab9 d903 4d38 a3bc 1cb8 1c0d 4438
000001b0: d51d 2db9 35b5 6439 d4c6 f838 fcbb 5139
000001c0: 7ed8 92ba 27e5 ae38 b21c 9338 b5f9 9639
000001d0: 3855 46b9 7e84 7639 53c9 1539 7ef1 5c37
000001e0: 96e2 4f39 aff8 f0b8 c60e 7239 0678 9838
000001f0: 23f0 1c38 a272 b7b7 8016 5ab8 5751 0f39
00000200: 3ac0 c8b9 6c19 d3b8 a7c6 a138 6b36 3139
00000210: b64f ad38 ebac fa38 f108 b8b7 dc97 ee38
00000220: 52e3 bc39 c299 2ab8 b58d 8339 7af4 e9b7
00000230: dadf aeb8 7514 1839 107e 8cb8 1c1a a639
00000240: 3bc3 b139 3db4 4a39 e0c9 02b9 548e 00b9
00000250: bd53 0539 2a94 acb7 3b01 21b9 df5f 68b7
00000260: 0025 afb9 2ee9 ef37 545f 7738 2f7e 1b39
00000270: 113b a8b8 e388 0139 ac6e 6b38 f637 53b8
00000280: d9b8 2138 c503 98b8 0da5 38b8 3348 2639
00000290: 2e4a 3038 b5a0 dfb8 316b 0838 62cf 5639
000002a0: c5c5 4b39 3673 ff38 c3d5 44b9 6ff8 9ab9
000002b0: 242d 24b9 b7cf 51b9 5cc4 8bb9 7591 e0b9
000002c0: c567 5bb9 bdff 50b9 dcbf 8e39 2bd9 8139
000002d0: 3bf1 de38 11df 8f38 2d3d 9bb7 4965 9cb8
000002e0: ffee 4eba d6a9 5ab9 5343 f837 dc9d b939
000002f0: 98e1 84b8 79a3 3039 f4f8 4739 4626 49b9
00000300: 17f3 f636 fe98 1539 7d8a 52b9 c878 77b8
00000310: f53c 8838 94bb 82b8 ab7a 1ab9 d1f8 92b9
00000320: 1443 2339 73f4 3237 5c69 93b7 f131 8cb8
00000330: 45eb 7d38 a247 f1b7 5a00 03b8 17bf fbb7
00000340: a732 deb9 f8f4 ddb8 8d30 d1b8 721f be37
00000350: 2bac 42b9 5804 5239 7aa6 e538 dd4e 13b9
00000360: 047c 64b9 cf07 69b9 30f1 4f39 645f 7f39
00000370: d61e 7238 b8b1 2538 d5a8 8439 1cba cb38
00000380: dfc0 453a fd42 63b8 8820 7db9 f5b7 bdb8
00000390: 25de 1238 cfad 52b9 b061 60b9 3f53 adb9
000003a0: 9b27 8e39 6917 af38 4408 2f38 87a9 b2b9
000003b0: 711b 02b9 1343 be38 50c1 d5b8 7a00 c238
000003c0: 3406 4338 5a99 67b6 46a1 7438 705d 36b9
000003d0: 484f b9b8 458c 57b8 d1e8 58b8 88a3 1439
000003e0: 76d1 463a 62cf 0a39 6c39 88b9 5adf deb9
000003f0: 0f50 a938 8602 d937 1065 bbb9 d9bf b8b7
-0.00044855202 -0.000108059685 -5.2626114e-05 2.6722462e-05 6.5872578e-06 0.00015138698 -0.00013101887 -0.00011665597
0.00014594414 0.00014947102 7.568819e-05 -7.9408754e-05 -5.3029376e-05 -0.00022992236 -0.00012446064 -1.6789303e-05
0.00030998362 -6.810333e-05 -0.0001796695 6.417104e-05 3.0117217e-05 -7.8299134e-05 -0.00012433638 -0.0003053739
7.6018725e-05 -6.545538e-05 -1.9952928e-05 -4.712846e-05 0.00013305778 9.661664e-05 2.727925e-05 9.638966e-05
0.000219235 5.307835e-07 -0.00010054856 -4.857636e-06 -1.8292634e-05 -0.00023043428 -0.00013125193 -0.00027210172
-0.0013675214 -0.00020907541 7.736645e-05 0.00046711008 -5.431727e-05 0.00029861092 0.0003692719 0.000105430496
0.00038619345 4.838151e-05 -9.547451e-05 6.453996e-05 3.7045746e-05 2.3183695e-05 7.644058e-05 -7.666766e-05
0.00053594 2.9484305e-05 -0.00017814216 -0.00011074883 -4.1918032e-05 -0.00041296947 -0.00024388674 -0.00025462074
-0.00086319045 -9.930852e-06 0.00013955456 0.00024617676 -7.543989e-05 0.00026065373 0.00021820741 0.00026844017
0.0006969058 0.00020372463 -0.0002548965 -0.0003692327 -0.00015537498 -5.603038e-05 7.80101e-06 8.36468e-05
0.0002914449 0.000100608566 6.41352e-05 0.00019532043 6.8457426e-05 -7.5663906e-05 0.00015129245 0.00013746027
0.00028028645 7.4322554e-05 3.8027207e-05 8.383966e-05 5.134235e-05 0.00019104414 -3.2131637e-05 0.00020262483
-0.0012614834 -0.00014979043 0.00015691652 0.0005886745 2.607472e-05 0.00036149533 0.00037244297 0.00015647765
-0.00035484336 4.8879392e-05 -3.736898e-05 4.674225e-05 -0.00016509679 0.0002181128 0.00011862596 0.00020001823
-0.0011203436 8.3396495e-05 7.014851e-05 0.00028796276 -0.00018914498 0.00023509745 0.00014284746 1.3169249e-05
0.00019825468 -0.00011490413 0.00023084422 7.270281e-05 3.7416943e-05 -2.186868e-05 -5.1996205e-05 0.00013667844
-0.00038290193 -0.00010065999 7.71408e-05 0.00016900308 8.26413e-05 0.000119531374 -2.1938673e-05 0.000113770104
0.0003602752 -4.0674357e-05 0.00025091847 -2.7889608e-05 -8.338662e-05 0.0001450347 -6.699201e-05 0.0003168144
0.0003390553 0.00019331365 -0.0001247297 -0.00012260053 0.00012715063 -2.0572992e-05 -0.00015354615 -1.3850599e-05
-0.00033406168 2.8599603e-05 5.897817e-05 0.00014828959 -8.021866e-05 0.00012353393 5.6131437e-05 -5.0358438e-05
3.8557544e-05 -7.248627e-05 -4.4022734e-05 0.0001585789 4.2030755e-05 -0.00010663403 3.2524757e-05 0.00020485886
0.00019433264 0.00012180807 -0.00018771649 -0.00029558266 -0.00015657075 -0.00020009173 -0.00026658445 -0.00042832983
-0.00020924125 -0.00019931696 0.00027227297 0.000247666 0.000106307176 6.860321e-05 -1.8505927e-05 -7.4575255e-05
-0.00078938896 -0.00020853369 2.9595254e-05 0.00035403564 -6.3362706e-05 0.00016845566 0.00019070861 -0.00019183112
7.3596707e-06 0.00014266741 -0.00020078752 -5.9001875e-05 6.4963395e-05 -6.233822e-05 -0.00014732282 -0.00028032673
0.0001556988 1.0666542e-05 -1.7572827e-05 -6.6850225e-05 6.0539012e-05 -2.8762795e-05 -3.123316e-05 -3.0010515e-05
-0.0004238088 -0.0001058373 -9.97494e-05 2.2664408e-05 -0.0001856542 0.00020028779 0.000109505796 -0.00014048391
-0.00021789974 -0.0002222352 0.00019830908 0.00024354231 5.7726014e-05 3.950458e-05 0.00025302792 9.71446e-05
0.00075436936 -5.4183405e-05 -0.00024140079 -9.046487e-05 3.5016e-05 -0.0002009191 -0.00021398696 -0.00033059155
0.0002711386 8.349011e-05 4.173095e-05 -0.00034077113 -0.00012407989 9.0723996e-05 -0.00010192639 9.2507296e-05
4.64974e-05 -3.4510945e-06 5.832433e-05 -0.00017391681 -8.836255e-05 -5.139063e-05 -5.171524e-05 0.000141753
0.00075843127 0.00013237962 -0.00025982724 -0.0004250955 8.07346e-05 2.586959e-05 -0.00035742717 -2.2023845e-05
